trained_models/connectivity_issue_model.pth (torch, 24543 bytes, 5 tensors)

module.fc1.weight f4 [64, 19]
000000 90 c0 53 bf 88 f4 d1 be f8 46 02 3f fd a1 41 3f
       -0.827157 -0.41006875 0.5088954 0.756378
000010 7b 99 ce bd 1c f0 31 3e 5d b2 5f 3e df 88 53 3f
       -0.10087868 0.1737675 0.21845384 0.82630724
000020 0c 9d f8 3d 8f 04 1a bf f0 22 80 bc f4 08 6a bf
       0.12139329 -0.60163206 -0.01564166 -0.9141991
000030 1b 40 34 be e2 09 1f 3f 12 9d e4 bd 7e b6 1a 3d
       -0.1760258 0.62124455 -0.11162771 0.037771694
000040 75 7b 21 bf f9 07 21 be 34 ed a4 3b a5 97 e4 3d
       -0.63079005 -0.15725698 0.0050331596 0.111617364
000050 2b 35 50 3f af 49 a4 bd b6 d6 44 3e ab b0 e4 bd
       0.8133113 -0.080218665 0.1922253 -0.11166509
000060 ce a0 80 3f 88 1a 93 3d 8a 09 5e be e7 44 2e 3f
       1.0049074 0.07182795 -0.21683326 0.68073887
000070 1c d6 9d 3e 8c 95 01 3f 3f 21 31 3f 3f 5c 26 3d
       0.30827415 0.50618815 0.69191355 0.040615316
000080 8d 0b d2 be 27 80 05 3d b8 17 cb be 6c 62 1e 3e
       -0.41024438 0.03259292 -0.39666533 0.15467232
000090 f0 0c a7 be d9 b1 fd be 3e 21 ab 3e 9c 2b 58 bf
       -0.32627058 -0.4954975 0.334238 -0.8444154
0000a0 98 63 36 be c4 d9 07 3e fb ec 81 be 3d a9 c6 bd
       -0.1781143 0.13266665 -0.25376114 -0.097002484
0000b0 41 3b 7a 3d fe 13 9d 3d cd c5 4a be e0 f5 38 bf
       0.061091665 0.07669829 -0.19802018 -0.72250175
0000c0 ce b6 11 bf a1 19 11 3e ed 1b 8b 3e 10 c7 06 bd
       -0.5691956 0.14169933 0.27169743 -0.032904685
0000d0 40 81 67 bf 59 34 06 3f 21 35 70 bf 42 21 9b be
       -0.90431595 0.52423626 -0.9383107 -0.3029881
0000e0 87 7d 8d 3d fc 9d 7d bf 95 81 32 bf 0f fa 9a be
       0.06908708 -0.9906919 -0.69728976 -0.30268905
0000f0 2e ff fb 3e bf c3 f9 be 04 42 55 bd 9f c7 90 bd
       0.49218124 -0.48782155 -0.05206491 -0.07069325
000100 29 3b da be 96 49 8d 3b 38 cf 35 bf a9 f3 84 be
       -0.4262326 0.0043117506 -0.71019316 -0.25967148
000110 87 02 ad bf 8e d0 83 be 91 e9 8b 3d 1b 15 10 3e
       -1.3516396 -0.25745052 0.06831659 0.14070551
000120 2d df a7 3e 90 33 d1 3e 09 d6 4d bd 5b 15 36 3e
       0.32787457 0.40859652 -0.050252948 0.17781584
000130 1b 98 ff 3e 78 72 c7 3e 95 10 d3 3e 68 35 8f bd
       0.49920735 0.3895452 0.4122359 -0.06992608
000140 bf b1 0a 3e 7b d1 5d 3f a4 ef 78 3e 76 28 bf be
       0.13544367 0.86647767 0.24310166 -0.37335557
000150 c9 65 84 bf a9 1b 31 bf bc 6e 8e be fd 23 07 bf
       -1.0343562 -0.6918283 -0.2781886 -0.5278929
000160 28 65 2f bf 0b 06 03 bf ff cc ee 3e c7 c8 9a bd
       -0.6851373 -0.51181096 0.46640775 -0.075578265
000170 29 cf 97 bc 44 70 b5 be e8 d9 70 3f 95 bc 81 be
       -0.018531399 -0.35437214 0.940825 -0.2533919
000180 31 7d 12 bc 11 b9 49 be 85 47 0b bf 5b 3d 20 3e
       -0.008940981 -0.19699503 -0.54406005 0.15648405
000190 ba 54 1e 3e 23 38 f2 be 54 10 1d bf f9 45 70 bf
       0.15462008 -0.47308454 -0.6135304 -0.9385677
0001a0 d0 87 23 bf c6 cc 5b 3e 1d 2b 0e bd 64 3e 00 bf
       -0.6387911 0.21464834 -0.034709085 -0.500952
0001b0 65 dc 93 3b 9c 52 c1 3e fe e0 0d 3e 1d 8d d6 bc
       0.004512357 0.37758338 0.13855359 -0.026190335
0001c0 a4 88 ed 3e 90 18 15 bf 57 a9 f2 be 79 bb ee 3e
       0.4639331 -0.58240604 -0.4739482 0.46627405
0001d0 91 6b cc 3e aa fa dc 3c be 91 be 3e e1 99 1c 3e
       0.39925817 0.026974995 0.37220567 0.15293075
0001e0 19 e8 7b 3e ae 23 67 3f 01 e6 a2 bd b2 00 35 3e
       0.24600257 0.9028882 -0.07954026 0.17676046
0001f0 e0 1d d0 be 1a a0 84 3f bb c6 14 bb 70 5a 8d be
       -0.40647793 1.0361359 -0.002270146 -0.2760806
000200 40 18 3f bf 71 5c 5a be 1d 7f 54 3f 83 fd 25 bd
       -0.7464638 -0.21324326 0.8300646 -0.04052497
000210 7d b7 2c 3f 78 46 2e bf ad ed a0 bf 60 b8 a4 3e
       0.6746748 -0.68076277 -1.2572533 0.32171917
000220 2b 92 eb 3e d6 12 9d be bc 09 85 3e 8d 3c 22 3f
       0.46009955 -0.30678433 0.2598399 0.63373643
000230 2f 90 b3 be f5 25 9e 3e e8 4f c7 bd bf f0 8e bd
       -0.3507094 0.30888334 -0.09732038 -0.069795124
000240 07 be d4 3e 61 30 16 3d cf b7 51 bf 27 5d 7f be
       0.4155123 0.03666723 -0.81921095 -0.24937879
000250 ff ca e8 3d 20 df a5 3e 15 86 a8 be 93 e1 b3 3c
       0.113668434 0.32396793 -0.32914796 0.021958148
000260 15 03 07 3f 0c d4 04 3f 0d 02 fa be 95 59 88 be
       0.5273908 0.5188606 -0.4882969 -0.26630846
000270 e3 18 0d 3f 51 90 55 3d a1 b6 cf be 78 e5 21 3f
       0.551161 0.052139584 -0.40569022 0.63240767
000280 f3 85 4b bf 6a 70 d6 3e fa 98 7f 3e c8 1d bd be
       -0.79501265 0.4188264 0.249607 -0.36936784
000290 d1 3c 1b 3f 56 be 0b bf 15 79 68 bd 0a 22 35 3d
       0.60639673 -0.54587305 -0.056756098 0.044221915
0002a0 a4 29 8f be 3f 1b 81 3d 00 c6 54 3e bc e4 7c bf
       -0.27961457 0.06304025 0.20778656 -0.9878652
0002b0 e9 c2 ae be 42 87 da 3e ee ca 09 3e 61 8f 10 be
       -0.3413308 0.4268132 0.13456318 -0.14117195
0002c0 da 7d 74 be 16 b1 11 be 2e d8 22 3f 84 c3 ae be
       -0.23876134 -0.14227709 0.63611114 -0.34133542
0002d0 57 e3 34 bf 76 43 88 be 1a 6a 90 3f 99 74 92 be
       -0.70659393 -0.2661397 1.128238 -0.28604582
0002e0 bd 6c 0e bf a0 54 93 3e 66 49 83 be e1 d4 36 bf
       -0.5563467 0.287755 -0.25641936 -0.7141858
0002f0 ea 34 ce 3c 80 93 28 3e 07 8d 9d bc 9a 37 da 3c
       0.025171716 0.16462517 -0.019232286 0.026637841
000300 7c fd 93 be 63 db 29 3f 03 7a 8d bf d3 d8 0a be
       -0.2890433 0.6635038 -1.105286 -0.13559274
000310 eb ba f8 3c 5a 76 b1 be 7c 54 64 bf 54 31 98 3e
       0.030362567 -0.34660608 -0.8919141 0.29725134
000320 ae 91 24 be e7 78 a7 be 6b 1f f0 be 5b 31 04 3e
       -0.16071197 -0.3270943 -0.4689897 0.12909453
000330 07 2c 0a 3e 19 38 11 bf df f3 01 bf d6 31 15 bf
       0.13493358 -0.56726223 -0.5076274 -0.5827917
000340 2c 35 f5 be 62 d0 a9 3e 4c e3 6f bf e7 ef 06 bf
       -0.4789213 0.33166796 -0.937062 -0.5270981
000350 8f ac 35 3e 2a 77 05 3e ee b9 98 3c b3 db 68 bd
       0.17741607 0.13033739 0.018643346 -0.056850147
000360 bc 95 ed 3e 04 ff 0d bf fc 45 d2 be 99 52 db bd
       0.464033 -0.5546725 -0.4106902 -0.10709114
000370 84 6b b1 3f 5b 51 08 3e 25 32 34 3e f0 36 8a 3e
       1.3860936 0.13312285 0.17597254 0.2699504
000380 0e ea ef 3e c4 79 65 bf ce ba b4 3e 94 a7 cc be
       0.46858257 -0.89638925 0.3529877 -0.39971602
000390 fd 4e 31 3f ef 85 da 3d 29 db 49 3e 1a 39 82 be
       0.6926115 0.10670077 0.19712509 -0.2543419
0003a0 1e e7 44 3e 00 a9 4d bf f5 ca d8 3e 69 4b a0 be
       0.19228789 -0.80336 0.42342344 -0.31307533
0003b0 49 25 3a 3f 0b fc 4b bf 22 df 34 bf be 56 9b be
       0.7271314 -0.7968146 -0.70652974 -0.30339617
0003c0 d5 80 f6 be f0 1c 72 be d5 ca 8f 3c b1 37 10 be
       -0.48145166 -0.23643851 0.017552773 -0.14083745
0003d0 ab 5f 07 bf c8 68 db be a6 59 29 bf da 45 55 be
       -0.5288035 -0.4285338 -0.6615242 -0.20827428
0003e0 61 84 dc be cc d1 98 bd 86 a5 e3 3e 99 d7 5e 3e
       -0.43069747 -0.074618906 0.44462222 0.21761931
0003f0 e7 de c2 3e 5f af 3c bf 77 0b 11 3f a1 c6 7b be
       0.38060686 -0.73705095 0.5665812 -0.2458749

module.fc1.bias f4 [64]
000000 44 b7 44 bf 84 79 12 bf d9 92 88 bf ac 11 67 be
       -0.7684214 -0.5721667 -1.0669814 -0.22565335
000010 4b 6f c2 be 48 0a c7 be 84 82 70 bf cc b5 9e bf
       -0.37975535 -0.3887503 -0.9394915 -1.239923
000020 32 ab 8e be e7 90 01 3e 1e b2 9d bf 87 97 0b bf
       -0.27864987 0.12652932 -1.2319982 -0.5452809
000030 20 55 29 bf 3a 6f 0a bf 54 ab 99 bf 55 c3 38 bf
       -0.66145515 -0.5407597 -1.200541 -0.72173053
000040 71 61 38 bf 2e 48 d1 bd 56 52 2b bf a8 75 4f bf
       -0.72023684 -0.10218845 -0.6692251 -0.81038904
000050 ea 0c 38 bf fc b3 51 bf 6a ce 28 bf 99 55 26 bf
       -0.71894705 -0.8191526 -0.6593996 -0.6497436
000060 18 54 25 bd ca 64 90 bf ab c2 a7 bf 18 4f 2c bf
       -0.0403634 -1.1280758 -1.3106283 -0.6730819
000070 5c b0 65 bf 37 0e 3c bf 05 b7 4c be 33 45 44 bf
       -0.8972223 -0.7345919 -0.19991691 -0.7666809
000080 1f c9 10 be b7 ab b8 bf 43 02 c2 bf 53 9e 43 bf
       -0.14139222 -1.4427403 -1.515694 -0.7641346
000090 bc 61 8c bf a8 27 b4 bf bc e9 5a bf 81 6a 11 bf
       -1.0967326 -1.4074602 -0.855129 -0.5680314
0000a0 70 05 8a bf 1d 0d 75 bf 9a 95 29 bf 45 ff 09 bf
       -1.0782909 -0.95723134 -0.662439 -0.53905135
0000b0 03 cb 2b bf 5c f2 ae bf b6 a7 61 bf 21 74 30 bf
       -0.67106646 -1.3667712 -0.8814653 -0.689272
0000c0 bb 9c a1 bf 60 f4 e4 be 02 e4 8d bf 63 7b 7a bf
       -1.2625955 -0.44717693 -1.1085207 -0.97844523
0000d0 a1 15 28 bf 03 c1 01 bf 18 96 4e bf 46 55 59 bf
       -0.65658003 -0.5068514 -0.80697775 -0.8489574
0000e0 ee 33 4d bf e7 04 91 be ef ee bb bf 4a 03 3e bf
       -0.80157363 -0.28324053 -1.4682292 -0.7422377
0000f0 5d f1 d5 3d 97 9a 64 be 79 49 15 bf a4 a6 6c be
       0.10446427 -0.22324596 -0.58315235 -0.23110443

module.fc2.weight f4 [64, 64]
000000 3e a2 fe 3d 3d 70 77 be 7b dd 0e be 09 a0 9a bf
       0.12433289 -0.2416391 -0.13951676 -1.2080089
000010 55 ed 34 be 69 d2 bd 3e 50 cd 87 3e a3 13 d1 be
       -0.1766866 0.37074593 0.26523829 -0.40835294
000020 8c b2 34 3e e8 a0 9d be ea 2f 54 bf 37 e6 f4 bc
       0.17646235 -0.30786824 -0.8288561 -0.029894931
000030 1d a8 c4 3e 5c 31 c4 3d bb de 56 be 19 a8 a9 be
       0.3840951 0.09579727 -0.20983402 -0.3313606
000040 63 d0 b1 be 90 56 cf bf d5 a4 b5 3e 54 a7 2c 3f
       -0.347293 -1.6198292 0.3547732 0.6744282
000050 b4 a6 b5 3e 81 04 92 3e 97 c3 53 3e 75 65 bb 3d
       0.35478747 0.2851906 0.2068008 0.09150211
000060 2d 80 b2 bc 54 35 09 3f 81 7a 82 be 3d f5 1f bf
       -0.021789635 0.53597 -0.25484088 -0.6248358
000070 5f f6 c5 3e 90 a2 b4 be 33 c2 92 3e 4e b2 94 bc
       0.3866453 -0.35280275 0.28663787 -0.018151429
000080 c6 b4 39 bf b3 58 54 3e 4f 2e 24 3e b4 bb 64 3e
       -0.72541463 0.20736961 0.1603329 0.22337228
000090 f7 41 dc 3c 7b ef 57 3e 01 51 bd bf 1a f6 1d bf
       0.026886923 0.21087448 -1.4790345 -0.61703646
0000a0 23 cb 5f be c3 51 76 bf f9 54 14 bc 08 00 25 be
       -0.21854834 -0.9621851 -0.009053462 -0.16113293
0000b0 6b 73 73 bf c3 b2 4a 3f dd 01 a7 3d 7c 73 c4 3d
       -0.9509799 0.7917902 0.08154652 0.095923394
0000c0 2a 0f 24 3f 29 de a4 be 38 b2 c1 be 74 0c 4d 3e
       0.6408564 -0.32200745 -0.37831283 0.20024282
0000d0 af 83 05 3f a4 59 d7 3e 1f 67 16 bf 7c 52 41 3f
       0.5215406 0.42060578 -0.587511 0.75516486
0000e0 70 3e 9d be 85 cc 92 3e 32 aa e9 bd c1 ac 5f 3e
       -0.307117 0.2867166 -0.11409415 0.21843244
0000f0 d5 2a e3 be 48 1b 1b be 69 f9 8d bf b6 fa ce 3d
       -0.44368616 -0.15147126 -1.1091739 0.10106413
000100 45 67 f5 3d 10 89 c4 be 51 34 0e 3d db d9 c4 be
       0.11982588 -0.3838582 0.03471786 -0.3844746
000110 a9 c6 3b be 80 bd 4f 3f 9e 78 57 3e 1a 15 45 bf
       -0.18337502 0.8114853 0.21042106 -0.76985323
000120 97 9d 8e 3e a6 72 06 bf 56 d2 a1 3e 55 28 cd 3d
       0.27854607 -0.5251869 0.31605786 0.10017458
000130 6b 82 ef 3e 8b b5 ee 3e 1d af f9 bd d3 71 08 bf
       0.4677919 0.4662288 -0.12191603 -0.5329868
000140 3d 68 4c 3f de 0b 4f 3d c0 3f 6b bf 6b b7 52 bd
       0.79846555 0.050548427 -0.9189415 -0.051444452
000150 30 af 96 3d 1a a7 5c bf e9 ca de be a7 44 10 3e
       0.07357633 -0.86192477 -0.43514183 0.14088689
000160 be 79 56 be 99 14 5e 3f 05 cf d6 bf cd 21 e6 3d
       -0.20944878 0.8675018 -1.6781927 0.11236916
000170 d6 0e 7f 3e de da b7 3c f2 1d 91 3e 03 64 00 3e
       0.24908003 0.022443231 0.2834316 0.12538151
000180 7e a5 bd 3d 8d 06 99 bf e3 f4 53 be 46 57 08 bf
       0.09260081 -1.1955124 -0.20698886 -0.5325817
000190 6c 79 06 bf 14 45 19 bf f6 0d 94 3e ad 00 ac 3e
       -0.52529025 -0.5987103 0.289169 0.33594266
0001a0 13 d4 07 3f 1a 91 8b be c5 83 bc be c1 57 c8 be
       0.53057975 -0.2725914 -0.36819282 -0.3912945
0001b0 30 e5 56 bf a4 f0 ad 3e 18 85 d7 bd e3 ff 89 be
       -0.8394346 0.33972657 -0.105234325 -0.2695304
0001c0 6e 79 8a 3d 88 ad df 3e 98 d7 75 bf 26 0c 4f 3e
       0.06761442 0.4368708 -0.96032095 0.20219478
0001d0 e4 ce e8 bd d9 d1 98 3e 09 35 6c 3e cd b1 0e 3f
       -0.11367586 0.298476 0.23067106 0.5574005
0001e0 39 1d 0e 3f cd 7b 3e bf 88 3e de 3c 0a 04 95 bf
       0.5551334 -0.74407655 0.027129427 -1.1641858
0001f0 36 68 12 3e 28 37 74 3e e9 23 80 be b4 8c 65 bf
       0.14297566 0.23849165 -0.25027397 -0.8966782
000200 03 8e a3 3e b7 81 e6 bb 1e 0c 72 3e 34 2f a6 3e
       0.31944284 -0.007034506 0.23637435 0.32457888
000210 19 e4 50 be e8 07 a3 bf 42 e6 64 3f 8f 6d a6 be
       -0.20399512 -1.2736788 0.89413846 -0.32505462
000220 cb b4 bf bc 41 15 81 bf 6b 5b be bd 72 cb f0 3d
       -0.023401638 -1.0084611 -0.0929478 0.11757554
000230 d3 d1 56 3e 6c c3 94 3d 52 e2 54 bf f1 95 aa be
       0.20978479 0.07263836 -0.8315784 -0.3331752
000240 da bd 58 3e a6 a1 cf 3d 18 24 90 be ed d0 51 3f
       0.21166173 0.10138254 -0.28152537 0.8195942
000250 8b 69 9f 3e 62 6f 9b 3e 4d 92 58 be db ce 00 bf
       0.3113521 0.30358416 -0.2114956 -0.50315636
000260 39 76 48 bf 63 e9 70 bd aa 47 f7 be 8b fa 9b bf
       -0.78305393 -0.058816325 -0.48296863 -1.2185835
000270 8e db c0 3d ac 22 93 be 79 4b 85 3e 09 90 65 be
       0.09416877 -0.2873739 0.26034144 -0.22418226
000280 76 f2 44 be e5 2f 46 bf 4c 66 ca be 82 fb 28 3f
       -0.19233117 -0.7741683 -0.3953117 0.6600877
000290 06 6e 61 3e 0c 9e 16 3f 20 a8 1d 3f d2 13 ad be
       0.22014627 0.5883491 0.61584663 -0.33804184
0002a0 0e ec 09 be 54 d0 cb 3e d9 1d 71 bd bf b4 e7 be
       -0.13468954 0.3980738 -0.058866356 -0.45255086
0002b0 08 4b b8 3e 4e be 32 3f ba 17 4b be 76 08 25 bf
       0.35994744 0.6982163 -0.1983327 -0.64466035
0002c0 25 7f 8c 3f 19 df 40 bf f4 e5 0a 3e e8 21 3a bf
       1.0976301 -0.7534042 0.13564283 -0.72707987
0002d0 ba 1f 47 bf 6a 06 5c be 73 73 13 be 8e 03 c0 bd
       -0.77782786 -0.21486822 -0.14399509 -0.09375678
0002e0 02 05 04 3f ae ca c7 3e 67 55 e0 bc 2a 17 51 be
       0.5157014 0.3902182 -0.027384473 -0.20418993
0002f0 0a 36 52 bf 16 ec ce 3e 39 bc 02 bf 00 0e 3a 3e
       -0.8211371 0.40414494 -0.51068455 0.18169403
000300 d5 7c ff 3e 12 27 b0 3d 02 18 8d be ca 7c 6f be
       0.49899927 0.08601202 -0.2755738 -0.23387447
000310 b9 69 c9 bd eb a9 eb 3e de 41 1e 3f 9a 91 40 bf
       -0.09834618 0.46028075 0.61819255 -0.7522217
000320 7f 37 77 be 04 33 b5 bf b6 68 7f bf c2 0c f3 be
       -0.24142264 -1.4156194 -0.9976915 -0.4747067
000330 fd 9c 00 bf 33 ae ae 3e 6a 74 a0 bf b4 41 9b be
       -0.50239545 0.34117278 -1.2535527 -0.30323565
000340 3e eb 8b 3e 09 f8 69 3e a4 ab af 3e 70 6f 35 3f
       0.27327913 0.22848524 0.3431064 0.70873165
000350 26 77 b1 be 75 3b 37 bf 75 83 83 bf 44 71 ad 3c
       -0.34661216 -0.715751 -1.0274493 0.021172173
000360 a5 21 af be 14 23 ea 3e 39 9d 80 be e0 8b 29 be
       -0.34205356 0.45729887 -0.2511995 -0.16557264
000370 79 aa d4 3e 2d b7 f9 3d bf 24 2e 3f c8 e7 b1 bd
       0.4153631 0.12193141 0.6802482 -0.08686787
000380 75 93 9f bd 82 ea 3b 3e 9f fd 6e 3e 0f 10 9b be
       -0.07791797 0.18351176 0.23338936 -0.3028569
000390 45 cf ab 3d ad 1d 2d c0 0e 76 fe 3e c0 9c 88 39
       0.08389143 -2.7049363 0.49699444 0.0002605673
0003a0 7e 2a 77 3f f4 59 a8 be f1 4b 76 be 01 4f 21 3e
       0.9654921 -0.3288113 -0.24052407 0.15752794
0003b0 7d 2c 42 bf c3 76 ea be a2 22 c5 be a8 12 2e bf
       -0.75849134 -0.45793733 -0.38502985 -0.6799722
0003c0 4d c3 36 bf b6 10 2d bd 1f 6e 8d be 44 e5 07 bf
       -0.71391755 -0.042252265 -0.27623078 -0.53084207
0003d0 56 a9 20 bf f0 73 03 3e 8c 24 40 c0 cf 87 86 be
       -0.62758386 0.12837195 -3.0022306 -0.2627549
0003e0 5b 01 32 3f dd f7 cf bf ed 19 46 3e c4 24 da be
       0.6953332 -1.6247517 0.19345827 -0.42606175
0003f0 bd e1 a5 3b 2b 33 a6 3d df 71 a5 be 20 95 fb bf
       0.0050623105 0.08115228 -0.3231344 -1.9654884

module.fc2.bias f4 [64]
000000 54 c9 49 be 4e 78 e5 3c 67 a0 99 bf 1c 26 34 3f
       -0.19705707 0.028011467 -1.2002076 0.7037065
000010 f8 fd 41 bf 2d f3 43 be 6f c3 65 be 73 ec f4 be
       -0.7577815 -0.19135733 -0.22437833 -0.47836646
000020 3f a7 d8 bf 36 5c 90 bd f0 8b 7c be 2c 4b aa be
       -1.692604 -0.07048838 -0.24662757 -0.33260477
000030 c2 c1 23 be be 6c 44 3f 9d ff 62 be 98 5e 8b be
       -0.15991881 0.7672843 -0.22167821 -0.27220607
000040 50 3d da bc b3 f0 05 3e 06 af 18 be 27 d8 86 bf
       -0.026640564 0.130801 -0.14910516 -1.0534714
000050 46 e5 c8 3c 02 81 0d be 19 63 14 be e5 6e 04 bf
       0.024523389 -0.13818744 -0.14490928 -0.5173171
000060 01 b0 31 bf d7 9e 0b bf 19 27 b4 be dc 3a 1b bf
       -0.69409186 -0.54539245 -0.3518608 -0.6063669
000070 42 f1 4f bd 6a 02 28 bf ac 4d 44 be 54 5c a8 be
       -0.05076719 -0.65628684 -0.19170254 -0.3288294
000080 7c 1e c6 3e 28 95 dd bd 92 03 2b bf b6 62 39 bd
       0.38695133 -0.10819465 -0.6680232 -0.045260154
000090 6f de 00 be 0a 64 c0 be bd 4a 9e be 99 72 f6 bd
       -0.12584852 -0.37576324 -0.30916396 -0.120335765
0000a0 f7 ff 44 be 7a 61 a8 be 21 1f 24 bf b5 0e 01 bf
       -0.19238268 -0.3288687 -0.6411 -0.50413066
0000b0 66 df d4 3e 4d ba 14 3e 70 2d ee bd aa 99 68 3d
       0.4157669 0.14524193 -0.1162976 0.05678717
0000c0 e8 91 35 3f 3e 27 e6 bd e3 7f 90 be a4 2a e7 3e
       0.7092576 -0.112379536 -0.2822257 0.4514972
0000d0 d6 a9 aa bd 9c 56 bb bd 2c 4e 1a be 59 45 4a 3e
       -0.08333175 -0.09147379 -0.15068883 0.19753017
0000e0 92 fd 3d be fb 6b 15 3e a9 e5 a0 bf 52 4a b2 3e
       -0.1855376 0.14591973 -1.2570087 0.34822327
0000f0 76 d7 44 be d8 7d 26 be f3 8a ed be 61 12 77 be
       -0.19222817 -0.16258943 -0.46395072 -0.24128105

module.fc3.weight f4 [1, 64]
000000 b7 31 b7 be e1 47 67 be c1 85 0b bf 72 0b 03 3f
       -0.35780117 -0.22586013 -0.5450097 0.5118934
000010 e4 28 9d 3f 60 19 c0 3e 42 96 fa bc 39 1e bc bf
       1.2278104 0.3751936 -0.030589227 -1.4696723
000020 4c a7 ae bf ce c9 e7 be 2c 02 06 3e 70 c2 84 3f
       -1.3644805 -0.45271152 0.13086766 1.0371838
000030 be f5 0b 3c 37 6d 85 be ff 40 d5 3d b7 31 e4 3d
       0.008542476 -0.26059887 0.10412788 0.11142295
000040 69 37 cb 3e 1c ad f2 3e e7 18 fe be e2 d2 57 bf
       0.39690712 0.47397697 -0.49628374 -0.84306157
000050 50 be a3 be 18 3a 3e 3d cd 74 a5 bc 5b 63 12 bf
       -0.31981134 0.04644212 -0.020197297 -0.57182854
000060 90 56 58 40 d4 46 df be ef b2 08 3f db 7c b5 3e
       3.3802834 -0.43608725 0.5339803 0.3544682
000070 8c 16 41 be e8 17 00 3f 37 04 dc be 52 8d a1 3e
       -0.18856257 0.5003648 -0.42971966 0.3155313
000080 7d a8 8b 3e 3d c8 2d 3f 00 b7 a6 be 3a f0 41 be
       0.27276984 0.67883664 -0.32561493 -0.18939295
000090 a9 73 bd bc 0d 1a 80 be 62 60 92 40 90 2d da 3c
       -0.02312644 -0.25019875 4.5742655 0.026633054
0000a0 52 c0 db 3d c2 81 d5 be fb ee 42 3f dc f4 bb 3e
       0.107300416 -0.4170056 0.76145905 0.3671025
0000b0 0e 64 71 3e 13 20 8d bf 48 26 c9 3e c4 d4 ae 3e
       0.23573324 -1.1025413 0.3928702 0.34146702
0000c0 08 24 72 3f 15 a3 7f bc e5 d0 08 bf fc 03 d7 3e
       0.9458623 -0.015602847 -0.5344375 0.41995227
0000d0 17 5e 89 40 99 18 42 3f f3 5a 8e 40 fc 9a ee 3d
       4.2927356 0.75818783 4.448602 0.11650655
0000e0 67 c7 ce bb 63 81 eb 3e 32 e6 9c bf 01 7a 96 be
       -0.0063103917 0.45997152 -1.225775 -0.29389957
0000f0 87 02 7e 3d 72 5e f0 3b 97 82 33 3e 05 4e 7f 3f
       0.06201413 0.0073354775 0.17530285 0.99728423
