trained_models/firmware_update_model.pth (torch, 24455 bytes, 5 tensors)

module.fc1.weight f4 [64, 19]
00000000: bf42 10bf e7c5 bebe fa51 123e fc47 0a3c
00000010: fd68 6abc c019 0cbd b8b4 0ebf ebf8 593e
00000020: beae 7dbf 1b0d b43d dfde dfbe 7fe0 d43d
00000030: f425 afbe 64e3 3dbf da3e 67bf 4fb6 a03d
00000040: 0a77 4b3f a64a 403f a5ff 083f bf5d 40be
00000050: a68f 863e 2429 e6be 17d9 3dbc 65c0 ef3d
00000060: 8d82 77be 638a 9cbd c43a fd3d 9b8f 87be
00000070: 5ff6 b4be f089 f33e e14c 92bf 4e54 0abf
00000080: a114 bcbe eeae 753f 6f62 473f 7e4a b8be
00000090: 5aab 053f 715f 5cbe 2af8 c9be c8a3 04be
000000a0: eebb 40bf 88f1 c83c 3609 66bf ac40 fbbe
000000b0: f113 c03e bd47 a3bd 2633 09be d2f8 243e
000000c0: a34e 06bf 4ad6 a53c f6c3 3fbf 1698 803e
000000d0: 1e9f b33d 5463 7a3e dc4c 4b3f 8bb5 e03e
000000e0: 131f 113e 91b8 8dbd 99e0 5fbf ae04 20be
000000f0: ec9b 36bf 3fc2 893e 1027 323e 0a22 323b
00000100: 2e2d aa3e 139a 323e 227c 053f 2d9b 1b3f
00000110: c9ad e7be 1657 3cbf b462 c03d fe51 69bf
00000120: 8e1e e33e 6f70 5e3f c642 c13e 1f78 10bf
00000130: d284 053f 877e 7e3c 3277 c4bd 9187 9fbd
00000140: 2db1 0bbf fda2 823f 4c2f f3bd acdd 0abf
00000150: b9cf c53d 1da2 b53e 294b 883e 367c 4c3e
00000160: 7106 483e 24e7 913e 53fb 62bf d02f 1eba
00000170: 528a 483d c60e 5e3e 9fde ce3e be36 d8bd
00000180: 4a77 4dbe 4990 c63e 56c7 37be 9d2f 203e
00000190: 6170 403d 5ce5 dbbe f311 bd3e 3899 0b3f
000001a0: 80c1 85bf 4f13 4f3f ad06 5bbe 8727 62bb
000001b0: 49b1 17be 01b7 64bf d67c 32bf 23b2 b43e
000001c0: 8211 5bbd 80fb fc3d d4c8 42be 083b f93d
000001d0: 6d0b 20be 4825 edbe d067 91be 5c42 213f
000001e0: f495 b1bf 5dbe 50be edcb 93be 947e 163f
000001f0: f36a 43be f746 52bf 3f54 a93e d357 b3be
00000200: 2fca ccbe 6bf8 9abe 2760 3bbe 4cb5 8f3e
00000210: 76ea e73e 6502 a43e d54d a8be 41db a63e
00000220: ad2d 383f 53ff 2cbf df9b 5d3e efdc f23e
00000230: e7ae ffbb da01 18bf 181e 763d 5540 55be
00000240: 8a8f 46be 963d f1bc 30e8 a4be 49b1 853f
00000250: b305 9a3d 9b69 333f 394b aa3c 0ecb d43d
00000260: 03b3 403e ca0c 31be 56e8 ff3e 9eb6 30bf
00000270: ac48 97be 395b 5ebe 6348 79be 3947 82bd
00000280: 0708 ae3e e479 c23d 45c4 103f a682 b33e
00000290: 2f0a 8f3e 9f16 023f 40c0 0e3f f448 90bc
000002a0: 92b1 723f 433e 0abf e0a2 54be c426 98bd
000002b0: 4991 c73e f417 0bbf dd56 a2be 104e 23bc
000002c0: a6ab 5dbe 4f03 273f 9ace 6ebe f43f a2be
000002d0: d3b4 1abe 11ae a0bd f06e dd3e 6fa5 403f
000002e0: d784 c3be a474 853f 4095 8dbe c7b3 7f3e
000002f0: 1f55 a0bd 65d5 2b3f 34b6 97be d54d 7cbf
00000300: d152 6ebe f58c 553f 392b 56be 0c6c a73e
00000310: d831 1d3f b51b b53d 0157 023e 8344 f5bd
00000320: 15c3 2abd c13d ff3e f12b 9abe 0ac1 31be
00000330: 1acd 0cbf e6ae 85bf 0615 0dbe 4ad4 ccbe
00000340: 7cac 223d 6de0 3c3e d872 863e e79e 93be
00000350: c919 83bf af69 263d 0cbb 8fbc 9c3b e13e
00000360: 0704 8c3e 4317 7ebe 1590 11bf c609 543f
00000370: 746d 0cbf 3141 4a3e e1b6 af3f 89cf 5ebf
00000380: 0fcf 6b3f 994e 6b3f 5bae f9bd 9120 833d
00000390: ee48 e8bd 3188 703e d0c4 06bf 1ba8 203f
000003a0: 6fc3 78be 31fd e8be a9d7 31be 06d1 e93e
000003b0: 8234 44be 5ace 0fbe 4ece 4ebf 590a 033f
000003c0: aeda a43e af5b 263f bd9b 6abe 33dc 67be
000003d0: dca9 453f 095e 2d3d 65a8 00bf 03d6 2d3c
000003e0: 3aff 0bbf 0378 edbe d1be 4d3e 4b60 ee3e
000003f0: 5a9e 0ebf 0419 a3be 7576 f1be 2a0a 28bf
-0.56351846 -0.37260363 0.14289084 0.008440014 -0.014307258 -0.034204245 -0.55744505 0.21286361
-0.9909476 0.08791562 -0.43724725 0.10394382 -0.34208643 -0.74175096 -0.9033028 0.078472726
0.79478514 0.75113904 0.5351508 -0.18785761 0.2628147 -0.44953263 -0.011587403 0.11706618
-0.24170895 -0.07643583 0.12364724 -0.2647675 -0.35344216 0.47566175 -1.1429712 -0.5403489
-0.3673449 0.95970047 0.7788457 -0.35994333 0.52214587 -0.21520783 -0.39447147 -0.12953103
-0.7528676 0.024529234 -0.89857805 -0.49072778 0.37515214 -0.07972667 -0.13398418 0.16110542
-0.5246374 0.020243783 -0.7490839 0.25116032 0.087705836 0.24451953 0.79414153 0.43888506
0.1417201 -0.06919969 -0.87452084 -0.15626785 -0.7133167 0.2690601 0.17397714 0.0027180933
0.33237594 0.17441587 0.52142537 0.60783654 -0.45249775 -0.7357038 0.09393826 -0.91140735
0.4435925 0.8689031 0.37746257 -0.5643329 0.5215579 0.015533096 -0.09593047 -0.07789529
-0.54567224 1.020599 -0.118742555 -0.54244494 0.096587606 0.35475245 0.26619843 0.19969258
0.19533707 0.2849666 -0.8866474 -0.00060343463 0.048960038 0.21685323 0.4040422 -0.10557316
-0.20065036 0.38781956 -0.17947134 0.15643163 0.046982173 -0.42948425 0.36927757 0.5453067
-1.0449677 0.8088884 -0.21389265 -0.0034508423 -0.14813723 -0.8934174 -0.69721735 0.35292158
-0.053483494 0.12352657 -0.19021922 0.121694624 -0.15629359 -0.46317506 -0.28399515 0.6299188
-1.3873887 -0.20385118 -0.2886652 0.5878689 -0.19083767 -0.82139534 0.33072087 -0.35027942
-0.39998004 -0.30267653 -0.18298398 0.28068006 0.45296067 0.32033077 -0.3287188 0.32589152
0.71944696 -0.67577094 0.21641491 0.47434184 -0.0078028324 -0.59377825 0.060087293 -0.20825322
-0.19390693 -0.029448312 -0.32208395 1.0444728 0.07520618 0.70083016 0.020787822 0.10390292
0.18818288 -0.17290035 0.49981946 -0.6902865 -0.29547632 -0.21714486 -0.2434402 -0.06361241
0.339905 0.09495905 0.56549484 0.35060614 0.27937457 0.5081577 0.557621 -0.017612912
0.948022 -0.54001254 -0.20765257 -0.07429269 0.3897803 -0.54333425 -0.31706896 -0.009967342
-0.2164751 0.65239424 -0.23321 -0.31689417 -0.15108041 -0.078457005 0.432487 0.7525243
-0.38187286 1.0426221 -0.2765293 0.24970923 -0.078287356 0.6712249 -0.29631197 -0.9855626
-0.2327378 0.8341821 -0.20914926 0.3269962 0.6140418 0.08843175 0.12728502 -0.11975958
-0.04168995 0.49851802 -0.3011165 -0.17358795 -0.5500046 -1.0444 -0.13777551 -0.40005714
0.039715275 0.18444987 0.26259494 -0.2883217 -1.0242244 0.04062813 -0.017545246 0.4399079
0.27346823 -0.24813561 -0.56860477 0.82827413 -0.5485451 0.19751431 1.3727685 -0.87035424
0.9211282 0.91916806 -0.12191459 0.06402696 -0.11342035 0.23489453 -0.5264406 0.6275651
-0.24293302 -0.4550567 -0.17367424 0.45667285 -0.19160655 -0.1404356 -0.80783546 0.51187664
0.3219809 0.6498365 -0.22910972 -0.22642593 0.7721231 0.042326007 -0.5025695 0.010610106
-0.5468632 -0.46380624 0.20092322 0.4655784 -0.55710375 -0.31855023 -0.47160688 -0.6564051

module.fc1.bias f4 [64]
00000000: 81cb 1ebf a09f 8bbf 299e e83b 65bf 73be
00000010: 9f92 4bbe 97eb 6f3e be5a 41bf 6b9b 8abf
00000020: 9e63 abbf 1a23 86bf 6f8e 85be bc8e cd3e
00000030: dea3 9fbd 63f9 58bf c453 09bd 3c51 c8bf
00000040: a6c9 27bf 50e4 24bf 2dfb c43e 7a41 acbf
00000050: 966a aabf 0938 31bf 734c 7e3d 7c0a c3bf
00000060: 73cc 213c a8ca 4d3f 82c8 95bf 9814 c9bf
00000070: 677f acbe 9ed2 643e f1d9 adbc 16b5 35bf
00000080: 9fbe c0bf 4f5a dfbe a6a5 38bf 660f d1bf
00000090: 879c 66bf a952 6c3e 3501 a4bf 296a 0b3f
000000a0: 2c5f a23e 6b49 b6bf 7fdf 68bf a36a 7cbe
000000b0: cd6b 10bf f1f3 ee3e 7dcb 0cbf 9c79 58bf
000000c0: 3660 693f 7347 0abf 1d10 74bf 20b0 c5be
000000d0: d2a7 99bf e9b3 b5be c4c5 7ebf 8dbf 9fbf
000000e0: a682 c6bf f8c6 debf 3ec7 f73e 52e1 913f
000000f0: 910f 6fbe e6f1 743e 6859 46be e100 34be
-0.6202927 -1.0908089 0.0070989323 -0.2380348 -0.1988015 0.23429714 -0.75529087 -1.082868
-1.3389776 -1.0479462 -0.2608523 0.4014796 -0.07794927 -0.84755534 -0.03352715 -1.5649791
-0.65542066 -0.6441088 0.38472882 -1.3457482 -1.3313777 -0.6922613 0.062084626 -1.5237575
0.009875405 0.80387354 -1.1701815 -1.570941 -0.3369095 0.22345969 -0.021222087 -0.7097944
-1.5058173 -0.43623587 -0.7212776 -1.6332824 -0.9008259 0.23078407 -1.2812868 0.5445886
0.31713235 -1.4241155 -0.9096603 -0.24650054 -0.5641449 0.46670488 -0.54998 -0.8456056
0.9116243 -0.5401527 -0.95337087 -0.38610935 -1.200434 -0.35488823 -0.99520516 -1.2480332
-1.5508621 -1.740447 0.48394197 1.1396887 -0.23345782 0.23920402 -0.19370043 -0.1757846

module.fc2.weight f4 [64, 64]
00000000: e179 5cbf 7ae1 d43e e493 353f 490a b83e
00000010: fcbb 12bf d5a8 423e 9c50 44bc 6503 cb3e
00000020: df47 a93e d7e5 be3d 21ae 8dbd 004f 30be
00000030: 9ac5 0fbf a98b 823e 1259 543e f5ae c3be
00000040: 3363 59bf 9b1b 853e 2383 483d ceea 913e
00000050: d49c 5abe 670f 2cbf 1163 0f3f b276 d93e
00000060: f8c4 8e3e b915 cabe 4f7b 97bf 311d 733f
00000070: 189f f1bc 52b1 83be 7869 9e3d 65d8 a83e
00000080: 2670 d13e 23d6 9fbf 5009 be3e 1d4e c13e
00000090: e3b0 8abf 120f 283e f2f1 0e3c 8ed0 0ebf
000000a0: 9739 d5be 980d 4dbf d66c ce3d cbab babf
000000b0: 3598 a9bf dfb9 09bf 8b08 3abf 8037 51bf
000000c0: 4a80 a1be 3e03 e43b 6aa2 0abe a10d 38be
000000d0: 41bd 423e ac41 1ebf d147 df3e 6a8a fc3d
000000e0: a788 193f 40eb 5d3e d557 123f 4378 00bf
000000f0: 807e 1bc0 493d 833e 6f81 153f b699 27bf
00000100: 5a3d 93bf 0298 67be 169f d7bf 1a63 b5be
00000110: 1664 29be 68aa 1fbf d494 14bf 358b 9abf
00000120: 9369 403f 4f97 de3e c691 bfbe 2178 14bf
00000130: 1bc2 be3d a02b 8dbe d9c9 e43e 10bc 0d3e
00000140: e3d9 d33e 1523 f93e a44a cdbf d920 16bd
00000150: 3388 c13d 2e37 a83e 835f 853e bae0 843e
00000160: 993f bd3c 1206 41bf 9d47 673e 6bc7 c2be
00000170: 307f 32be cc32 ee3e f534 18c0 3cac 1ebf
00000180: 0f8a 903d ac73 10be 97db a7bf bb27 2a3f
00000190: f595 25bf 77de ac3e f1ea 33bf 1f1c 4ebf
000001a0: be3a 9cbe 563a f63d 59e1 443e 0299 2bbf
000001b0: 8e13 25bf 98eb efbe 0f9f d83d 3127 4bbe
000001c0: 6fe6 e63e 67f3 573f a5f8 663e e92d 3d3f
000001d0: e279 213d 9f3f b23e 193c db3e 17ff 4e3e
000001e0: d3a3 15bf db22 23bf f6f6 013f 2677 0cbf
000001f0: 6cbd 59be 94a0 16bf 101d fbbe 1b5b 193e
00000200: 1745 a9be dfef 1d3f efac f93e 7476 07be
00000210: 863c e6bc 5ee0 3d3e 0b9d 143f 9b9e 8e3e
00000220: 485f bc3e b96c 983a 0c86 9d3e d607 59bf
00000230: caf7 5dbf f5ea d8be 2859 0e3f 38e9 5ebe
00000240: de60 05bf 44ae b43e 87dd 9bbe e32f 82be
00000250: 9cf1 e73e 5712 403e bdbc 163f 4773 de3e
00000260: 4ce5 9dbd 1dc2 4fbf d641 233f 25a4 e63e
00000270: 2aae 323f fe5e b1be 99e5 59bf 6698 bebd
00000280: d6b0 d13e 06a2 b3be fee7 96bf 865e 20bf
00000290: 5e04 2c3f 68d1 4f3e 5901 6fbe 15a8 60bd
000002a0: 8bad 21be e476 133f cecc 8d3d cac3 2abf
000002b0: cf76 52bf 20bf 0ebf d763 89bf 58c1 19bd
000002c0: 0b33 99be 9410 fc3e eb01 323e 1195 103d
000002d0: 7e4c 1f3e 012b 18be 42a2 463f d146 4a3f
000002e0: dc7b a63e c566 6f3f 6801 bb3e 4372 f1be
000002f0: 66a8 933c e57e 62be e850 00bf 8207 fc3e
00000300: f0c0 d3bf 0a6a 0f3e 6c9d bc3e 81e3 1ac0
00000310: aaf3 9fbe 14fa 263f d78f e3be 7f04 453e
00000320: 4c39 223f 701e fd3e 7e40 acbe e8ce 263e
00000330: 3d09 08be 03e7 37c0 90cc 24bd d610 04be
00000340: 9293 53be 1bb4 8dbd 0035 2ebf fa8c 59bd
00000350: ab85 fc3e b64e 383e 4be7 0fbe b751 72be
00000360: bf67 4dbe 90bb 693f c86c b3bf 55cc e4bd
00000370: 4fcf 73bc e77e 6938 018c c9be 0bd7 4f3f
00000380: cf8d a83d a9c5 5ebf dffd 02bf 60ff ebbe
00000390: 4687 1c3f 2522 38bd caa2 0d3f dc4f 29bf
000003a0: 7828 633e 8d04 243f f10d 36bd 5259 853e
000003b0: 15e9 86bf 0a0f 0ebf 9206 ce3e a137 edbe
000003c0: 3f4d d3be 4e56 8e3e 01da d83d 9235 74bf
000003d0: aa8d a23e 4ad5 aabd d57c adbd 173a 3c3e
000003e0: 22c3 173f 92dc 863e 25a7 9abe 0ce5 87be
000003f0: 2eb4 81be 9084 93bf 441a e1be 0b32 2d3f
-0.8612347 0.41578275 0.7092879 0.35945347 -0.5731809 0.19009717 -0.011982109 0.39651027
0.33062646 0.09321182 -0.06917978 -0.17217636 -0.5616089 0.25497177 0.20737103 -0.3821942
-0.8491699 0.25997624 0.048953187 0.28499454 -0.21348888 -0.67211 0.5601054 0.4247337
0.2788465 -0.39469698 -1.1834506 0.9496642 -0.029494807 -0.25721222 0.0773496 0.32977596
0.40905875 -1.2487224 0.3711648 0.37754908 -1.0835232 0.16411999 0.008724676 -0.5578698
-0.416455 -0.8009887 0.100793526 -1.4583677 -1.3249575 -0.5379924 -0.72669286 -0.8172531
-0.3154319 0.0069583943 -0.13538519 -0.17973949 0.19017507 -0.6181896 0.4360948 0.12331088
0.5997414 0.21671772 0.5716527 -0.50183505 -2.429596 0.25632694 0.58400625 -0.6546892
-1.1503098 -0.2261658 -1.6845424 -0.3542717 -0.16542086 -0.62369394 -0.58039594 -1.2073733
0.75161093 0.43474814 -0.37415904 -0.579958 0.093143664 -0.27572346 0.44685248 0.13841271
0.41377172 0.48659578 -1.6038404 -0.03665242 0.09449806 0.328546 0.26049432 0.25952703
0.023101615 -0.7539989 0.22585912 -0.3804277 -0.1743133 0.4652313 -2.3782322 -0.6198156
0.070575826 -0.14106625 -1.3113889 0.66466874 -0.6468194 0.33763477 -0.7028037 -0.8051166
-0.30513567 0.120228454 0.19226588 -0.67030346 -0.64482963 -0.4685943 0.10577213 -0.19839169
0.45097682 0.8435578 0.22555788 0.7389818 0.039422877 0.34814164 0.42819288 0.20214497
-0.584531 -0.6372506 0.5076746 -0.54869306 -0.21263665 -0.5883877 -0.4904561 0.1497616
-0.33060524 0.6169414 0.4876475 -0.1322878 -0.028105032 0.1854262 0.5805213 0.2785538
0.36791444 0.0011629082 0.30766332 -0.8477758 -0.8670622 -0.42366758 0.5560479 -0.21768653
-0.5210093 0.35289204 -0.3044245 -0.2542716 0.4530152 0.18756996 0.5888174 0.43447325
-0.077097505 -0.8115557 0.6377233 0.45047107 0.69797003 -0.34642786 -0.85115963 -0.093064114
0.40955228 -0.35084552 -1.1789548 -0.6264423 0.67194164 0.20294726 -0.23340358 -0.054847796
-0.15788858 0.5760329 0.06923829 -0.66705 -0.8221254 -0.55760384 -1.0733594 -0.037537903
-0.29921755 0.49231398 0.17383544 0.03529841 0.15556523 -0.14860155 0.77591336 0.7901431
0.32516372 0.9351619 0.3652451 -0.47157487 0.018024635 -0.22118719 -0.50123453 0.49224478
-1.6543255 0.14005294 0.36838853 -2.4201357 -0.31240588 0.6522534 -0.4444568 0.19239996
0.6336868 0.49437284 -0.33642954 0.16289866 -0.13284774 -2.8734748 -0.04023415 -0.12897047
-0.20661762 -0.06919118 -0.6804962 -0.05311296 0.4932073 0.17998776 -0.14053075 -0.23663984
-0.20059107 0.9130182 -1.4017572 -0.11171786 -0.014880969 5.5669716e-05 -0.39364627 0.81187505
0.08230173 -0.87020355 -0.51168627 -0.46093273 0.6114391 -0.044954438 0.5532652 -0.6613748
0.22183406 0.64069444 -0.04444689 0.26044708 -1.0539881 -0.554917 0.40239388 -0.46331504
-0.41269872 0.2780022 0.10588456 -0.9539424 0.31748706 -0.08341463 -0.084710754 0.18381535
0.59282124 0.26340157 -0.30205646 -0.26541936 -0.2533278 -1.152483 -0.43965352 0.67654485

module.fc2.bias f4 [64]
00000000: 2e41 a8bf c668 3c3e 8622 ec3e 9955 73bf
00000010: 1ce8 cbbe a1c9 00bf 0562 b4bf 44c2 833c
00000020: 444d 78be fc6b b8bd c0e6 933e f2d6 583f
00000030: 341b 4fbf a83c 20bf a1a3 99bd a516 7b3f
00000040: 6f01 b9be 8d24 96bf f3ef a23e 24e6 d33e
00000050: 2820 08bf 6d8e 3f3d 3130 6fbe e5c1 6ebe
00000060: 4eca 10bf c7bd 76bf f34b fabd 73b1 efbe
00000070: 7f17 46bf 0aef 80bd 3b88 11be aacc d8be
00000080: 4589 3b3f f953 31bf 52b9 92be a7c4 bbbe
00000090: f97e 06be c3d8 59be 88ef 3cbf 8097 b6bf
000000a0: 9f2c aabe 0231 74bf 8fb6 55be 87ca 2ebf
000000b0: 1dcf 7cbe 4c4e d33d 57f8 62bf 8697 04be
000000c0: b52f dfbd 4d6e 8bbe 93f6 d0be 0e31 d5be
000000d0: 20f3 0bbe 451d f5be b66e 83bf 0697 75be
000000e0: 1841 f93d d436 e6be e005 38bf ca4b 99bf
000000f0: 4ab7 4ebd 77ab c63d ef4e 17be 13e8 bbbe
-1.3144891 0.18399343 0.4612009 -0.95052487 -0.39825523 -0.5030766 -1.4092413 0.016083844
-0.24248224 -0.090049714 0.28886986 0.8470298 -0.80900884 -0.62592554 -0.07501913 0.9808143
-0.36133906 -1.1729904 0.31823692 0.4138652 -0.53174067 0.046766687 -0.23358227 -0.23316152
-0.5655869 -0.9638333 -0.122215174 -0.4681507 -0.773796 -0.06295593 -0.14212124 -0.42343646
0.7325633 -0.6926876 -0.28657013 -0.3667347 -0.13134374 -0.21274094 -0.73802996 -1.4264984
-0.33237168 -0.9538728 -0.20870422 -0.6827778 -0.24688382 0.10317668 -0.88660187 -0.12948427
-0.10897771 -0.2723259 -0.4081312 -0.41638988 -0.13666964 -0.47873893 -1.0268161 -0.23983392
0.12170619 -0.44963706 -0.71883965 -1.1976254 -0.050467767 0.09700673 -0.14776205 -0.36700496

module.fc3.weight f4 [1, 64]
00000000: 46d3 a9be 19f2 16bf 6b41 963e 81d1 fbbe
00000010: dfb4 ff3e c5bd c53e 49c7 c63e c47c 44be
00000020: bdb1 103f ec3b afbc 56b0 75be b0eb 603e
00000030: a97d 1d3f ce32 0d3f 069c 113e 5af8 83be
00000040: 55b4 92bf f356 05bf b97c 9b3e 123d 12be
00000050: 3030 50bf 78ca d2be ff23 a43e 4651 c23e
00000060: 9dfd aabe e8e2 45bf 61b2 98be 5d66 c6be
00000070: 8c12 01bf 4f4a 803c 68eb ebbc e9a8 553f
00000080: 06e2 1d3e a9df 213e 0866 8fbe 771b 6f3f
00000090: df78 e4bc 8fb9 8fbb a78f babe e014 1dbf
000000a0: 3786 76be 7d68 d2be bd76 d7be 87c8 7bbe
000000b0: 3c09 e6bf 527a 23bf d925 023f 09d2 a43e
000000c0: 8753 df3e 569c fa3e a995 2bbf 51ca 16bf
000000d0: 28d3 a53e f061 7b3f fee6 cfbe fa0e df3e
000000e0: ed7b 98bf 7172 45bf 9f27 aebe 6c85 0fbf
000000f0: 632f 08bc 475c df3e b7b1 083d 3f47 0c3f
-0.33169 -0.5896316 0.29346785 -0.49183276 0.4994268 0.38621345 0.38823918 -0.1918822
0.5652121 -0.021390878 -0.23993048 0.21964908 0.6151987 0.55155647 0.14219674 -0.25775415
-1.1461283 -0.520858 0.30368593 -0.14281109 -0.8132353 -0.41170096 0.32058713 0.37952632
-0.33396617 -0.77299356 -0.29823592 -0.38749972 -0.50418925 0.015660433 -0.028798774 0.8346086
0.15418252 0.15807976 -0.2800753 0.93401283 -0.027889667 -0.004386134 -0.36437723 -0.6135998
-0.24074636 -0.41095343 -0.42082778 -0.24588214 -1.7971568 -0.6385852 0.50839 0.32191494
0.43618414 0.489474 -0.6702524 -0.5890246 0.32387662 0.98196316 -0.4060592 0.43566114
-1.1912819 -0.7712775 -0.34014603 -0.5606296 -0.008312079 0.4362509 0.033372607 0.5479621
