trained_models/led_failure_model.pth (torch, 24423 bytes, 5 tensors)

module.fc1.weight f4 [64, 19]
000000 de 57 87 bf c4 d3 40 bd c3 7d 0f 3f 97 4d a3 3e
       -1.057369 -0.047076955 0.5605127 0.31895134
000010 ac 13 1d 3f b1 91 2d be e8 89 1b bf c5 f9 53 3e
       0.6135814 -0.16950108 -0.60757303 0.20700748
000020 7b 88 df be 43 a8 46 be 5a 92 39 3f 65 1c c8 be
       -0.43658814 -0.19400124 0.7248894 -0.39084163
000030 2c 19 2e 3f 90 4c 25 3d 59 b5 0e 3b 9c b6 b8 3e
       0.6800716 0.04035622 0.0021775572 0.3607682
000040 b2 5f d3 be 0e 34 d5 bd c1 9f f5 be 38 ef a4 3e
       -0.41283947 -0.10410319 -0.47973445 0.3221376
000050 7f 53 13 bf 2c c6 ad 3e 71 f8 86 3d 01 bd fe bd
       -0.5754928 0.33940256 0.06590355 -0.124383934
000060 bb 92 30 3e 7e 3e 2b 3f ed 81 9b be 10 d5 16 3f
       0.17243473 0.6689223 -0.30372563 0.5891886
000070 82 d6 a7 be c5 f3 e8 be 24 98 29 bf 71 9b 90 bf
       -0.32780844 -0.4549848 -0.66247773 -1.1297437
000080 0b d0 46 3e 64 52 11 3f 70 da 11 3f 8e b9 0e 3f
       0.194153 0.56766343 0.56973934 0.55751884
000090 b9 84 ab be b3 b1 b0 be a3 f6 11 bf ec 53 6f 3e
       -0.33499697 -0.34510574 -0.5701696 0.23371857
0000a0 bb b8 db 3e 04 5f 25 3d bc a8 a9 be ab 98 e8 3e
       0.42914376 0.040373817 -0.33136547 0.45428976
0000b0 ec 1b 5e be 94 34 2c 3e bb 0d ba bd 93 ec c0 3e
       -0.21690339 0.16816932 -0.0908465 0.37680492
0000c0 9e bc 5e 3c 4d aa 77 3e 96 e6 94 3f 25 cc e3 3d
       0.0135947745 0.24186058 1.1632869 0.11122922
0000d0 00 e7 93 be 7b 12 76 3f 4e 56 03 bf a8 12 f6 3d
       -0.28887177 0.9612195 -0.51303566 0.12015277
0000e0 79 c7 81 be 62 7b 4e 3e 93 14 1f 3f af a9 97 3e
       -0.25347498 0.20164254 0.6214077 0.29621646
0000f0 ad 0e db 3d 78 30 94 be 6b 05 9a 3e 77 ff 55 be
       0.106961586 -0.2894323 0.3008226 -0.20898233
000100 87 0d 6d 3e 4f a3 cf 3e 69 6d f6 3e e9 bb db 3e
       0.23149692 0.40554282 0.48130348 0.42916802
000110 0e be da bd c5 45 c4 bf 28 99 38 be 11 ce b5 3e
       -0.10680781 -1.5333792 -0.18027174 0.3550878
000120 f5 01 45 bd 69 6c c3 3e d4 f3 1d bd 6a 50 c6 3e
       -0.04809757 0.38168648 -0.03856261 0.38733226
000130 30 5a 3f 3e 26 37 45 3d 6d 44 05 bf 18 fe 2c 3f
       0.18686748 0.048148297 -0.52057534 0.67575216
000140 d5 72 a8 3e e1 8b cb 3e 46 0d 91 be 9d de 9f be
       0.3290011 0.39755157 -0.2833044 -0.31224528
000150 8d cd d2 ba 90 e9 68 be 1e 4d 9d 3e 4d 4c 9b 3e
       -0.0016082987 -0.22745347 0.30722898 0.3033165
000160 8a a2 1b 3f ea ab 58 be 50 42 34 bf ee fe 9f be
       0.6079489 -0.2115933 -0.70413685 -0.31249183
000170 fd e9 8b bf 4c ab aa 3e b8 57 fc 3e 24 01 17 bf
       -1.0930783 0.33333814 0.49285674 -0.58986115
000180 ab 26 62 3e 74 77 a5 be 71 24 2d be d9 ef 54 3f
       0.22085063 -0.32317698 -0.16908433 0.8317848
000190 c2 89 09 3f c5 ef 24 be 66 d6 95 bf c9 40 8b bd
       0.53725827 -0.1610709 -1.1706054 -0.06799466
0001a0 da 5f fb be 66 69 38 3f 2f ab 38 3e 05 48 08 bf
       -0.49096566 0.72035825 0.18034051 -0.53234893
0001b0 5e ad a9 3e 7d 3d 3d be 46 1d a6 bd 5a 69 83 be
       0.3314008 -0.18480487 -0.08111052 -0.25666314
0001c0 19 89 30 bf bc 2c 9a be e2 0d 8f 3d 54 89 0b 3e
       -0.68959194 -0.30112255 0.0698507 0.13626605
0001d0 a4 91 b5 3e 78 2e 90 3c e8 5d c5 be 91 04 9f be
       0.35462677 0.017600283 -0.38548207 -0.3105817
0001e0 d5 31 eb bd 37 a0 2f bf f1 ab 11 3f 92 cb 8b be
       -0.11484114 -0.68603843 0.56902987 -0.2730375
0001f0 74 2d e9 bd 56 e4 26 3e 1c a7 0d 3f 6b e1 c5 3e
       -0.113856226 0.16298041 0.55333114 0.38648543
000200 56 d4 44 3f b7 36 20 bf 2b 05 52 3f 9a d7 04 3e
       0.768865 -0.6258349 0.82039136 0.1297287
000210 42 d4 90 bd 33 07 88 be cb 02 06 3f 57 17 68 3f
       -0.07071735 -0.26567993 0.5234801 0.90660614
000220 57 04 bf be 85 dc 9d be e0 e8 03 3d 76 64 36 bf
       -0.37308 -0.30832306 0.03220451 -0.7124704
000230 13 e6 f8 3d e3 89 a4 be 16 94 7b bf 67 78 26 3d
       0.12153258 -0.3213645 -0.98272836 0.04064217
000240 6a 02 18 3e 37 07 13 3d a2 e4 57 bd 4f 9e 6a be
       0.14844671 0.035895552 -0.052708276 -0.22911952
000250 dd b7 00 bf ba 7d 66 be 95 aa 19 bd 1f 2c 01 bf
       -0.50280553 -0.22508898 -0.037516195 -0.5045795
000260 94 71 e1 be b9 e7 57 bf 91 4c e2 be 6f 04 86 be
       -0.44031966 -0.84337956 -0.4419904 -0.26175258
000270 3b f2 8e 3e 0b a2 66 3e 9f b6 2d 3f 90 2f a0 3e
       0.27919182 0.22522752 0.6785678 0.31286287
000280 c4 f0 ca 3d 05 99 bc bd 1f 93 a1 be 2c fa 26 bf
       0.09909204 -0.09208874 -0.31557557 -0.6522548
000290 e4 50 33 3e dd 2d 39 3f d6 2d d7 be 4f 91 26 3f
       0.17511326 0.72335607 -0.42027158 0.65065473
0002a0 8b e3 03 3d 6d 29 7d 3d d5 0a c9 be 84 be ae be
       0.032199424 0.061807085 -0.39266077 -0.34129727
0002b0 89 97 f0 bd 2f da 14 be 5a 77 14 bf 50 79 af be
       -0.11747653 -0.14536355 -0.57994616 -0.34272242
0002c0 05 6d 34 3f a3 0e aa be 77 6e b5 3e 8b 1e 02 be
       0.7047885 -0.33214292 0.3543584 -0.12706964
0002d0 7f b1 49 3e f8 9d 94 3e cc 10 b7 be 3e 6f 8a bf
       0.19696616 0.2902677 -0.35755002 -1.0815198
0002e0 d6 f6 67 be 17 ea 31 3f 66 6f 86 3e 32 a5 73 3d
       -0.22652754 0.6949782 0.26256865 0.059483714
0002f0 b0 56 9e 3e c9 95 fc 3d e8 d3 07 bf e6 2e 87 3f
       0.30925512 0.12333257 -0.5305772 1.0561187
000300 ac e4 23 3f 98 bb 4e 3d d6 ae e1 be 0e e3 61 3e
       0.640208 0.050471872 -0.44078702 0.2205927
000310 81 fc 45 3e 06 7b 6d be e2 d3 29 be ff 84 30 be
       0.19334604 -0.23191461 -0.16584733 -0.17238234
000320 62 27 31 be 6b 9a ac 3e 5c 4c a6 bf 90 17 c2 3e
       -0.1730018 0.33711562 -1.2992053 0.37908602
000330 2d e5 04 3f f4 74 74 be 9d a4 82 3d fe 1c fc 3e
       0.51912194 -0.23872739 0.06379054 0.4924087
000340 4b c8 20 bf 3c 27 2d bf e4 e9 e9 3d fa f2 2b bf
       -0.6280562 -0.6763799 0.11421564 -0.6716763
000350 75 1b 87 3e 62 aa 38 bc 20 25 13 3e 7d 76 f6 3e
       0.26388136 -0.011271091 0.14369631 0.48137274
000360 08 fc be be b6 03 dd 3e ab 9d b9 3d 14 fd aa be
       -0.3730166 0.43166894 0.09063276 -0.33396208
000370 ae 19 71 be d4 0b a7 bf 4a 25 47 3e a7 10 8d bd
       -0.23544952 -1.3050485 0.19447818 -0.06887942
000380 23 39 30 bf 9d 48 3c be 11 53 d0 be 93 d5 d3 be
       -0.68837184 -0.18387075 -0.40688375 -0.41373882
000390 26 07 54 bd ea 9d 11 3f 73 f3 68 bf 3b 26 0a bf
       -0.05176463 0.5688158 -0.90996474 -0.53964585
0003a0 ac 84 20 3f bb 59 8e be f1 0f 3d be bd e6 29 3f
       0.6270244 -0.27802834 -0.18463112 0.66367704
0003b0 04 64 22 3e 7c 75 31 bf b0 de 4c 3c 92 b5 08 3f
       0.15858465 -0.6931989 0.012504265 0.53402054
0003c0 22 81 03 3f b3 26 df 3e 82 20 b3 bd 78 ad c7 3e
       0.51368916 0.43584213 -0.08746435 0.38999534
0003d0 74 0a b0 3d e3 26 02 be 0f e2 b0 3e 60 13 0b 3e
       0.08595744 -0.12710147 0.3454747 0.1358161
0003e0 88 1d 1b 3f 7d c5 c6 3e d2 c4 21 3f 05 01 52 3f
       0.60591936 0.38822547 0.6319095 0.82032806
0003f0 5d ea ba 3d 4a 83 84 be 54 8c b6 be 32 0e 4b bf
       0.091267325 -0.25881416 -0.35653937 -0.79318535

module.fc1.bias f4 [64]
000000 ca 91 08 bf 70 7d 73 3e 3d 08 11 bf a9 7a 0d be
       -0.53347456 0.2377832 -0.56653196 -0.13816322
000010 ad f5 8f bf ed 68 b1 bf a6 4f 2c bf a6 ec 32 bf
       -1.1246849 -1.3860146 -0.67309034 -0.69892347
000020 2f 96 a3 bf 1a 02 96 be 63 f0 43 bf 06 4a 9c be
       -1.2780207 -0.29298478 -0.76538676 -0.30525225
000030 55 0d 33 bf 10 6f 7e bf a9 49 95 3d bc e1 d0 3d
       -0.6994222 -0.9938822 0.0728944 0.101993054
000040 b4 f0 fa be f4 57 6c bf dd d2 97 bf 18 04 61 bf
       -0.49011767 -0.92321706 -1.1861225 -0.8789687
000050 c5 fa 0e bf 39 35 86 bf f2 61 8f bf 8e 8c c5 bf
       -0.55851394 -1.0484992 -1.1201766 -1.5433519
000060 60 af da be a5 91 05 bf 34 c6 11 bf 70 b8 06 bf
       -0.42711926 -0.5217536 -0.5694306 -0.5262518
000070 f5 b9 8e be 7f 33 83 bf fc f1 02 bf 32 93 66 be
       -0.2787625 -1.025009 -0.5115049 -0.22517088
000080 94 2d 6e bf 0f 4b 98 bf ed e2 64 bf 74 22 be bf
       -0.93038297 -1.1897906 -0.8940876 -1.4854264
000090 ed d2 b7 be a9 47 73 bf 4c 18 2d bf 89 82 9f bf
       -0.3590311 -0.9503122 -0.676152 -1.2461711
0000a0 2f 53 7b bf f5 c1 3a bf 38 85 b2 be 7b 81 36 bf
       -0.98173803 -0.72952205 -0.34867263 -0.7129132
0000b0 e9 1e 7e bf 0a 68 37 bf 2f b0 2c bf 87 4a 04 bf
       -0.99265915 -0.71643126 -0.67456335 -0.5167622
0000c0 4e 18 9e be d6 29 65 3d 32 c5 67 be ed 19 82 bf
       -0.30877918 0.0559481 -0.22633818 -1.0164162
0000d0 cc 8f e0 bc 0b 33 ee bd db c0 ae bf 30 ae 77 be
       -0.027412318 -0.116308294 -1.3652605 -0.24187541
0000e0 6b ce f5 be ec 3c 4d bf 73 50 98 bf 97 60 54 bf
       -0.48009047 -0.80171084 -1.1899551 -0.82959884
0000f0 1b ad 85 be 20 63 a9 bf 16 c2 c1 be 74 4d 8d bf
       -0.26108631 -1.3233376 -0.37843388 -1.1039262

module.fc2.weight f4 [64, 64]
000000 5b 7a 94 bf 8b 76 04 3d ef 59 9f bd 01 96 ac bf
       -1.159984 0.032339614 -0.07780825 -1.3483278
000010 62 f8 6f 3e 41 5b 0c be ad 04 89 3e 21 3c ea 3e
       0.23434594 -0.13706686 0.2676138 0.45749
000020 84 fa aa 3e a8 63 5e bf fb 44 0d bf 69 51 45 bd
       0.33394253 -0.86870813 -0.5518338 -0.048173342
000030 a7 ea 2a bf 1a cb d9 3e f1 1c 39 bf 47 3b 76 3c
       -0.667643 0.42537767 -0.72309786 0.015028781
000040 54 ac ad 3e 6e 37 97 3e 27 b7 d2 be 6d 85 4e be
       0.33920538 0.29534477 -0.4115536 -0.20168085
000050 d9 2b 5e be bc 3f b0 bc 52 e4 90 3e 91 39 f4 3e
       -0.21696414 -0.021514766 0.28299195 0.4770017
000060 81 0c 92 bf 22 cd 90 be 9b 49 43 3f a3 f2 98 bd
       -1.1410066 -0.28281504 0.7628419 -0.07468154
000070 b3 db 44 3f 2b 06 9c bd e4 e2 19 c0 61 e7 10 3d
       0.76897734 -0.07618364 -2.4044733 0.03537691
000080 31 f0 48 3e 63 dd 1e 3f fb 67 fa be 21 93 fc 3e
       0.19622876 0.6205656 -0.48907456 0.49331
000090 e3 79 79 3c d1 75 19 3f 6d be e4 3d 50 3b 6d 3d
       0.015226814 0.599454 0.11169133 0.057917893
0000a0 fe 8d 59 bd b5 70 c1 3d ae 25 21 bf 9c 44 5c be
       -0.05311393 0.09445325 -0.6294812 -0.21510547
0000b0 f3 ed 2f bf d0 ac ad be f2 8d f1 bd 25 ed f2 3e
       -0.68722457 -0.33920908 -0.11794652 0.47446552
0000c0 1e 49 69 3e a9 76 14 3e 1d 04 18 3e 2f da 47 3d
       0.22781798 0.1449839 0.14845319 0.04879206
0000d0 43 82 06 3e 83 38 d5 be a5 3b 27 3f 4b 20 a4 3e
       0.13135628 -0.41644678 0.65325385 0.32055888
0000e0 ec da a0 be 99 bf 6c 3e bf 56 21 3f 3f 09 5f 3e
       -0.31417024 0.23119964 0.6302299 0.21780871
0000f0 71 ee 57 be ad b6 1b 3f 76 43 17 bf 53 38 db 3d
       -0.21087052 0.60825616 -0.5908731 0.10704102
000100 18 f9 36 bd ac e1 6f be e2 8f 3a bb ec 77 5a be
       -0.044671148 -0.2342593 -0.0028467108 -0.21334809
000110 6d e0 0c be 0f 71 2e be ec 1c be 3c 1b 1e cc bd
       -0.13757487 -0.17035316 0.02320715 -0.0996668
000120 1c 95 05 3d 95 21 55 bd 96 ed ba bd b3 9a 5d be
       0.032612905 -0.05203398 -0.09127347 -0.21641044
000130 b8 a8 21 3d 22 74 89 3c 31 c3 3c bb da 46 a4 bd
       0.039467543 0.01677901 -0.0028802867 -0.08021326
000140 9a 1a fd bd 59 d9 e1 bd 49 57 4f 3d 06 0a b8 3d
       -0.123585895 -0.11027784 0.05062035 0.08986287
000150 ab 6b 38 3c 5c 80 87 3c bf b2 10 be d4 0a 48 be
       0.011256139 0.016540699 -0.14130686 -0.1953538
000160 a8 cb 08 be 45 d6 0e 3d 2e de 3c bd 51 6e 13 3d
       -0.13358939 0.034872312 -0.046110325 0.035993878
000170 49 70 db bd 3b f7 22 be 31 eb 3d be b3 9d 33 be
       -0.10714776 -0.15914623 -0.1854675 -0.17540626
000180 ee ea 9a bd 0b 14 8f 3d ca d6 9e bd cd 4d 42 bc
       -0.075643405 0.06986245 -0.077558115 -0.011859369
000190 3e 0f f3 bc f7 df a9 bd a1 3d a2 bd e2 65 43 be
       -0.029670354 -0.08294671 -0.07921911 -0.19081834
0001a0 bc 39 cd 3c 32 c4 49 3c c5 42 15 bc 84 46 26 be
       0.025051944 0.012314843 -0.009110157 -0.16237837
0001b0 7e 63 38 be 82 64 bb bd c5 35 01 3d 68 bd ed bd
       -0.18006703 -0.0915003 0.03154542 -0.11608392
0001c0 d2 4b 1e 3d 3f 3d ea bd 7b 68 a2 bd 08 07 6f bd
       0.038646527 -0.11437463 -0.07930084 -0.058356315
0001d0 7b 93 0f be b7 25 87 3c 69 da 28 bd 4a 00 35 bb
       -0.14021103 0.016497476 -0.041223917 -0.002761858
0001e0 80 d0 51 bc b0 aa 12 be 9f b8 a4 bd 3b a4 a9 bd
       -0.012806058 -0.14322925 -0.08043026 -0.082832776
0001f0 33 a7 ef 3c 6d 74 d1 bd 29 d8 9b bd ee b6 65 bd
       0.029254531 -0.102272846 -0.07609589 -0.05608266
000200 b8 4b 4f bd 12 22 f0 be 4a 1b bf bd 7a d6 e9 3d
       -0.05060932 -0.46900994 -0.09331377 0.11417861
000210 6d 5a 13 be f2 f0 cf 3d e7 05 b6 bc 1c 23 4f bb
       -0.14389963 0.101533785 -0.022219611 -0.003160662
000220 73 1c 9c 3d 53 a6 53 3e 6a 06 96 be 36 6f 09 bf
       0.07622614 0.20668916 -0.2930177 -0.5368532
000230 8e 91 1a 3e fe 3c d5 be 19 24 5b 3d cf 33 24 3e
       0.15094587 -0.41648096 0.053501222 0.16035388
000240 2c 74 01 bf 8d 44 55 3c cc b1 84 3e ec d3 13 3d
       -0.5056789 0.013016832 0.25916898 0.036090776
000250 f2 b4 df bd 85 48 a0 bd 08 e3 3d 3e a9 15 65 3e
       -0.109231845 -0.07826332 0.18543637 0.22371544
000260 14 7f 06 be 3e 93 a0 be b1 0b 38 bd ce 9c 92 3e
       -0.13134414 -0.31362337 -0.044933025 0.28635257
000270 1e 7c f7 bc df ad 20 be 51 1f e2 3d e9 b3 e5 bd
       -0.03021055 -0.15691327 0.110411294 -0.11215956
000280 3f c1 90 be 8f 03 f2 bc 12 60 c8 bb 06 5e be 3c
       -0.28272435 -0.029542712 -0.006114968 0.023238193
000290 7a 13 d1 bd 52 7b 4d bb bc d3 a7 3d 28 05 52 be
       -0.10208793 -0.0031354022 0.08194682 -0.2050978
0002a0 5f df cf bd 28 58 41 be e9 7c 2e bf f4 5e 3e be
       -0.101500265 -0.18881285 -0.6815935 -0.18590909
0002b0 80 ba 95 be ff 59 51 be 11 ef 69 be b5 9d ef bd
       -0.2924385 -0.20444487 -0.22845103 -0.11700002
0002c0 03 76 0d 3e 30 27 08 bd 12 1f e4 be 00 cb 3d be
       0.13814549 -0.033240497 -0.44554955 -0.1853447
0002d0 70 5f ec be 70 8b b6 be 2d ee 07 bf d5 d7 2f 3e
       -0.46166563 -0.35653257 -0.530978 0.17172177
0002e0 2b 84 96 be 98 19 9f 3b 53 bc b5 3d 93 c8 f4 be
       -0.2939771 0.004855346 0.088738106 -0.47809276
0002f0 af 21 97 be 5e 5a 85 be 46 d1 e4 be cf 3b 5c 3e
       -0.29517886 -0.26045507 -0.44690913 0.2150719
000300 ae 1c aa 3a dd f7 36 be 7f da 05 bb 8f c4 cc bd
       0.0012978518 -0.1786799 -0.0020424423 -0.09998428
000310 85 1b 41 be 1c b7 09 bd 88 2a 3a bd 8c fd c8 3d
       -0.18858154 -0.033621892 -0.045450717 0.09813985
000320 bc 27 d0 bd 06 8b 6b be c2 c5 0a be 75 0a af bd
       -0.10163829 -0.23002252 -0.13552001 -0.085469164
000330 f4 4d 26 be 75 98 87 bd 35 c4 ac be 4c b4 8a bd
       -0.16240674 -0.06620876 -0.33743444 -0.0677267
000340 b6 c8 81 bd b4 a0 81 3c cd 33 25 be ff 1c 87 3d
       -0.06337111 0.0158237 -0.16133042 0.065973274
000350 f6 55 3c 3c 1a 2f d2 3d 7c 50 05 be 11 81 01 bd
       0.011495104 0.1026289 -0.13018984 -0.031617228
000360 4f 82 9c be 1d d4 23 3d de 8e 1c be 49 27 da bd
       -0.30568168 0.03999721 -0.15288875 -0.10652024
000370 fd 04 23 be 8c a5 20 be 73 c0 8b bd 49 86 5f be
       -0.15919872 -0.15688151 -0.06823816 -0.2182857
000380 d4 24 05 3c ea cb 2a bd 14 f9 e7 bc b0 01 84 be
       0.008126456 -0.041698374 -0.028317012 -0.25782537
000390 23 3e 01 bd ac 78 e7 3b d7 e0 c6 bd e3 b1 13 bd
       -0.0315534 0.0070639458 -0.097108535 -0.036058318
0003a0 16 e7 1d be 65 24 7d be f3 62 f6 bc 7b 74 58 be
       -0.15420184 -0.24720915 -0.03007648 -0.21138184
0003b0 78 2d 0f be 19 95 07 bd 15 c9 e9 3d fb f3 2c be
       -0.13982189 -0.033101175 0.114153065 -0.16889946
0003c0 db ab 66 bc d1 a6 63 bd 74 72 84 3c 64 cc 68 be
       -0.0140790595 -0.05557901 0.016167857 -0.22734219
0003d0 b6 b4 b0 bd cf 32 86 3d e1 b8 c8 bd a1 1e 8a be
       -0.08628218 0.0655266 -0.09800888 -0.26976493
0003e0 8f 43 12 be ea 9a 43 be ad 21 b7 bd 10 22 94 3c
       -0.14283584 -0.19102064 -0.0894197 0.018082649
0003f0 54 c0 e9 bd f9 8e 3a bd ad 33 3f be 98 66 18 3d
       -0.11413637 -0.045546506 -0.18672056 0.037207216

module.fc2.bias f4 [64]
000000 86 37 42 3e e7 2b 23 be bf 72 0e bc 62 83 3d be
       0.18966493 -0.15934716 -0.00869435 -0.1850715
000010 cc 57 b6 bd 99 49 fd bd 8c 78 14 be 5c 40 68 bf
       -0.08903465 -0.12367553 -0.1449911 -0.90723205
000020 20 33 9c be 3d d8 e3 3e bd 1d 7e 3e 32 0e 92 bd
       -0.30507755 0.44500914 0.24816032 -0.07131614
000030 89 51 86 be a4 50 63 bf a2 f9 32 bf 07 ea eb bd
       -0.2623408 -0.8879492 -0.6991216 -0.115192465
000040 a0 79 ba be 6c 0d 09 bf cb 1b 3c bc c0 3c 05 3e
       -0.36420918 -0.53536105 -0.011481236 0.13011456
000050 a7 af ab 3d e9 c8 cc bd 45 e7 ad bc 35 25 cd bd
       0.083831124 -0.09999258 -0.021228442 -0.10016862
000060 06 e2 02 bf 86 d7 d4 bd c8 aa af bf 00 9f cf be
       -0.51126134 -0.1039267 -1.3723993 -0.40550995
000070 2c 2a 4e 3f 66 4f 04 be 14 5a c1 bc 3f 29 32 be
       0.805331 -0.12920913 -0.023602523 -0.17398547
000080 92 5f 24 3a c9 d6 85 be 42 53 16 bf 55 36 16 3e
       0.00062703446 -0.2614043 -0.5872079 0.14669164
000090 20 ca 4c bf 9a cc a1 bd 61 1f bd bd e2 82 47 be
       -0.7999592 -0.07900353 -0.09234501 -0.19483522
0000a0 3e 12 67 3e 08 6c 62 bf cd 8e 0c be 2b d6 8f bd
       0.22565553 -0.8844609 -0.13726349 -0.07023271
0000b0 49 7f 93 bd 48 18 11 3e fb 35 4d 3e a6 aa 60 be
       -0.07202012 0.14169419 0.20040123 -0.21940097
0000c0 b2 8a de be 4d 25 d1 be 6a a8 f0 be 8f ae c7 be
       -0.4346519 -0.4084877 -0.4700349 -0.39000365
0000d0 db cd 1e be 93 e9 13 be ac 40 df be 37 4b 4b be
       -0.15508215 -0.1444457 -0.43604028 -0.19852911
0000e0 67 6a 35 bf 10 3c da be ed bf 8f bf f9 60 0e bf
       -0.7086548 -0.4262395 -1.1230446 -0.5561672
0000f0 a8 c8 46 bf 07 ad 5d bf 1c 6c 19 3e a5 78 c1 3e
       -0.7764993 -0.86592144 0.14982647 0.37787357

module.fc3.weight f4 [1, 64]
000000 9b 4d 31 3e 69 8a fe 3b 99 cd 2c 3f f6 92 3c bb
       0.1731476 0.0077679646 0.6750122 -0.002877412
000010 84 dd b5 3d f7 94 89 3e 83 16 a0 be 19 5d 23 bf
       0.088801414 0.26871464 -0.31267175 -0.6381393
000020 63 5d 44 be a3 eb dc 3d d4 01 78 3e 95 36 c6 bc
       -0.19176249 0.10787132 0.24219447 -0.024195949
000030 d8 db e2 bc 01 7f ce 3f 17 f0 d1 3e 7a 90 9b bb
       -0.02769272 1.6132509 0.41003487 -0.0047474476
000040 77 88 d1 3d 81 50 40 be 78 17 57 3f b4 6e 8e be
       0.10231107 -0.1878071 0.84020185 -0.27818835
000050 11 1b 0c be 34 fa 51 3e 3d 27 ae 3b 39 40 9d 3e
       -0.136822 0.20505601 0.005314736 0.3071306
000060 a4 26 a8 be 6e 28 38 bc 6a ac c8 bf 01 b8 7b 3f
       -0.3284198 -0.011240108 -1.5677617 0.9832764
000070 58 07 96 be 02 ab ed 3c 06 12 0f be 79 40 ae ba
       -0.29302478 0.029012207 -0.13971719 -0.0013294361
000080 40 b5 19 bf ff cb ff bd ad 0b e0 be 6e cb 5e be
       -0.6004219 -0.12490081 -0.43758908 -0.2175729
000090 bc e3 df be 9b 64 83 3e ce 62 dc 3d 92 31 45 c0
       -0.43728435 0.25662693 0.10761033 -3.0811505
0000a0 c9 5f 20 be 0f ff ec 3e d4 59 30 3f 7d 38 3b bd
       -0.15661539 0.46288344 0.68887067 -0.04570817
0000b0 5e b8 01 bd 9d 92 1c 3e 10 17 94 be 56 c6 b6 3c
       -0.031669967 0.15290304 -0.28923845 0.02231137
0000c0 24 ed 79 be 4b b0 89 3f f2 74 26 3f 18 86 19 3f
       -0.24406868 1.0756925 0.65022194 0.59970236
0000d0 2b ba 2d be e4 b4 95 3e f0 16 19 3f fe 98 9d b9
       -0.16965549 0.2923957 0.59800625 -0.00030059362
0000e0 73 26 33 3f ba ce 98 3e 71 7b 70 3f 3d 5b 0d 3e
       0.69980544 0.2984522 0.93938357 0.13804336
0000f0 77 1d 63 3f 8f db ca bf ea 83 1f be ce b8 4d be
       0.88716835 -1.5848254 -0.15577665 -0.20090029
