trained_models/power_issue_model.pth (torch, 24423 bytes, 5 tensors)

module.fc1.weight f4 [64, 19]
0	0x3dd02d5c	0.101649016
1	0xbe512c98	-0.20427167
2	0x3e29f513	0.16597395
3	0xbe92e0e9	-0.28687218
4	0xbe8d5deb	-0.27610716
5	0xbb21fa75	-0.0024715934
6	0xbe77536f	-0.24152921
7	0xbe0f481b	-0.1399235
8	0xbefbed78	-0.49204612
9	0x3d997c40	0.07494402
10	0x402548e6	2.5825744
11	0xbda87fab	-0.08227476
12	0xbdc511ca	-0.096225336
13	0xbd45e327	-0.048312332
14	0x3eb88e74	0.36046183
15	0xbe31fa9c	-0.17380756
16	0x3f378993	0.71694297
17	0x3edf90f7	0.43665287
18	0xbc725b53	-0.014792281
19	0x3ee8e965	0.45490566
20	0x3e34cd93	0.17656545
21	0x3ebb58ee	0.36591285
22	0x3f2b00a6	0.66797864
23	0xbe94d21a	-0.29066545
24	0x3e3e3452	0.18574646
25	0x3ead7324	0.33876908
26	0xbf188dbc	-0.5959127
27	0x3e9c91d8	0.3058002
28	0x3f0ea0c1	0.5571404
29	0x3fe356ef	1.7760905
30	0x3e83d17f	0.2574577
31	0x3eac3f2a	0.3364194
32	0x3f112f4e	0.56712806
33	0x3de47411	0.111549504
34	0x3ea62a07	0.3245394
35	0x3d3c1432	0.045917697
36	0xbe01477e	-0.12624928
37	0xbe46c8fa	-0.19412604
38	0xbe8f6ce1	-0.28012756
39	0xbe42c519	-0.190205
40	0x3e3cd756	0.18441519
41	0x3e4c56e7	0.19955026
42	0xbea29a9e	-0.3175859
43	0xbf2719a6	-0.6527351
44	0x3f528547	0.82234615
45	0x3f065a03	0.52481097
46	0x3f5e4e4a	0.8683821
47	0xbec9d6be	-0.39421648
48	0xbedc7b68	-0.43062901
49	0x3f33f1ad	0.7029064
50	0x3e845a0f	0.2584996
51	0xbe8a2b5b	-0.26986203
52	0xbdaacf79	-0.083403535
53	0x3ed96812	0.42462212
54	0xbeaa8ec3	-0.33312044
55	0x3e4a3d75	0.19750006
56	0x3e8ca328	0.27468228
57	0x3e822a21	0.25422767
58	0x3dffc8a2	0.124894395
59	0xbd9c35d5	-0.07627455
60	0x3dab9c66	0.0837944
61	0x3e8d78a6	0.2763111
62	0x3eb8059e	0.35941786
63	0xbf0992e7	-0.5373978
64	0x3ec33f87	0.38134405
65	0xbe16229c	-0.1466164
66	0xbd30ad17	-0.04313382
67	0xc0222dfc	-2.5340567
68	0x3dc785ef	0.09742343
69	0x3ec5ea37	0.38655254
70	0x3e01c19b	0.12671511
71	0xbf022a1e	-0.50845516
72	0x3ebeb16a	0.3724473
73	0x3e60fb04	0.21970755
74	0x3da416fd	0.08012197
75	0xbe2c3b1c	-0.16819423
76	0x3da09126	0.07840185
77	0xbea1e71f	-0.31621644
78	0xbe56e53f	-0.20985888
79	0x3e2da22c	0.16956395
80	0x3ec758cd	0.38934937
81	0xbf15550e	-0.5833291
82	0x3ddfe539	0.109323926
83	0xbefca7db	-0.49346814
84	0x3e6cb287	0.23114978
85	0x3eac818d	0.3369259
86	0xbfbc44d3	-1.4708503
87	0x3e089f6f	0.13342069
88	0xbeec4b08	-0.46150994
89	0xbed6969b	-0.41911778
90	0xbf227d43	-0.63472384
91	0xbea0d59b	-0.31412968
92	0x3e447f2a	0.19189134
93	0xbef5e816	-0.4802863
94	0x3e442e45	0.19158275
95	0x3f129d7c	0.5727155
96	0x3e864579	0.26224878
97	0x3ec2eb74	0.3807026
98	0xbf04fc16	-0.5194715
99	0xbeb72132	-0.35767514
100	0xbe5e35ed	-0.21700259
101	0xbdfb8bb5	-0.122825064
102	0x3f2edca3	0.68305415
103	0xbee546f4	-0.44780695
104	0x3f31beac	0.6943157
105	0xbe4571d4	-0.19281703
106	0x3e0a71d2	0.13519982
107	0xbebd5172	-0.369762
108	0x3e98a337	0.29812023
109	0xbebe5cb7	-0.3718011
110	0x3f30b73b	0.6902959
111	0x3f0eab0b	0.5572974
112	0x3cf28259	0.02960317
113	0x3eb9c36c	0.36281908
114	0xbeb8f99d	-0.3612794
115	0x3d9bae45	0.07601599
116	0x3e90f104	0.2830888
117	0xbdf7b772	-0.12095536
118	0x3e47a5b5	0.19496806
119	0x3e29db17	0.16587482
120	0xbe9a98e9	-0.30194786
121	0xbe3b4262	-0.18287042
122	0x3ee73cd7	0.45163605
123	0x3d6cbc58	0.057796806
124	0xbfb6b693	-1.4274467
125	0x3f81df91	1.0146352
126	0xbeb0ac0d	-0.34506264
127	0xbe942f69	-0.2894242
128	0x3e6b83d6	0.2299951
129	0xbda27143	-0.07931759
130	0x3e8e612f	0.2780852
131	0x3ef6ecde	0.4822759
132	0xbe3b51c4	-0.1829291
133	0x3f35e486	0.71051824
134	0xbedc0080	-0.4296913
135	0xbde2fa4b	-0.11082896
136	0xbf3f60ea	-0.74757254
137	0xbee2a1f0	-0.44264174
138	0x3f19a24d	0.60013276
139	0xbe2bcf03	-0.16778187
140	0xbeeaeb94	-0.45882857
141	0xbed77c29	-0.42086914
142	0x3f0781fe	0.5293273
143	0xbf7fd195	-0.9992917
144	0x3f272b6d	0.6530064
145	0x3f21f581	0.63265234
146	0x3da1a32a	0.07892449
147	0x3bed6576	0.007244761
148	0x3eea051a	0.45707017
149	0x3dde43e6	0.10852794
150	0xbf42dc56	-0.76117456
151	0x3e62e934	0.22159272
152	0xbded196c	-0.115771145
153	0xbf072c25	-0.52801734
154	0xbf04db2c	-0.5189693
155	0xbe6db599	-0.23213805
156	0x3e39c368	0.18140948
157	0xbe51052d	-0.2041213
158	0x3e1d86fe	0.15383527
159	0xbe998d6e	-0.29990715
160	0xbe23035b	-0.15919249
161	0xbec3e2bc	-0.38258922
162	0x3e803dd6	0.25047177
163	0xbe7f7995	-0.24948724
164	0x3e6559b5	0.22397502
165	0xbf21e645	-0.6324199
166	0x3e4491cd	0.19196244
167	0xbf2f3424	-0.68438935
168	0x3dd37b02	0.10326196
169	0x3d80b697	0.06284826
170	0xbf4c026a	-0.79691184
171	0xbe099bde	-0.13438365
172	0x3d5502cc	0.05200462
173	0x3f376ffe	0.7165526
174	0x3e549cce	0.20762941
175	0x3d7fdaa1	0.06246436
176	0xbeca5127	-0.3951504
177	0x3f05c9e2	0.52261174
178	0x3e697e5e	0.22802112
179	0x3d10982d	0.035301376
180	0xbe456974	-0.19278508
181	0x3edd9507	0.4327776
182	0xbed91d42	-0.42405134
183	0xbe87125a	-0.2638119
184	0x3f4c5338	0.7981448
185	0x3f31d87f	0.6947097
186	0x3e06a207	0.13147746
187	0x3d88d766	0.06681709
188	0x3f18dbdf	0.59710497
189	0xbeec43b3	-0.461454
190	0x3d2dec7a	0.04246185
191	0xbe12e49a	-0.14345017
192	0x3df8fe9e	0.121579394
193	0x3e956ba1	0.29183677
194	0x3e75807e	0.23974797
195	0xbea51987	-0.32246038
196	0xb845b71b	-4.713899e-05
197	0x3e639a62	0.22226861
198	0x3d666a81	0.056253914
199	0xbd942bb8	-0.07234901
200	0x403a8d22	2.914864
201	0x3e45abb6	0.19303784
202	0xbdf46926	-0.11934118
203	0xbde7c28a	-0.11316402
204	0xbe247d16	-0.16063341
205	0xbe5020c1	-0.20324995
206	0xbd5813c1	-0.052753214
207	0x3db72c3c	0.08943984
208	0xbde2e682	-0.11079122
209	0xbcc5f5f1	-0.024165126
210	0xbf1924a6	-0.59821546
211	0x3ed6cbe8	0.41952443
212	0x3dd2ef49	0.10299546
213	0xbf9aab1a	-1.2083466
214	0x3e4c7023	0.19964652
215	0xbd55240f	-0.05203634
216	0x3e1877b5	0.14889415
217	0x3ecf6061	0.4050322
218	0x3e04d35c	0.12971252
219	0x3f8f56b2	1.1198332
220	0xbeed206a	-0.46313792
221	0xbf0761b5	-0.52883464
222	0x3e94a902	0.29035193
223	0x3e7413d5	0.2383569
224	0xbe410bf6	-0.18852219
225	0xbed539bb	-0.41645607
226	0xbd9ee3d1	-0.07758296
227	0x3ecfd4a1	0.4059191
228	0x3ee7a5ff	0.45243832
229	0x3f11e95a	0.5699669
230	0x3d4d230c	0.05008225
231	0xbf463163	-0.7741911
232	0xbca657b8	-0.0203055
233	0x3e3df9f3	0.1855238
234	0x3e28fd58	0.16502893
235	0xbed516e2	-0.4161902
236	0x3dc10c21	0.094261415
237	0x3d36f583	0.044667732
238	0x3ddc3ce0	0.107537985
239	0x3e21d6ae	0.1580455
240	0xbf285dd7	-0.6576819
241	0xbf33217f	-0.69972986
242	0xbf37fd5d	-0.71870977
243	0xbe75c183	-0.239996
244	0xbdad0939	-0.08449025
245	0xbede7a69	-0.43452767
246	0xbe868388	-0.26272225
247	0x3dc04101	0.093873985
248	0x3ca2db47	0.01987995
249	0xbdd269ea	-0.10274108
250	0xbe1e3228	-0.1544882
251	0x3e1b0737	0.15139471
252	0x3e6bb21d	0.23017164
253	0xbe8c38f0	-0.2738719
254	0x3c8ae9c0	0.016957164
255	0xbdc15bb8	-0.09441322

module.fc1.bias f4 [64]
0	0x3d79d15e	0.060990684
1	0xbf840ab0	-1.0315762
2	0xbfdb39ec	-1.7127051
3	0xbf00fd6d	-0.503867
4	0x3e4174f3	0.18892269
5	0x3de00850	0.109390855
6	0xbf6cec66	-0.92548215
7	0xbfa099fd	-1.2546993
8	0xbeaad358	-0.33364367
9	0x3d608b73	0.05482049
10	0xbf432807	-0.7623295
11	0xbeba0e2f	-0.36338946
12	0x3e9eb96d	0.31000844
13	0xbf889043	-1.0669025
14	0xbf318b64	-0.6935332
15	0x3e89fabb	0.26949105
16	0xbeddb6fd	-0.4330367
17	0x3f851d3b	1.0399545
18	0x3efddba7	0.49581644
19	0x3f04b2fe	0.5183562
20	0xbe55f1bb	-0.20892994
21	0x3e7503ce	0.23927233
22	0xbe9b9f69	-0.30395058
23	0xbf24b664	-0.64340806
24	0xbf4e205d	-0.8051813
25	0x3f04d606	0.51889074
26	0xbf09a489	-0.53766686
27	0x3e404261	0.18775322
28	0xbdb737d0	-0.08946192
29	0xbfc12e15	-1.5092188
30	0xbf6e085c	-0.92981505
31	0xbfaedebd	-1.3661724
32	0xbe7da306	-0.2476922
33	0xbf4ad877	-0.7923655
34	0x3fab205c	1.336925
35	0xbf16d8f7	-0.5892481
36	0xbf2bb250	-0.6706896
37	0xbec97915	-0.3935019
38	0xbf7c23f9	-0.9849239
39	0xbeebee8b	-0.4608043
40	0xbfcc27c3	-1.5949634
41	0xbf51d775	-0.81969386
42	0x3ee6f3d4	0.451079
43	0xbef525db	-0.47880444
44	0xbfb17710	-1.386446
45	0xbf041bfa	-0.5160519
46	0xbc7ad5fa	-0.015309805
47	0xbf6a701b	-0.9157731
48	0xbf276259	-0.6538444
49	0x3e68d7ed	0.22738619
50	0xbf86f21a	-1.0542634
51	0xbed3dd59	-0.41379812
52	0xbf3b1d0b	-0.7309119
53	0x3fa23ffe	1.2675779
54	0xbf00b03a	-0.502689
55	0xbedd1cc1	-0.43186
56	0x3f05b0a8	0.5222268
57	0x3f670d6e	0.9025487
58	0x3e31ac23	0.17350821
59	0x3f672363	0.9028837
60	0xbea2bc2e	-0.31784195
61	0xbf42830c	-0.7598121
62	0xbf4c84a5	-0.798899
63	0xbf67998b	-0.9046866

module.fc2.weight f4 [64, 64]
0	0xbf55f4c8	-0.8357663
1	0xbefd6249	-0.49489048
2	0x3f8c7b95	1.0975214
3	0x3dc47fb4	0.0959467
4	0x3f24846c	0.6426456
5	0xbe276857	-0.16348396
6	0x3e8ee4e0	0.27908993
7	0x3eb1e671	0.34746125
8	0xbf1c5e80	-0.61081696
9	0xbdf4fec6	-0.11962657
10	0xbfa65d61	-1.2997247
11	0xbf170cd2	-0.5900394
12	0x3ddb1c47	0.10698753
13	0x3ed364b9	0.41287783
14	0x3e0d8ca4	0.13823181
15	0xbdeb412b	-0.11487039
16	0x3c8513fa	0.016244877
17	0xbfdd17cb	-1.7272886
18	0xbee65346	-0.44985408
19	0xbe87465f	-0.26420876
20	0xbdf01912	-0.11723532
21	0xbf3bf910	-0.73426914
22	0xbecceab1	-0.40022805
23	0xbeb2e942	-0.34943587
24	0x3d80a2f7	0.06281083
25	0xbed479b1	-0.41499093
26	0x3d235a37	0.039880957
27	0x3f2c05b9	0.6719623
28	0xbd758d37	-0.059949126
29	0x3ddf825d	0.10913537
30	0x3d3970f0	0.04527372
31	0x3ea63494	0.3246199
32	0xbf33616d	-0.70070535
33	0x3f74e4ab	0.9566142
34	0xbeb6e0d6	-0.3571841
35	0x3dee4b3b	0.11635443
36	0xbf9c5a51	-1.2215062
37	0x3f4b524f	0.7942247
38	0xbe8ba137	-0.27271435
39	0x3e3a8eac	0.18218488
40	0x3f06bcf3	0.52632064
41	0x3f18016b	0.59377164
42	0x3ea75480	0.32681656
43	0x3e68277b	0.2267131
44	0xbed6b28c	-0.41933095
45	0xbfa782c7	-1.3086785
46	0x3f32fb9a	0.69915164
47	0xbd004333	-0.031314086
48	0x3d978c98	0.07399863
49	0xbf3976df	-0.7244701
50	0xbf862857	-1.0481061
51	0xbe8469f6	-0.25862092
52	0x3edb2396	0.42800587
53	0xbe963426	-0.2933666
54	0x3ec64eb2	0.38731915
55	0x3ecd4f36	0.40099496
56	0x3e0c109a	0.13678208
57	0xbd0af4c4	-0.033924833
58	0xbd76734c	-0.06016855
59	0xbe7cd5dd	-0.24690957
60	0xbf68bd12	-0.909135
61	0x3fb7fc91	1.4373952
62	0x3ec42661	0.3831053
63	0xbe0d1d5e	-0.13780734
64	0xbf0b995e	-0.54530895
65	0xbccae3f6	-0.024766903
66	0x3da0ce71	0.078518756
67	0x3e22d58c	0.15901774
68	0x3e73325f	0.23749684
69	0x3d5aa4cd	0.053379823
70	0x3edd85a2	0.43266016
71	0x3d3cc431	0.04608554
72	0xbe12850d	-0.14308567
73	0xbbd6a57a	-0.006550488
74	0xbf80d065	-1.0063597
75	0xbeb09a4e	-0.34492725
76	0xbf1dfa80	-0.6171036
77	0x3f155b01	0.58341986
78	0xbed666fd	-0.4187545
79	0x3f198037	0.59961265
80	0xbf3c00f6	-0.73438966
81	0xbeb288f6	-0.34870118
82	0x3e01b2dc	0.12665886
83	0x3e84e2dd	0.25954333
84	0xbe88eebe	-0.26744646
85	0x3e01a51b	0.12660639
86	0xbece9079	-0.403446
87	0xbf186a2f	-0.59537023
88	0xbf1b235b	-0.60600823
89	0xbe8b3c70	-0.27194548
90	0xbee314ac	-0.4435171
91	0x3d9d9d0d	0.07695971
92	0xbe80d38b	-0.25161394
93	0xbf9fd25d	-1.2486073
94	0x3f73aecc	0.95188594
95	0x3f07fcc7	0.5312008
96	0xbe76d161	-0.24103309
97	0xbf977c9f	-1.1834906
98	0xbe0a5058	-0.13507211
99	0x3f22b70d	0.63560563
100	0x3f4a81d6	0.79104364
101	0xbd97224f	-0.07379591
102	0x3c578287	0.013153679
103	0x3e75fa9b	0.2402138
104	0xbeda002d	-0.4257826
105	0xbf4294dd	-0.760084
106	0x3f2eae2c	0.68234515
107	0xbee8fa3e	-0.4550342
108	0xbde716a0	-0.11283612
109	0xbf8e4933	-1.1116089
110	0xbf2033b7	-0.6257891
111	0xbf9bca07	-1.2171029
112	0x3e1000a7	0.14062749
113	0x3ea7597b	0.32685456
114	0x3d765010	0.060134947
115	0x3f64c7b8	0.89367247
116	0xbeb5425c	-0.3540219
117	0x3c8ec8f7	0.017429812
118	0xbee41fdd	-0.4455556
119	0xbd9fd92d	-0.07805095
120	0x3db85021	0.089996584
121	0xbed05bbf	-0.40694997
122	0xbea942ad	-0.33058682
123	0xbf9038b6	-1.1267307
124	0x3f54f6ab	0.83188885
125	0x3e396fea	0.18109098
126	0xbe9e22c8	-0.3088591
127	0x3f13a39e	0.57671535
128	0xbe0cd6df	-0.13753842
129	0x3d6f8c1a	0.05848322
130	0x3af5c372	0.0018750264
131	0x3d270e11	0.0407849
132	0xbe0bc87f	-0.13650702
133	0x3c0f7d18	0.008757852
134	0xbdc92992	-0.09822382
135	0xbddb0470	-0.10694206
136	0xbe002e5a	-0.12517682
137	0xbe2da624	-0.16957909
138	0xbd0fcfb4	-0.03511019
139	0x3d51555a	0.05110679
140	0xbe4eff6e	-0.20214626
141	0xbde61896	-0.11235158
142	0xbd9f1c77	-0.07769101
143	0xbd51a448	-0.05118206
144	0xbe1acd32	-0.15117338
145	0xbce25fcb	-0.027633568
146	0xbdfd1b1f	-0.123586886
147	0xbe348024	-0.17627007
148	0xbc98376d	-0.018581117
149	0xbcec984b	-0.028881213
150	0x3ce2f581	0.027704956
151	0xbd788f4f	-0.060683545
152	0x3a65df86	0.00087689643
153	0xbe3575b0	-0.17720675
154	0xbc9889f9	-0.018620478
155	0xbdfda6a9	-0.123853035
156	0xbb0aa8f3	-0.002115783
157	0x3df98a00	0.121845245
158	0xbd7e0a2b	-0.062021416
159	0xbdcd8c32	-0.10036506
160	0xbe3719e7	-0.17880975
161	0xbda076b8	-0.07835144
162	0x3c43dce6	0.011954522
163	0x3c2db6e0	0.010602683
164	0xbe0213f8	-0.1270293
165	0xbd985188	-0.07437426
166	0x3c81dd29	0.015852528
167	0xbdaa1446	-0.08304648
168	0x3caaab52	0.020833645
169	0x3c658352	0.01400836
170	0xbce9f54d	-0.028559351
171	0x3d587b22	0.052851804
172	0x3d6d8f99	0.057998274
173	0xbd810b52	-0.06300987
174	0xbdee7bd3	-0.11644711
175	0xbe5e96a9	-0.2173716
176	0xbddf270e	-0.10896121
177	0xbc325108	-0.010883577
178	0x3da54a1a	0.080707744
179	0xbe4e10ef	-0.20123647
180	0xbe09cf80	-0.13458061
181	0xbd592466	-0.053013228
182	0xbcd4f6ef	-0.025996653
183	0xbd9fad7a	-0.0779676
184	0xbdd59ea2	-0.104306474
185	0xbe450842	-0.19241431
186	0x3c04910c	0.0080912225
187	0xbddc7766	-0.10764961
188	0x3ca1cc52	0.019750748
189	0xbe322c8d	-0.17399807
190	0xbe4cd7ae	-0.2000415
191	0xbe086fbd	-0.13323875
192	0xbda3c6e6	-0.07996921
193	0x3ea3c94c	0.31989515
194	0xbfc20fa7	-1.5161027
195	0x3ea97ee1	0.33104613
196	0x3e91ad54	0.2845255
197	0x3ed94436	0.42434853
198	0x3ee730ff	0.4515457
199	0xbdc69b53	-0.096975945
200	0x3e2d7f30	0.1694305
201	0xbf70dbb0	-0.94085217
202	0x3ead2200	0.33815002
203	0xbf98c289	-1.1934367
204	0xbc34380b	-0.01099969
205	0xbf54fb9b	-0.8319642
206	0xbf35c941	-0.71010214
207	0x3ebc8a19	0.3682411
208	0x3f6f7941	0.93544394
209	0xbdc36245	-0.09540228
210	0xbc6d8bc1	-0.014498652
211	0xbf7a6cff	-0.97822565
212	0xbea7137b	-0.3263205
213	0xbd6b07e0	-0.057380557
214	0x3d65b7c5	0.05608346
215	0x3ee7bcc4	0.45261204
216	0xbe65d8d7	-0.22445999
217	0x3e2ed77f	0.17074393
218	0xbf9e0409	-1.2344981
219	0xbf0b2a25	-0.5436118
220	0x3dfd1c72	0.12358941
221	0xbf1d2ef2	-0.6139976
222	0xbf19b018	-0.6003432
223	0x3e43c76a	0.19119039
224	0x3e153ccf	0.14573978
225	0x3da17df2	0.0788535
226	0xbedb6a40	-0.428545
227	0x3ec1eefe	0.3787765
228	0x3eaaaafe	0.33333582
229	0xbe086679	-0.1332034
230	0x3f2e4901	0.68080145
231	0xbf1dbde5	-0.6161788
232	0x3ead1c3b	0.338106
233	0xc086f5c6	-4.2175016
234	0xbe0abb9a	-0.13548127
235	0xbff4530e	-1.9087846
236	0x3ee4e46c	0.44705522
237	0x3f0da44a	0.5532881
238	0x3ea92125	0.330331
239	0xbe79fe56	-0.24413428
240	0x3ed2951a	0.4112938
241	0x3d979db9	0.0740313
242	0x3f20ea0b	0.6285712
243	0x3c8cfefe	0.017211434
244	0xbf6bc72c	-0.9210079
245	0xbea3486e	-0.31891197
246	0xbf812d30	-1.0091915
247	0x3f12746e	0.5720891
248	0xbe131b29	-0.1436583
249	0xbf8bff40	-1.0937271
250	0xbf500d73	-0.8127052
251	0x3e5bb143	0.21454339
252	0x3e8684b0	0.26273108
253	0x3e180a00	0.14847565
254	0xbf4b5555	-0.7942708
255	0xbf205bc9	-0.62640053

module.fc2.bias f4 [64]
0	0xbfab5025	-1.3383833
1	0x3e3c53bc	0.18391317
2	0xbe266b6a	-0.16251913
3	0xbf9b26e6	-1.2121246
4	0x3f802655	1.0011698
5	0x3ea1a432	0.31570584
6	0x3ea003fc	0.3125304
7	0x3fa639a9	1.2986346
8	0x3efaf7c5	0.49017158
9	0x3f8c2058	1.094737
10	0xbf714b04	-0.9425509
11	0xbe8df1f8	-0.2772367
12	0xbf931f24	-1.1493878
13	0xbf9227dc	-1.1418414
14	0xbf8ff2e9	-1.1246005
15	0x3f49d40f	0.788392
16	0x3f73f4fc	0.9529569
17	0xbf4d8def	-0.802947
18	0xbf8cb112	-1.0991538
19	0xbf2a6912	-0.66566575
20	0x3f211f77	0.62938637
21	0xbf3ba3d7	-0.73296875
22	0x3efb554a	0.49088508
23	0xbf6a58df	-0.91541857
24	0xbced71e3	-0.02898497
25	0xbf89e050	-1.077158
26	0xbfc04c49	-1.502328
27	0x3e9a85f0	0.3018031
28	0x3f23f134	0.6403992
29	0xbf976203	-1.1826786
30	0xbf3c44a8	-0.7354226
31	0xbf2f22c6	-0.68412435
32	0x3e30e6e1	0.17275573
33	0x3f216410	0.6304331
34	0x3f3d7bdb	0.74017113
35	0x3f2b964b	0.67026204
36	0x3f3d4532	0.7393371
37	0xbdbfd7fc	-0.093673676
38	0x3e43e488	0.19130147
39	0xbf31c81f	-0.69445986
40	0xbf37455b	-0.71590203
41	0xbf489043	-0.78345126
42	0x3f25f316	0.64824045
43	0xbf5bc1da	-0.8584267
44	0x3ed393be	0.41323656
45	0xbe3ef9f1	-0.18650033
46	0xbe73380d	-0.2375185
47	0xbe3fe1d8	-0.18738496
48	0xbf2e32bb	-0.6804616
49	0x3f78a224	0.97122407
50	0xbee2d08a	-0.44299728
51	0x3dcbf110	0.099580884
52	0xbf245ee5	-0.642073
53	0xbf79978b	-0.9749686
54	0xbea4a92c	-0.32160318
55	0x3c908c2b	0.017644962
56	0xbf469d70	-0.7758398
57	0xbf528338	-0.82231474
58	0x3ee7aee2	0.45250612
59	0xbf9e07b9	-1.2346107
60	0x3f207238	0.62674284
61	0xbe96541f	-0.29361054
62	0x3f3aaca8	0.729197
63	0xbd2d12c0	-0.04225421

module.fc3.weight f4 [1, 64]
0	0x3ee16c25	0.4402782
1	0xbf007f60	-0.5019436
2	0xbcacaf46	-0.02107967
3	0x3ef1b744	0.47210133
4	0xbe104216	-0.1408771
5	0xbf80dc7f	-1.006729
6	0xbfa91b92	-1.3211539
7	0xbe17c572	-0.14821413
8	0xbf5d2b31	-0.8639403
9	0x3f668d97	0.900598
10	0x3e9dca22	0.30818278
11	0xbfb1c895	-1.3889338
12	0x3f0bca5a	0.5460564
13	0x3f7cdbda	0.98772967
14	0x3ec00661	0.37504867
15	0x3f5a0ba4	0.8517401
16	0x3f7baa36	0.98306596
17	0x3e1202d7	0.14258896
18	0x3f2be25d	0.6714228
19	0x3e859133	0.2608734
20	0xbf37f4f0	-0.7185812
21	0x3f84c419	1.0372344
22	0xbef3202e	-0.4748549
23	0x3e584c87	0.21122943
24	0xbf98985a	-1.1921494
25	0x3f2f4fa6	0.6848091
26	0x3fc00477	1.5001363
27	0xbf37120c	-0.7151191
28	0xbec04075	-0.37549177
29	0x3f4f501c	0.8098161
30	0x3eae8f4a	0.34093696
31	0x3f210f0a	0.6291357
32	0xbfd27fed	-1.644529
33	0x3f1294a9	0.5725809
34	0xbe862909	-0.26203182
35	0xbec3e061	-0.38257125
36	0x3fae85c0	1.3634567
37	0x3c706638	0.014672808
38	0x402eb1cb	2.7296016
39	0x3e0714dc	0.13191551
40	0x3f57effc	0.8435056
41	0x3e9386d5	0.28813806
42	0xbf5626f6	-0.836532
43	0x3e9b9007	0.30383322
44	0xbea142b0	-0.3149619
45	0xbfe25cf7	-1.7684621
46	0xbf37c57c	-0.7178571
47	0xbf9c910e	-1.2231767
48	0x3e3596c2	0.17733291
49	0xbf7a5a17	-0.97793716
50	0x3e2eb6e3	0.17061953
51	0xbcdffae0	-0.027341306
52	0x3fba0869	1.4533817
53	0x3e39ebb0	0.18156314
54	0x3c85cf1b	0.016334107
55	0xbfc94b11	-1.5726033
56	0x3dd2f81c	0.10301229
57	0x3f179bc3	0.5922205
58	0xbeda62ae	-0.42653412
59	0x401282d3	2.2892349
60	0x3f330079	0.69922596
61	0x3fbd8f70	1.4809399
62	0xbea66bc1	-0.32504085
63	0xbf64f6fb	-0.8943936
