trained_models/sensor_malfunction_model.pth (torch, 24543 bytes, 5 tensors)

module.fc1.weight f4 [64, 19]
-0.3592223 0.02318579 0.5720708 0.9622693 -0.013729908 0.23257296 -0.019177914 0.13978584
0.78284436 0.41748044 -1.1394734 -0.7672138 -0.43300283 0.52263767 -0.23226564 -0.0037743016
-0.53835934 -0.08415698 0.75215346 -0.50596803 -0.4373119 0.13280822 -0.85984147 0.20963204
-0.2474148 -0.56161076 0.7631116 -0.05638951 0.27439874 -0.72352904 -0.93054044 -0.4149037
-0.3654567 0.17952769 0.3018328 -0.46123642 -0.820003 -0.6865011 0.2854287 -0.066706434
-0.030046416 1.0615659 -0.98283607 0.9099856 0.88092124 0.3003887 -0.24162978 -0.05768185
-0.3351101 -0.51240355 -0.18602847 0.4712303 0.34527263 0.3155092 -0.090783894 0.074774876
0.69402903 -0.68093216 -0.66878617 -0.22730899 0.9230192 -0.5319258 -0.6085248 -0.051785138
-0.4188403 -0.34668922 -0.28419262 -0.5145676 -0.26860198 -0.24795236 -0.5511294 -0.10286099
-0.22827652 0.50717986 0.09853404 -0.7135586 0.23147012 0.22718355 0.06845536 0.67299265
-1.0790681 0.5999108 -0.17202686 0.016308839 0.14614023 0.73008746 0.24367887 0.052543472
-0.507376 0.2651027 -0.53226244 -0.9184247 -0.23162353 -0.8116354 1.0213301 0.26131383
1.2459956 -0.3984553 -0.61816657 -0.3632483 0.13565795 -0.06342101 -0.022358224 -0.37541214
-0.0949715 -0.10280776 -0.3001763 -0.626326 0.11256643 -0.07996122 0.7886256 0.008804767
0.58193624 0.13973393 -0.2322758 0.30037233 -0.507496 -0.5278221 -0.34625956 -0.8192327
-0.08191858 -0.069496684 0.13345678 -0.0431507 -0.40057483 -0.12703659 -0.466664 0.7737199
0.34953296 0.43752924 0.1141499 -0.5961296 -0.29688364 0.023544539 -0.56960714 0.15285388
-1.0578508 -0.114469126 -0.050689057 -0.46080795 -0.73521745 -0.007097294 -0.78971106 0.14013468
-0.08139965 -0.7762094 -0.52056676 -0.59665334 -0.0099676475 0.56547445 0.16533777 -0.41461867
0.48643517 -0.18627043 -0.7578446 -0.39343125 -0.10991149 -0.5302504 0.6900279 -0.69273996
-0.3543781 0.57102495 0.37170076 -0.377713 0.1248431 -0.25574884 -0.22731052 -0.7810419
0.27791905 -0.88856345 -0.10267511 0.79949665 0.45785302 -0.12194687 0.97223425 -0.17844693
0.07995262 -0.57607585 0.47915593 0.1075424 0.4366453 -0.32815132 0.21420446 0.0630243
-0.39947093 0.31238303 0.11886753 -0.0038127962 -0.43840998 -0.77813745 -0.6898331 0.5119967
-0.121661395 -0.20379102 0.14359531 0.19730404 -0.7356377 0.50101423 0.22942379 0.52025265
0.13299179 0.573268 0.38207725 -0.17786099 -0.71979004 -0.05452136 0.57242256 -0.2976195
-0.46792856 -0.4676799 0.7484011 -0.8388511 -0.3931589 0.75084674 0.5465219 0.19154277
0.071122386 0.51814604 -0.029201703 -0.38290662 0.24287997 0.4136245 0.052422404 0.7243989
-0.12109966 0.41952378 0.22974788 -0.2905133 -0.38747114 -0.36751676 0.6774343 0.6635579
0.20584556 -0.19662239 0.38353005 -0.012775097 0.92923677 0.34168807 -0.5782103 0.44125473
0.18719213 0.32956415 0.32497966 0.021707654 -0.03661683 0.5867554 -0.5932482 -0.073402904
0.5955112 0.09776302 0.30575472 0.2855511 0.9410221 -0.70386213 0.18871498 0.580047
00000000: fceb b7be 20f0 bd3c 3b73 123f 4857 763f
00000010: 68f3 60bc 9b27 6e3e 001b 9dbc 0524 0f3e
00000020: 7d68 483f ffbf d53e 44da 91bf 2068 44bf
00000030: 8cb2 ddbe 95cb 053f 0bd7 6dbe 465a 77bb
00000040: ebd1 09bf 7f5a acbd 218d 403f 1f87 01bf
00000050: 58e7 dfbe e1fe 073e 921e 5cbf c8a9 563e
00000060: 4e5a 7dbe b9c5 0fbf 485b 433f b0f8 66bd
00000070: fe7d 8c3e 3339 39bf e637 6ebf 426e d4be
00000080: 241d bbbe 1bd6 373e d489 9a3e 2e27 ecbe
00000090: b7eb 51bf 89be 2fbf b623 923e 629d 88bd
000000a0: e723 f6bc 64e1 873f 259b 7bbf d1f4 683f
000000b0: 0e84 613f 8ccc 993e cc6d 77be ce43 6cbd
000000c0: 8d93 abbe e12c 03bf 3f7e 3ebe 1945 f13e
000000d0: 93c7 b03e 6c8a a13e e8ec b9bd 9223 993d
000000e0: e3ab 313f 9251 2ebf 9235 2bbf b0c3 68be
000000f0: fc4a 6c3f 4a2c 08bf 48c8 1bbf a71c 54bd
00000100: 3c72 d6be 4081 b1be b281 91be b4ba 03bf
00000110: 3386 89be 39e7 7dbe d116 0dbf c8a8 d2bd
00000120: 52c1 69be 8ad6 013f 37cc c93d c7ab 36bf
00000130: 8106 6d3e cea2 683e 5332 8c3d 3f49 2c3f
00000140: e71e 8abf c193 193f cf27 30be 1d9a 853c
00000150: c9a5 153e 03e7 3a3f f486 793e d337 573d
00000160: 65e3 01bf 8bbb 873e 5a42 08bf e21d 6bbf
00000170: b82e 6dbe 56c7 4fbf f2ba 823f edca 853e
00000180: c97c 9f3f 5502 ccbe 2a40 1ebf aefb b9be
00000190: ebe9 0a3e e0e2 81bd 9828 b7bc 0536 c0be
000001a0: 6b80 c2bd e08c d2bd b5b0 99be e756 20bf
000001b0: 3a89 e63d b5c2 a3bd 5ee3 493f df41 103c
000001c0: c6f9 143f 6916 0f3e b5d9 6dbe 67ca 993e
000001d0: 42eb 01bf 591f 07bf ef48 b1be 3cb9 51bf
000001e0: eec4 a7bd 4754 8ebd e5a8 083e cabe 30bd
000001f0: 2518 cdbe e115 02be 95ee eebe 8212 463f
00000200: fcf5 b23e d503 e03e 6cc7 e93d f39b 18bf
00000210: 2201 98be 7ae0 c03c c6d1 11bf ba85 1c3e
00000220: a867 87bf ca6e eabd 549f 4fbd 05ef ebbe
00000230: 3637 3cbf 6b90 e8bb 812a 4abf 777f 0f3e
00000240: dcb4 a6bd a9b5 46bf dd43 05bf 46be 18bf
00000250: 584f 23bc efc2 103f 4e4e 293e e648 d4be
00000260: 080e f93e adbd 3ebe 1b02 42bf d26f c9be
00000270: 4619 e1bd 7dbe 07bf aba5 303f 6857 31bf
00000280: 0c71 b5be b12e 123f 904f be3e 9963 c1be
00000290: bdad ff3d 83f1 82be 17c4 68be 5df2 47bf
000002a0: 684b 8e3e e578 63bf 5447 d2bd d0ab 4c3f
000002b0: b66b ea3e 48bf f9bd 58e4 783f cbba 36be
000002c0: 33be a33d b579 13bf ed53 f53e 313f dc3d
000002d0: f98f df3e 7303 a8be 6a58 5b3e e212 813d
000002e0: 7487 ccbe abf0 9f3e d270 f33d 1be0 79bb
000002f0: 4677 e0be 0434 47bf e798 30bf 3712 033f
00000300: 9c29 f9bd 98ae 50be a60a 133e 120a 4a3e
00000310: c152 3cbf 7842 003f 12ee 6a3e 472f 053f
00000320: 002f 083e b1c1 123f a19f c33e 3121 36be
00000330: 2944 38bf ca51 5fbd 498a 123f 9561 98be
00000340: 5594 efbe bd73 efbe 3797 3f3f f2be 56bf
00000350: 204c c9be 7e37 403f dce8 0b3f ca23 443e
00000360: 9da8 913d 38a5 043f 6938 efbc 560c c4be
00000370: 87b5 783e 97c6 d33e e0b8 563d 3572 393f
00000380: 1903 f8bd d2cb d63e 0743 6b3e 29be 94be
00000390: 9e62 c6be 282b bcbe 566c 2d3f eede 293f
000003a0: 2ec9 523e 6157 49be 0d5e c43e a44e 51bc
000003b0: 76e2 6d3f bdf1 ae3e 9705 14bf 24ec e13e
000003c0: 4baf 3f3e a2bc a83e bc63 a63e 40d4 b13c
000003d0: 87fb 15bd 9a35 163f 1ddf 17bf 4354 96bd
000003e0: 6c73 183f fa37 c83d e28b 9c3e c133 923e
000003f0: d3e6 703f 4f30 34bf 803e 413e f67d 143f

module.fc1.bias f4 [64]
-1.1165193 -0.5145037 -0.71361434 -1.08873 -1.2102052 0.019913182 0.25719148 -0.30810636
-1.3541158 -0.97266513 -1.5050408 -0.5709217 -1.0601579 -1.3200144 -1.106312 -0.67834496
-1.0770283 -0.69778955 -0.82330865 -0.5358204 -0.4228165 -0.74841815 -0.4415551 -0.18212768
-1.2440022 -0.19646822 -0.9920765 -0.6350818 -0.9730366 -1.1067873 -0.5356891 -0.45806476
-0.94129187 -1.1463327 -1.0321715 -0.2165003 -1.629336 -0.065434605 -1.5436627 -0.5311109
-0.42178664 -0.55840963 -0.2828075 0.067707755 -0.275052 -0.8251602 -0.58874166 -1.0483636
-1.5225806 -1.0108818 -0.8374609 -1.0295429 -0.9634875 -0.7291841 -1.7458193 -0.7404595
-0.5664997 -0.6780261 -0.8209374 -0.9740823 -0.44133845 -0.8374655 0.20268366 -1.1575909
00000000: 1bea 8ebf 84b6 03bf 6eaf 36bf 815b 8bbf
00000010: 01e8 9abf f820 a33c 9aae 833e 1ec0 9dbe
00000020: ab53 adbf 9500 79bf 2da5 c0bf ed27 12bf
00000030: 41b3 87bf 3bf6 a8bf a29b 8dbf 04a8 2dbf
00000040: 10dc 89bf 56a2 32bf 5bc4 52bf 872b 09bf
00000050: 677b d8be 5598 3fbf 8313 e2be ae7f 3abe
00000060: 773b 9fbf f72e 49be baf8 7dbf b994 22bf
00000070: ed18 79bf 35ab 8dbf ec22 09bf 7787 eabe
00000080: 81f8 70bf 08bb 92bf 321e 84bf 41b2 5dbe
00000090: 158e d0bf 9402 86bd bd96 c5bf e2f6 07bf
000000a0: 6bf4 d7be eff3 0ebf 25cc 90be 5daa 8a3d
000000b0: 9ed3 8cbe b33d 53bf c6b7 16bf c730 86bf
000000c0: ece3 c2bf 9364 81bf d663 56bf 10c8 83bf
000000d0: 1ea7 76bf cfab 3abf 0277 dfbf c18e 3dbf
000000e0: 2006 11bf 1e93 2dbf f428 52bf 755d 79bf
000000f0: 1df7 e1be 2464 56bf 4e8c 4f3e f02b 94bf

module.fc2.weight f4 [64, 64]
0.07049937 0.09587509 -0.25626448 -0.31533435 -0.44023374 0.011134623 -0.32378712 0.33716577
0.6694205 -0.40844548 -0.21253586 0.2601957 0.402144 -0.6474266 -0.72477126 -0.41114762
-0.70416224 0.046541438 0.13811524 -0.3015813 -0.27751312 0.18710086 0.4897297 -0.3790444
0.2740046 -1.1798553 -0.2199748 0.03466381 -0.23258325 0.0028922071 0.027999463 -0.20339939
0.06788335 -1.2384998 -0.013239037 0.1826733 0.033740167 -0.7093979 0.21065578 0.8113699
-1.0839187 0.28339145 0.0916596 -0.059673846 -0.5211831 0.4501558 0.41611716 0.77898943
0.08052338 -1.6152186 -0.48065796 0.22566889 0.0032209316 -0.32262084 -2.893696 -0.14065833
0.30050457 -0.00437714 0.3789806 -0.3639743 -0.038321596 -1.0570716 -0.4576388 0.3818796
-0.12176513 -0.12679999 -0.16302821 -0.0063260365 -0.13829482 -0.019789135 0.008884269 -0.17742948
-0.0065208124 -0.0054224054 -0.11588989 -0.09382982 -0.105981715 -0.014018267 -0.111702986 -0.078250885
-0.13513361 -0.09939493 -0.09670752 -0.03850564 -0.045078825 0.04103521 -0.09560588 0.04088648
-0.13411137 -0.16361403 -0.030279823 -0.084542066 -0.104377896 0.091763444 -0.086076565 -0.05666168
-0.06786978 -0.0935706 0.047502276 -0.06419446 -0.12916352 -0.029028362 -0.08900733 -0.055471037
0.0333308 0.037622735 0.048723467 -0.018682051 -0.025704576 -0.109609954 -0.05407916 0.07037841
-0.09226056 -0.07761218 -0.028748395 -0.016547378 -0.032644965 -0.009455863 0.0066619036 0.039645687
-0.059841383 -0.16489913 -0.08464033 0.034775894 -0.08304575 -0.070514895 0.024629736 -0.16991416
-0.1495178 0.30761683 0.07263085 0.16238321 -0.25317377 0.19605915 -0.36657837 0.44162342
0.32567272 0.49939293 0.802727 0.46036395 0.5276816 -0.45177278 0.13600847 -0.7110855
-0.6601979 0.34075177 0.056414068 -0.5758952 0.06474657 0.77046114 0.4611398 0.106078476
0.12462469 0.037366495 0.58586514 -0.2183984 0.20468271 -0.058079146 0.30235028 -0.42596728
-0.29722577 0.20831417 0.41646174 -0.19326168 0.18406226 -0.19881387 0.16621941 0.22941118
-0.71307164 -0.7592445 0.3999921 1.492351 -0.17000493 -0.6397437 0.25251314 0.030237664
0.13218544 -0.60574615 0.19017056 -0.5012459 -0.22708201 0.22189514 -0.36290163 -1.2348711
-0.09477007 -0.14158344 0.32804576 0.29695976 0.2906461 -0.07770282 -0.16870329 0.022249304
-0.63596493 0.011507271 -1.4861671 -0.8270593 -0.39992404 -0.39038593 0.007894236 0.22336298
0.7393116 0.12659472 -4.4413 -0.918368 0.38511485 0.2725225 -1.5607892 -0.13887653
0.23066138 -0.18280275 -0.5043822 -1.3051641 -0.415905 -1.9422443 0.4366291 -0.17778088
-1.8789771 0.55280113 0.31830013 -1.1668583 -1.3440233 0.032297805 0.42643183 -1.2158047
-1.6823606 -0.96382797 -0.23945355 -1.0824865 -3.674038 0.29972604 1.0411165 -0.23957796
-0.22835064 1.0955443 0.519752 -0.9442025 -0.075108945 -1.1407545 -2.7535603 -0.50156796
0.4305827 -0.40389395 -0.7563378 0.16526593 -0.5169729 -0.92620194 0.2115963 0.78384644
-0.084388025 0.036013458 0.20937161 0.20189701 0.11759604 -0.79658717 -0.4889674 -0.2912469
00000000: f961 903d 295a c43d 1935 83be 8173 a1be
00000010: 5166 e1be fe6d 363c 6dc7 a5be fea0 ac3e
00000020: 245f 2b3f c41f d1be 00a3 59be 5f38 853e
00000030: d2e5 cd3e c0bd 25bf 9c8a 39bf f181 d2be
00000040: fa43 34bf 3ca2 3e3d 156e 0d3e dd68 9abe
00000050: 3316 8ebe 5e97 3f3e dabd fa3e 1c12 c2be
00000060: 554a 8c3e 8005 97bf 1341 61be a4fb 0d3d
00000070: 4e2a 6ebe 2f8b 3d3b 215f e53c ee47 50be
00000080: 6d06 8b3d 2987 9ebf 8ce8 58bc b60e 3b3e
00000090: 2133 0a3d 1a9b 35bf 26b6 573e f0b5 4f3f
000000a0: d9bd 8abf af18 913e 07b8 bb3d 906c 74bd
000000b0: 416c 05bf d27a e63e 4f0d d53e da6b 473f
000000c0: 71e9 a43d 7cbf cebf cd18 f6be bf15 673e
000000d0: 4416 533b 8f2e a5be 5132 39c0 bd08 10be
000000e0: bcdb 993e 1d6e 8fbb bf09 c23e d75a babe
000000f0: 1bf7 1cbd 1f4e 87bf a24f eabe b985 c33e
00000100: ff5f f9bd dbd7 01be def0 26be a44a cfbb
00000110: 289d 0dbe d31c a2bc 538f 113c 13b0 35be
00000120: 8aac d5bb 6fae b1bb ae57 edbd d929 c0bd
00000130: f10c d9bd e0ac 65bc 89c4 e4bd 0042 a0bd
00000140: 7760 0abe 928f cbbd 980e c6bd 17b8 1dbd
00000150: 93a4 38bd 8914 283d 04cd c3bd 9578 273d
00000160: 7e54 09be 708a 27be 640d f8bc 6424 adbd
00000170: 14c4 d5bd 79ee bb3d e948 b0bd 1416 68bd
00000180: 50ff 8abd f1a1 bfbd bf91 423d 6378 83bd
00000190: 7143 04be e3cc edbc 7a49 b6bd 9935 63bd
000001a0: e085 083d 4c1a 1a3d 4292 473d 1a0b 99bc
000001b0: 6792 d2bc 2f7b e0bd 1c82 5dbd 8e22 903d
000001c0: 1bf3 bcbd 22f3 9ebd c181 ebbc 5e8e 87bc
000001d0: bab6 05bd c4ec 1abc 194c da3b 8463 223d
000001e0: 3d1c 75bd 51db 28be e957 adbd 2b71 0e3d
000001f0: e413 aabd 1d6a 90bd 4dc4 c93c fafd 2dbe
00000200: 321b 19be f47f 9d3e 7cbf 943d c947 263e
00000210: fe9f 81be bbc3 483e 29b0 bbbe 771c e23e
00000220: 93be a63e 6eb0 ff3e 847f 4d3f d3b4 eb3e
00000230: 2416 073f c34e e7be ce45 0b3e b309 36bf
00000240: bb02 29bf 0477 ae3e 7012 673d de6d 13bf
00000250: da99 843d f13c 453f 841a ec3e ac3f d93d
00000260: 3b3b ff3d 9c0d 193d 42fb 153f d5a3 5fbe
00000270: 5898 513e 66e4 6dbd a8cd 9a3e 6218 dabe
00000280: fa2d 98be 4f50 553e 793a d53e 64e6 45be
00000290: d17a 3c3e dd95 4bbe 6c35 2a3e c4ea 6a3e
000002a0: dd8b 36bf d95d 42bf c4cb cc3e 5c05 bf3f
000002b0: c615 2ebe 3ec6 23bf 6749 813e fab4 f73c
000002c0: 9f5b 073e 2e12 1bbf 12bc 423e a751 00bf
000002d0: 3088 68be 7b38 633e 3ece b9be 4210 9ebf
000002e0: cf16 c2bd 40fb 10be 9df5 a73e 1c0b 983e
000002f0: 91cf 943e a822 9fbd 8ec0 2cbe 2c44 b63c
00000300: 99ce 22bf fe88 3c3c b93a bebf 29ba 53bf
00000310: d8c2 ccbe aae0 c7be d356 013c 44b9 643e
00000320: 8643 3d3f 0ca2 013e 211f 8ec0 2a1a 6bbf
00000330: c62d c53e 1288 8b3e f1c7 c7bf a635 0ebe
00000340: 7f32 6c3e a530 3bbe 311f 01bf 9e0f a7bf
00000350: 80f1 d4be 769b f8bf d98d df3e 310c 36be
00000360: 5282 f0bf 6084 0d3f 3cf8 a23e 9d5b 95bf
00000370: f508 acbf b44a 043d 4655 da3e 7d9f 9bbf
00000380: 9857 d7bf 6ebd 76bf 5033 75be eb8e 8abf
00000390: 7023 6bc0 b175 993e 4e43 853f ed53 75be
000003a0: c0d4 69be cc3a 8c3f 780e 053f 41b7 71bf
000003b0: b8d2 99bd 3e04 92bf 553a 30c0 c266 00bf
000003c0: 5675 dc3e 30cb cebe 5b9f 41bf 793b 293e
000003d0: 5658 04bf 921b 6dbf b3ac 583e 29aa 483f
000003e0: a1d3 acbd d982 133d 8365 563e 17be 4e3e
000003f0: 31d6 f03d 23ed 4bbf ef59 fabe 501e 95be

module.fc2.bias f4 [64]
1.2842755 -0.12812501 -0.0004800448 0.39548054 -1.0875733 -0.40181628 -0.23488545 0.038308788
-0.09858086 -0.8999922 -0.4390077 -0.10853961 -0.20133935 -0.11202941 -0.13095541 -0.31792226
-0.2616725 -0.86686033 -0.20625034 0.5783626 -0.12139032 0.75862443 0.6382723 -0.10702894
0.1691525 -1.1991079 0.3038995 0.17666174 -0.49811062 -0.52902704 -0.45688486 0.33290464
0.18301073 -0.9484525 -0.4035006 0.0090659065 0.33044153 0.29388422 -0.9812855 0.031100243
-0.5155335 0.44276682 -0.49161798 -0.7360365 0.47069728 0.28666717 -0.89419645 0.40065634
-0.01739509 -0.4455748 -0.2635062 -0.40403444 0.33065933 0.75062066 -0.22310817 0.7248445
-0.2825541 -0.19421513 -0.085062 0.16654229 0.013271457 0.15787904 -0.12736954 -0.8932656
00000000: 2463 a43f 3433 03be 86ae fbb9 6d7c ca3e
00000010: 9a35 8bbf ddba cdbe d085 70be ade9 1c3d
00000020: c3e4 c9bd e465 66bf 9ec5 e0be 044a debd
00000030: e72b 4ebe ad6f e5bd 2d19 06be b5c6 a2be
00000040: f0f9 85be 8fea 5dbf 4a33 53be 920f 143f
00000050: 7d9b f8bd 3635 423f d065 233f fd31 dbbd
00000060: 5036 2d3e 5e7c 99bf b798 9b3e d1e6 343e
00000070: 5b08 ffbe 516e 07bf d0ec e9be 7a72 aa3e
00000080: 2a67 3b3e c8cd 72bf a197 cebe 2b89 143c
00000090: a22f a93e fe77 963e 8735 7bbf f0c5 fe3c
000000a0: 01fa 03bf 55b2 e23e 5ab5 fbbe e36c 3cbf
000000b0: 3cff f03e 0ac6 923e 0fea 64bf d422 cd3e
000000c0: 2680 8ebc 6122 e4be 49ea 86be 9add cebe
000000d0: 2e4c a93e ad28 403f 7876 64be 698f 393f
000000e0: eeaa 90be 55e0 46be fc34 aebd 108a 2a3e
000000f0: 8670 593c 0bab 213e 296d 02be 0ead 64bf

module.fc3.weight f4 [1, 64]
-0.42435974 -0.0032755027 0.13021465 0.8853955 -1.8735628 -1.3984535 -0.58987474 0.26196474
-0.4052859 -0.9621768 -0.35376164 -0.026864734 -0.029702066 0.019477569 0.62724304 0.6082272
0.4706418 0.2157169 -0.24270324 0.3155184 -0.009275387 -0.18823263 -0.25695506 0.20173518
1.1440729 -2.447823 0.42311737 -0.2221121 -0.41176042 -1.1922235 -0.820738 -0.16270505
1.3008665 -1.0051718 -1.1199701 0.22047786 -0.61633193 1.3604314 -1.7328562 1.104351
0.1775708 -0.35158947 -0.8662294 -1.0743531 0.077452585 0.5476321 -0.6498983 -1.0691178
0.60025215 -0.28559923 -0.2721778 -0.8834039 -0.23724009 -0.17667435 -0.21501134 -0.28965488
-0.019975564 -0.027139856 0.3383765 -0.21077304 -0.28838664 0.22361378 0.019007046 0.36393628
00000000: ae45 d9be d1a9 56bb fd56 053e 48a9 623f
00000010: e8d0 efbf 8600 b3bf 0802 17bf 3e20 863e
00000020: a281 cfbe 3851 76bf 3f20 b5be 6e13 dcbc
00000030: bf51 f3bc 6c8f 9f3c 0093 203f c7b4 1b3f
00000040: f6f7 f03e e4e4 5c3e 3387 78be a18b a13e
00000050: cbf7 17bc 0ec0 40be 9d8f 83be ab93 4e3e
00000060: fb70 923f 22a9 1cc0 d7a2 d83e 5b71 63be
00000070: 43d2 d2be c89a 98bf e31b 52bf 279c 26be
00000080: cb82 a63f 78a9 80bf 2e5b 8fbf f3c4 613e
00000090: eec7 1dbf 9e22 ae3f 3bce ddbf 605b 8d3f
000000a0: 1fd5 353e 8903 b4be 36c1 5dbf 6784 89bf
000000b0: 769f 9e3d 9e31 0c3f bc5f 26bf dad8 88bf
000000c0: 20aa 193f 103a 92be e35a 8bbe c226 62bf
000000d0: 11ef 72be 1fea 34be ef2b 5cbe a54d 94be
000000e0: cba3 a3bc 6754 debc af3f ad3e e3d4 57be
000000f0: 6aa7 93be 03fb 643e aab4 9b3c db55 ba3e
