trained_models/vandalism_model.pth (torch, 24407 bytes, 5 tensors)

module.fc1.weight f4 [64, 19]
000000 b4 6d a3 bd 80 7b 2c 3f 39 70 fd 3e 82 93 0c be
       -0.079799086 0.67375946 0.49499682 -0.13728145
000010 d7 f5 a8 be 31 b1 93 be b2 12 7c 3e 48 b8 dc be
       -0.3300006 -0.28846124 0.24616507 -0.43109345
000020 38 91 55 bf 41 25 51 3e b5 7e d6 3c 2a c4 0f 3f
       -0.8342471 0.20424367 0.026183465 0.561587
000030 e8 cf 7a be ef 36 db be 55 00 1d be 07 74 1f be
       -0.24493372 -0.42815349 -0.15332158 -0.15571605
000040 d2 3a 16 3f 2c a6 5f 3f 6f 77 88 be 04 d9 10 3e
       0.586835 0.87362933 -0.2665362 0.14145285
000050 30 92 d6 3e 06 90 0e be 7a 1c 03 3f eb 0f 8d bf
       0.41908407 -0.13922128 0.51215327 -1.1020483
000060 cf 29 cb be c8 f6 ae bf 7b b7 c7 3d e9 86 9e 3b
       -0.39680335 -1.3669062 0.09751793 0.00483786
000070 0b e4 00 bf 60 63 d4 be be ec 00 3e 7a 94 be be
       -0.50347966 -0.41482067 0.1259031 -0.37222654
000080 46 b4 a0 3d 8b d7 e6 be a0 e3 07 3f b1 26 ca 3e
       0.078468844 -0.4508632 0.53081703 0.39482644
000090 8b d0 42 3f 62 d3 48 bd 79 02 11 3d e3 1c 03 3e
       0.7609946 -0.049029715 0.03540275 0.12803988
0000a0 06 7b 30 3f 94 83 32 bd dc 73 4b be 32 49 47 3f
       0.6893772 -0.043582514 -0.19868416 0.7784606
0000b0 7d 33 8d 3e c3 d8 aa be bd b0 2a be f2 79 50 bf
       0.27578345 -0.333685 -0.16668983 -0.81436074
0000c0 4f ca 77 3d 9e 3a 68 3e 87 1d a6 3c 3c b3 e0 3b
       0.06049567 0.2267861 0.020277752 0.006857304
0000d0 b2 12 4e bd 7b 18 86 bf 92 5e 0a 3f 22 72 e5 3e
       -0.050310798 -1.0476221 0.5405055 0.4481364
0000e0 7a a7 50 3f 38 5e 64 3f 96 9d 16 3f 20 28 fb be
       0.8150555 0.89206266 0.5883421 -0.4905405
0000f0 aa 8b 87 bf d4 6f 3c be 5e 8a 93 3e 9d c0 82 3c
       -1.0589497 -0.18402034 0.28816503 0.015960986
000100 19 33 1f 3f ef 86 95 3e 3a de 21 be 6a 8e 04 3f
       0.62187344 0.2920451 -0.15807429 0.51779807
000110 d5 2c 11 3d 87 7d e3 3e 83 6d e8 be 6d 4a a8 3d
       0.035443146 0.44431707 -0.4539605 0.082173206
000120 25 44 2b be 82 b9 53 3e 00 3c c8 3e 11 7a 44 3e
       -0.16725214 0.20676234 0.39108276 0.1918719
000130 f8 d0 b4 bd 83 a5 2a be 00 66 eb be 5c 3d 64 3f
       -0.0882892 -0.166647 -0.45976257 0.89156127
000140 41 5d 2d 3f f7 62 44 3f 4a 25 42 3f 0a 91 1e 3e
       0.6772042 0.7671351 0.7583815 0.15485016
000150 96 52 b6 3e be b9 91 3d bf a7 2a 3f f1 a0 95 bd
       0.35609883 0.07115506 0.6666221 -0.07306088
000160 dc 1d 05 3f 9e a0 1e bf 8d 29 02 3f 49 be 31 3e
       0.51998687 -0.6196383 0.5084465 0.17357744
000170 eb e5 20 bf e2 0c 0d 3d ad bf ec 3d b5 8a 4e 3f
       -0.62850827 0.034436114 0.11559997 0.806804
000180 94 94 2f bf 59 88 2c 3f 4a 70 6c 3e a1 a3 4c bf
       -0.6858609 0.6739555 0.2308971 -0.7993718
000190 2e 23 ee 3e 87 25 fd bd 9d f3 c9 be 3d a2 7d 3e
       0.46511215 -0.123606734 -0.39443675 0.2476892
0001a0 76 05 41 3e 98 22 95 3e 80 5f 3d 3f fe c8 01 bf
       0.1884974 0.29127955 0.73973846 -0.50697315
0001b0 ec b2 ae be f2 37 11 bf d8 61 38 3f 7a a1 b3 3d
       -0.34120882 -0.5672599 0.720243 0.087710336
0001c0 f3 7b 10 bf 27 5f 55 bf 7a a8 01 bf 13 2e fe bd
       -0.5643913 -0.83348316 -0.506477 -0.12411132
0001d0 0f b3 01 3c f4 c3 d8 be 85 3c 40 bf ce a1 b4 be
       0.007916226 -0.42337 -0.75092345 -0.35279697
0001e0 80 d3 2a 3f 26 15 06 3f 62 4b 86 bf 8c f0 2d be
       0.66728973 0.5237602 -1.0491755 -0.16986293
0001f0 f9 3f 0d 3d 53 fc 03 bf e0 87 a9 3d d2 6b 85 3f
       0.034484837 -0.5155689 0.08277869 1.0423529
000200 35 4f 3a bf 5d 74 6b 3e 64 2f 57 be f0 19 a8 be
       -0.7277711 0.22993608 -0.21014172 -0.3283229
000210 30 c3 88 3e 31 de e0 3e 0c 12 04 bf ce bd 47 3f
       0.26711416 0.4391952 -0.5159004 0.78023994
000220 e9 ea 8a be 3f b2 04 bf 99 4c 2c 3c 3a ef 6d bf
       -0.27132347 -0.5183448 0.010516309 -0.92943156
000230 cf f9 f0 3e 04 f9 72 bd 15 ef 1f 3e 03 e8 83 be
       0.4706559 -0.05931951 0.15618546 -0.25762948
000240 f3 d5 1f bf cd ba 93 be 0d e4 a4 3e 7b b5 6b bd
       -0.62435836 -0.28853455 0.3220524 -0.05754612
000250 cd 7e fe be e7 db 99 3b 53 40 26 bf 43 0e a7 bd
       -0.49706116 0.004695404 -0.649419 -0.08157017
000260 f0 89 89 be 06 68 03 3f 84 70 e4 3e f1 3e b5 be
       -0.2686305 0.513306 0.44617093 -0.35399583
000270 57 35 0c bf b3 91 22 be f1 83 0c bf 3a ae 16 bf
       -0.5476889 -0.15875892 -0.54888827 -0.588596
000280 bf ae 37 bf bc 31 9c 3f f4 a8 87 3e 42 8f 35 bf
       -0.71751016 1.2202678 0.26496089 -0.7092172
000290 2a f0 c0 be 8f 33 15 3f c3 5e a1 bd 63 af 5c be
       -0.3768323 0.582818 -0.078794025 -0.2155128
0002a0 b7 83 8b be 0b 6f 27 bf 82 49 10 bf 9c 39 af 3e
       -0.27248928 -0.65403813 -0.56362164 0.3422364
0002b0 ec 61 3a 3f 36 88 cb 3b 0e 42 34 3d b1 69 14 bf
       0.72805667 0.006211306 0.044008307 -0.5797377
0002c0 be 38 05 3f 49 d1 b0 bd ac 12 33 be 9e 67 78 bf
       0.52039707 -0.08633668 -0.17487592 -0.9703311
0002d0 1e 41 4f 3f ba ba d9 3e ca 5b 29 bf 2b 32 b4 bd
       0.80958736 0.42525274 -0.66155684 -0.08798631
0002e0 b8 8f 92 3d 64 e5 1f bf 62 aa fd 3e a8 b8 9a 3e
       0.071563184 -0.624594 0.49544054 0.30219007
0002f0 ff f0 45 bf 74 01 4b 3e 06 0a 2b bf 7b 73 00 3f
       -0.77320856 0.19824773 -0.6681217 0.5017621
000300 ea d3 a5 bf 27 ab 26 3e 2a 7b da 3e 7b 6d 35 3e
       -1.2955296 0.16276227 0.42672092 0.17717545
000310 09 21 cb 3e b8 2f e5 bd bb c7 3c be fe bc 21 3f
       0.3967364 -0.11190742 -0.18435566 0.63179004
000320 68 21 c6 3e 09 7d 6d bf 2f dc 07 bd a3 ca 74 3e
       0.38697362 -0.92768914 -0.033168968 0.23905425
000330 c2 b7 92 3e 03 66 2e 3e bc fd d7 3d 96 53 d8 3e
       0.2865582 0.17031102 0.10546443 0.4225127
000340 c0 55 ec be 3d 3e e9 be c5 12 3a 3e 04 0d 86 3e
       -0.46159172 -0.45555297 0.18171223 0.26181805
000350 46 47 e7 be 87 d6 48 3f 22 9b 1f be 18 22 29 bf
       -0.45171565 0.7845234 -0.15586522 -0.6606765
000360 23 28 3a be 7f 04 98 3e 23 f8 fb 3e 0f 90 db 3e
       -0.18179373 0.2969093 0.4921275 0.42883345
000370 da 47 c5 be aa 95 1f bf 6c 2c 22 3e 3a af 93 3e
       -0.3853138 -0.62337744 0.15837258 0.28844625
000380 96 13 33 bf 04 b6 32 be 20 b0 fb bc 40 e9 5f 3e
       -0.6995176 -0.17452246 -0.030723631 0.21866322
000390 cb 39 f7 be fd 60 9a 3f 49 47 0a 3f f6 da c4 3d
       -0.4828628 1.2060848 0.5401502 0.09612076
0003a0 b8 68 b2 be 93 87 3c bd 18 bb e2 3e e6 9e 8d be
       -0.3484552 -0.04602773 0.44283366 -0.27660292
0003b0 8a 03 cf 3e dc 99 59 3e 6b 66 84 3e 64 e3 2f 3e
       0.40432388 0.21250099 0.2585939 0.17176586
0003c0 2b e1 5c bf b7 79 c5 be 9a 28 00 3e 06 79 74 bc
       -0.8628108 -0.38569424 0.12515488 -0.014921432
0003d0 9f 77 55 bf be ba e7 be 30 11 6f be e3 9c 29 be
       -0.8338565 -0.4525966 -0.233464 -0.16563754
0003e0 70 36 25 3f 29 5f 49 bf c4 73 56 3e 9c ad 1e be
       0.6453619 -0.7866083 0.20942599 -0.15495914
0003f0 99 9b 2c 3f 31 d6 64 bf 4f 06 4f 3a a7 b8 b6 3d
       0.67424923 -0.8938933 0.00078973634 0.089219384

module.fc1.bias f4 [64]
000000 b4 cb ac bf 70 c7 61 bf 76 a6 94 bf d0 21 54 bf
       -1.3499665 -0.8819494 -1.16133 -0.82864094
000010 7b f0 33 bf 7f f0 17 bf fa a4 46 bf f5 e4 9a 3d
       -0.7028882 -0.5935134 -0.77595484 0.07563201
000020 cc b2 58 bf df d0 9e bf fd b2 c4 be b5 aa f5 be
       -0.8464782 -1.2407492 -0.38417807 -0.47981802
000030 57 56 49 be ee 21 64 bf f7 0f 86 bf 14 53 69 bf
       -0.19661842 -0.8911427 -1.0473622 -0.9114239
000040 40 33 0d bf 91 34 06 bf df 6d c9 be 02 8d 64 bf
       -0.55156326 -0.5242396 -0.39341637 -0.8927766
000050 d0 1d f5 bd 5d 91 c7 be d6 5a 76 bf ec 21 95 bf
       -0.11968577 -0.3897809 -0.96232355 -1.1650977
000060 62 fb 3b bf c2 0f 22 bf 89 f6 c2 bf 2d 52 2d bf
       -0.73430455 -0.63305295 -1.5231487 -0.67703515
000070 4b 3e 27 bf 10 b0 bc bf bf 12 c2 bd 3f b5 99 bf
       -0.65329427 -1.474123 -0.09476232 -1.2008437
000080 e2 b6 85 bf 17 47 1d bf c6 96 db be 18 fc 90 bf
       -1.0446436 -0.614366 -0.42888469 -1.1326933
000090 db 17 42 bf 8c eb 88 be dc 2c 63 bf d4 b3 1e bf
       -0.7581765 -0.26742208 -0.88740325 -0.61993146
0000a0 9d d6 9a bf 20 44 03 bf eb fd 9e bf c3 d8 d0 bd
       -1.2096745 -0.51275826 -1.242124 -0.10197594
0000b0 42 71 08 bf 6c 21 90 bf 70 cf bc be 98 d0 5a be
       -0.5329782 -1.12602 -0.36877012 -0.21368635
0000c0 05 25 35 be 32 3f 96 bf b5 76 96 bf a0 71 79 bf
       -0.17689903 -1.1738036 -1.1754977 -0.97439003
0000d0 41 57 99 bf cb ab 2b bf 1c 4e 40 bf ca 57 11 bf
       -1.1979753 -0.6705901 -0.75119185 -0.5677458
0000e0 fe ec 8b bf 60 7f 3a bf c5 a0 04 be 26 c9 5f bf
       -1.0931699 -0.7285061 -0.12951954 -0.87416303
0000f0 b4 a9 5e bf 39 53 86 bf de d6 af be 65 19 8c 3e
       -0.86977696 -1.0494148 -0.34343618 0.27363124

module.fc2.weight f4 [64, 64]
000000 e0 22 63 be b9 e0 07 be 9f 07 c2 be a4 78 01 3f
       -0.22181273 -0.13269319 -0.3789644 0.5057471
000010 91 53 e7 bb c9 fc 1f be 63 4d 02 c0 e4 56 8a bf
       -0.0070595224 -0.15623774 -2.0359733 -1.0807767
000020 10 7e 34 be a2 70 de bf ba 44 00 3f f6 84 be 3e
       -0.17626214 -1.7378123 0.5010487 0.37210816
000030 0f b8 28 bf ec e4 a1 3d b2 ce be be d8 d9 38 be
       -0.6590585 0.079049915 -0.3726707 -0.18051851
000040 b4 00 c3 be f5 e0 38 3e f5 e8 15 be d7 79 68 3e
       -0.38086474 0.18054564 -0.14639647 0.22702728
000050 28 51 66 3e 4a 8b 2a be f9 76 90 3e 59 61 cc bd
       0.22491896 -0.16654697 0.2821577 -0.09979505
000060 82 0c 80 be cd 97 d3 3d 40 60 6f be b7 f6 b8 3d
       -0.25009543 0.10331688 -0.2337656 0.09031432
000070 9b 59 a8 3e ee 4a ad bf d6 25 cd 3e f5 96 25 be
       0.32880864 -1.3538492 0.4006793 -0.16170867
000080 73 cf 36 3f 74 99 90 3e c3 e2 5d 3f 4f d9 85 be
       0.7141029 0.28242075 0.86674136 -0.26142356
000090 26 71 3d 3d 8c 68 6e bf 21 f8 2b 3f 6b b5 ed bd
       0.046250485 -0.93128276 0.6717549 -0.11606868
0000a0 79 a8 88 3e 77 27 ca be 82 6b 1c 3e 13 ab b3 be
       0.26691034 -0.39483234 0.15275386 -0.35091457
0000b0 4c 55 ba 3d 01 26 23 3f f2 28 d1 3d 0e 8f 82 bf
       0.090983 0.63729864 0.10212888 -1.0199907
0000c0 1c e0 1d bd a0 3e 1e 3f 61 e1 f0 3e 8c 2e 85 be
       -0.038543805 0.6181431 0.4704695 -0.26012075
0000d0 0d 86 4d 3e 09 cc 09 be 59 b9 7b bf 03 f6 86 bd
       0.20070668 -0.1345674 -0.98329693 -0.06589892
0000e0 d1 39 b7 3c 58 ab 71 bf 08 6f 15 3e cd 55 40 3f
       0.022366436 -0.94402075 0.14593136 0.7513092
0000f0 11 a3 66 be a4 4b 11 bf 79 bb 0f be c6 44 10 3f
       -0.22523142 -0.56756043 -0.14036359 0.5635494
000100 17 66 94 be 72 9d 70 be ae 48 67 bf f3 a8 2c bf
       -0.28984138 -0.2349756 -0.90345275 -0.67445296
000110 46 99 89 be 48 6a 1e bf 93 87 49 3e f2 bc a0 bc
       -0.2687475 -0.6188092 0.19680624 -0.019621346
000120 d1 24 0c 3f 11 70 28 bf ac e4 ec 3e 19 27 1f be
       0.5474368 -0.65796 0.46268213 -0.15542258
000130 f0 65 66 be 12 2f 89 be 10 a1 c7 be 9e b4 c1 3c
       -0.22499824 -0.26793724 -0.38990068 0.023645695
000140 6e bf af be 30 0d b6 3e 02 b6 0c 3e 62 be 87 3d
       -0.34325737 0.35556936 0.13741305 0.066281095
000150 3f 47 85 be 34 f7 70 3f d0 c0 9f 3e 19 68 11 3f
       -0.2603092 0.941272 0.31201792 0.56799465
000160 ce 08 a9 be c6 ec f4 be 45 d2 81 bf 91 87 cd 3d
       -0.3301453 -0.47836894 -1.0142294 0.10035623
000170 eb 37 f9 be 56 3a 83 3e 80 8a 87 be 25 22 2f bf
       -0.48675475 0.25630444 -0.26472855 -0.68411475
000180 1b de 90 be 29 97 75 bf e3 37 c2 be c6 cc 5f bf
       -0.28294453 -0.9593378 -0.37933263 -0.87421834
000190 2a e0 3e bf 40 51 0f bf c0 cb a9 3e 9a 1d c4 3e
       -0.745608 -0.5598335 0.3316326 0.38303834
0001a0 bd 6b 9e 3e 76 ad c8 bd 21 73 20 3e 05 e3 7d bf
       0.30941573 -0.0979871 0.15668918 -0.9917453
0001b0 15 98 95 bf 4d 06 d8 3e 2c 31 51 3f e7 ff 87 bf
       -1.1687037 0.42192307 0.81715655 -1.062497
0001c0 1c b7 0d be 52 ae 90 bf db 89 98 3e d4 f2 87 3d
       -0.13839382 -1.1303198 0.29792675 0.06638113
0001d0 12 ec e5 3e 4a 56 d3 be a9 e7 6a 3f 62 cf d6 3e
       0.4490667 -0.4127677 0.91759735 0.41955096
0001e0 bf ee da be 70 9f 81 be 68 b9 9a be d5 c4 79 bf
       -0.42760274 -0.25316954 -0.3021958 -0.97565967
0001f0 8d 08 e9 3e cf 2f f8 bd 97 ec e1 3d 6e 4a e4 bd
       0.45514336 -0.12118494 0.11031454 -0.11147009
000200 ff 8d 8a 3e cc 32 96 be f3 f5 d1 bf 6c 97 bb be
       0.2706146 -0.2933563 -1.6403183 -0.36638963
000210 4a e0 51 3e f2 83 e1 3e 09 d9 02 3f 32 89 89 bf
       0.20495716 0.4404598 0.5111242 -1.0744994
000220 c3 c4 07 3e 80 f3 3b 3e d2 e3 15 bd fc 22 c9 bf
       0.13258652 0.18354607 -0.03659422 -1.5713801
000230 e6 ad 8b bf 4e a6 29 3f 34 ae 05 be 45 c3 ae 3d
       -1.0912445 0.66269386 -0.13054734 0.085333385
000240 1b df 7c bf d6 52 00 c0 cb 12 58 be c2 91 8e bd
       -0.9877793 -2.005056 -0.21100919 -0.06961395
000250 ef 45 5d 3c 31 fd 8c 3e 0b d7 b9 be 00 72 86 3e
       0.013505443 0.2753692 -0.36296877 0.2625885
000260 72 34 8f 3c ca d9 df bf af 21 80 be f8 69 fa be
       0.017481063 -1.7488339 -0.250257 -0.48908973
000270 d7 13 81 3e 2a 82 7c 3e a8 fc 01 3e ef 92 cb 3e
       0.2521045 0.24659029 0.12694037 0.3976054
000280 99 b8 8a 3e 15 76 00 3f 80 65 50 3f b1 c7 2d bf
       0.27093962 0.5018018 0.81404877 -0.6788283
000290 a3 99 60 be ec bf 08 be 39 e8 c2 bc e0 4f c4 3d
       -0.21933608 -0.13354462 -0.023792373 0.095855474
0002a0 4f 41 70 3f 34 fd 96 bc 34 05 dc be 5e 0f d2 be
       0.93849653 -0.018431284 -0.4297272 -0.4102735
0002b0 ba 97 76 be 9c 9e a7 3d 2b 21 0b be 64 21 cb 3d
       -0.24081317 0.08184549 -0.13586871 0.09918478
0002c0 b0 29 67 be 5f 6e 96 bf 71 10 31 3f 0d 05 d8 3e
       -0.22574496 -1.1752433 0.6916571 0.42191353
0002d0 e2 cb 1c bf d1 93 e0 bd 27 5b 54 bf 0c 68 8d 3e
       -0.612486 -0.10965694 -0.8295159 0.27618444
0002e0 4c d9 82 3e dc ab 4c bf 62 00 3f bf 08 78 02 be
       0.2555641 -0.79949737 -0.7460996 -0.12741101
0002f0 dd e4 6c 3e e5 be 0e bf 99 62 b4 be 50 32 e7 3e
       0.2313418 -0.5576003 -0.35231474 0.45155573
000300 ad ec 3a be 15 72 d3 3e 4c ef 12 3f c9 5c 94 be
       -0.18254347 0.41297975 0.5739639 -0.2897704
000310 d1 10 52 bf 6c eb 12 bf 98 6c c5 be 83 68 db 3c
       -0.8205691 -0.57390475 -0.38559413 0.026783234
000320 69 5c 97 bf 3c 0a 0d bf 89 64 8e be 83 9f 2c bf
       -1.1825076 -0.5509374 -0.27811077 -0.67430896
000330 43 48 ca bf 48 84 80 3e bb 59 7c bd 40 49 19 3f
       -1.5803303 0.25100923 -0.06160901 0.59877396
000340 ec e0 c0 3e 2a 54 08 be 71 86 04 3f fa ec 92 3e
       0.37671602 -0.13313356 0.5176764 0.28696424
000350 0e 73 be be 2d 97 bc 3d 63 46 a9 3e 80 96 c3 3e
       -0.37197155 0.09208522 0.33061513 0.3820076
000360 a8 57 12 3f e9 e0 41 bf 9a 86 92 3f 69 10 af bd
       0.57165 -0.7573381 1.1447327 -0.08548052
000370 fc e8 90 be e0 e4 86 3e 19 a1 3f 3d de 14 aa 3e
       -0.28302753 0.26346493 0.046784494 0.33219045
000380 9d c6 d0 3d 23 66 9c be 46 9f e8 be 28 c0 cf bf
       0.101941325 -0.30546674 -0.45434016 -1.6230516
000390 ad 7a 3c be 55 09 8d 3d 8e c5 b5 3d 31 22 af 3e
       -0.18406172 0.068865456 0.08875571 0.34205773
0003a0 71 1a ec 3e 19 a5 23 be d7 74 ca 3e e4 92 e9 bd
       0.46113923 -0.15980949 0.39542267 -0.1140497
0003b0 9f df 58 be 56 24 74 bf be f6 0e 3f b7 2f ca 3d
       -0.21179055 -0.95367944 0.5584525 0.09872382
0003c0 e4 3e b9 3d bf 4c 1f bf c5 dd 9c be 18 f3 4e 3f
       0.090451986 -0.6222648 -0.30637947 0.8083968
0003d0 b1 ab 22 3f 4a 8a 37 3e 4b d6 50 bd c1 9f ec be
       0.6354323 0.17923847 -0.050985616 -0.46215633
0003e0 94 01 06 bf fe 21 1f bd ff 00 4c bf dc 47 35 3f
       -0.5234616 -0.038850777 -0.7968902 0.70812774
0003f0 33 fe 5c bf 0a eb df be bb d1 14 be 30 e6 00 bf
       -0.8632538 -0.43734008 -0.14533131 -0.5035124

module.fc2.bias f4 [64]
000000 ef 87 9b 39 ec 28 a9 3d e7 13 86 bf 37 8a fe 3e
       0.00029665182 0.08259758 -1.0474824 0.49714825
000010 16 8a c5 be 82 e8 2f 3f 6e 83 94 3c 6c 71 60 3e
       -0.38581914 0.68714154 0.018129077 0.21918267
000020 83 f5 3b 3e 21 7a 2c bf c3 5a 46 bd d7 37 64 be
       0.18355374 -0.67373854 -0.0484264 -0.22286926
000030 e3 73 9e be 74 22 74 bd 96 ae ff be af 40 b9 be
       -0.3094779 -0.05960317 -0.49937886 -0.36182162
000040 91 61 3e 3f df b0 f7 bd e2 5b 1e be a9 66 53 3e
       0.74367625 -0.12094282 -0.15464738 0.2064463
000050 9d 95 15 3e c4 8c eb 3e 92 75 a9 bd f9 9e 80 bf
       0.14607854 0.46005833 -0.08274378 -1.0048515
000060 47 7d 4b 3b 31 5b 26 3f 9f 54 ab be ae da 03 bf
       0.0031050013 0.649829 -0.33462998 -0.51505554
000070 71 90 4d 3e 87 55 8c 3d 62 4f 9f be 9e a9 be be
       0.20074631 0.068522505 -0.31115252 -0.37238783
000080 3b 6c 74 3d 6d cf 56 be e1 8b 0b 3e b6 66 93 3e
       0.05967353 -0.20977564 0.13627578 0.287893
000090 9a aa 8f 3b 51 c4 df be f0 1e f4 3d 06 b2 7d bf
       0.004384351 -0.43704465 0.11919963 -0.9909977
0000a0 c8 70 0d be d3 64 87 3e 5d 6e 99 be 2c 5d d5 be
       -0.13812554 0.2644411 -0.29967013 -0.41672647
0000b0 05 0b 5b be 76 f6 16 3e 40 f7 d8 3d 2d a9 b7 be
       -0.21390922 0.14742455 0.10594034 -0.35871258
0000c0 60 5a 13 bf 80 84 1a bf b2 76 f0 be 42 6d 5c bf
       -0.57559776 -0.6035843 -0.46965557 -0.86104214
0000d0 6f 47 2b be a3 ec 58 bf 48 19 0b be 0a b7 9a bf
       -0.16726469 -0.8473608 -0.13583863 -1.2087109
0000e0 e1 ee 4e bd ee 07 c3 3e 47 b1 23 3d 63 19 a4 be
       -0.05052078 0.38091987 0.039963987 -0.3205062
0000f0 14 52 43 bf 31 9b 8c 3e c5 de 04 bf 63 ac 59 bf
       -0.76297116 0.27462152 -0.5190242 -0.85028666

module.fc3.weight f4 [1, 64]
000000 12 dd dc 3d d7 9b 1d bf a0 71 c7 3e c4 d5 62 3e
       0.10784353 -0.6156592 0.38953876 0.22151858
000010 59 d3 8d be ae 72 57 be e1 78 23 bf 9c 61 a1 3e
       -0.27700308 -0.2103984 -0.6385632 0.31519783
000020 b2 77 c2 be a3 6c c4 be 9f 99 57 be 57 54 9b bd
       -0.37981945 -0.38364133 -0.21054696 -0.07584446
000030 2c 85 4d bf d7 4b 01 bd 1f 7a 41 bf 65 64 c4 3e
       -0.8028133 -0.031566467 -0.75576967 0.38357845
000040 ad 49 e6 be 14 9c 9e bb 84 b8 c0 3e 26 96 86 be
       -0.44978085 -0.0048403833 0.37640774 -0.2628643
000050 64 2f 63 be 70 26 9a be af e5 dc 3c 27 58 94 3f
       -0.22186047 -0.3010745 0.02696499 1.1589402
000060 41 f1 75 be 37 15 8a 3e 84 43 ba 3e d0 25 03 bf
       -0.24017812 0.2696931 0.36379635 -0.5122957
000070 49 a3 56 3f 8b b5 c5 be 75 04 be bc cf d2 0f bf
       0.83842903 -0.3861507 -0.023195485 -0.56181043
000080 5f 5f ae 3e 07 de d1 3c f6 77 ed bd 54 52 d6 3e
       0.34057137 0.025618566 -0.11595146 0.41859686
000090 fc c7 16 3f ef e4 84 3e 5e c6 47 3e 47 47 83 bf
       0.588989 0.25955912 0.19509265 -1.0256127
0000a0 3d 2e 0f 3e df 0c 4c 3e 74 63 5a bf e1 c2 bb 3e
       0.13982482 0.19926785 -0.85308003 0.36672118
0000b0 87 70 da bc 36 72 09 40 7b 7c cc 3e ea 1c 06 bf
       -0.026664985 2.147596 0.3993872 -0.5238787
0000c0 81 4d bf 3e 18 58 01 3f 1f f2 b8 be 6b 52 c7 3f
       0.37363818 0.50525045 -0.36122224 1.5572027
0000d0 8f c3 c6 be bb 62 d2 3e b6 6c c5 3e b7 97 ac 3f
       -0.38821074 0.4109095 0.38559502 1.34838
0000e0 ca ac 33 3f d0 77 f0 be 42 c5 49 3e a4 52 96 3e
       0.7018553 -0.4696641 0.19704154 0.29359925
0000f0 75 5e 20 bf 1d 75 3e 3f 98 af a4 3e 74 3c de be
       -0.6264413 0.7439745 0.32165217 -0.43405497
