trained_models_1L_6/connectivity_issue_model.pth (torch, 24479 bytes, 5 tensors)

fc1.weight f4 [64, 19]
-0.32929426 5.7924104 9.00254 -2.2435527 0.84380484 1.8673052 -3.6585016 -6.2609625
1.1169027 8.177688 0.2378005 -3.2046444 2.1243558 -2.547157 -2.1682403 -8.510867
-3.5459943 4.146361 -0.6486949 -7.169324 5.759042 2.486955 5.885065 4.929972
-0.52520657 -2.926006 -3.8846755 5.525941 -0.7587844 -0.58772343 -9.68483 2.8138242
2.2224066 -4.966056 2.275182 -2.8558161 0.0581975 -2.4673712 0.35557798 0.118526794
0.008652035 0.014544977 -0.24498892 0.49831593 0.17894234 -0.19520397 0.23430324 -0.4193219
0.0583659 -0.48777428 0.49128383 0.17537954 -0.3892868 0.3124266 -0.26549274 0.053633593
-0.18338282 -6.176627 2.003801 2.8862033 -2.259486 -5.1130524 -0.55493104 0.8093291
-0.3232924 4.2117934 2.8195114 -4.6941104 -4.62557 1.2780595 -1.6323192 -0.19134912
-2.1967797 -0.25932613 3.5595973 -1.5619661 -10.69753 -8.298939 1.6789818 5.5033827
3.3990724 -6.370717 3.1392837 -4.255496 -6.550122 2.3969245 1.6611105 1.9245194
2.999185 -1.3606157 1.7510505 -3.4044015 1.0931764 3.2698407 5.1330066 0.011496153
2.000142e-05 -0.059196454 -0.047365554 -0.2511918 -0.011067051 -0.031851683 -0.0008634538 -0.08788709
0.0010071383 -0.01772941 0.140827 0.0036688694 0.06228183 -0.041360755 -0.060775835 -0.07263872
0.002972361 0.08232291 -5.4280066 -1.8564054 -2.219573 -0.53577983 0.46088842 8.460229
2.3617132 -2.213214 -0.9690374 -4.7119827 -2.2323277 -6.409733 -3.514786 0.85099304
1.2200581 2.4475582 -3.9672682 -3.1462274 4.3055763 -6.0572515 2.072862 -5.1076145
-2.613267 6.0818906 -10.70042 4.6367893 -6.334697 6.767766 0.55849266 4.142035
-7.265164 -0.55208325 -4.355083 -4.380453 -9.012843 -1.0787532 0.75444365 -1.46246
-0.3590745 -0.13737842 0.08191297 -0.093688175 -0.39713618 0.33868912 -0.097564004 0.050689895
-0.23011178 -0.040663015 0.29280388 -0.33873466 -0.012540108 0.08141817 -0.21108276 -0.2325416
0.102653414 0.009619459 0.26479685 -3.2650778 3.7342532 2.3272614 0.9839759 3.7821147
-0.6848466 2.0117862 -0.023138283 2.206356 4.002315 5.6061125 -6.8057866 -2.4056323
1.7515398 -7.057852 0.7401336 -2.979198 3.5400765 -3.196572 -4.117265 6.6007824
-4.765475 5.695832 5.474416 3.203508 7.214563 -2.146312 5.279495 6.4180984
-1.8619617 -3.311868 -1.7140908 -2.6921015 -0.5549615 -2.308415 0.77094877 2.1626115
6.0564146 -0.3196725 0.17541516 -0.34601155 -0.23528886 -0.023105 -0.116036914 0.083957955
-0.3015905 -0.059176527 -0.2226821 0.36056167 -0.03763048 0.26239416 0.14903174 0.32565445
0.55265456 0.2010434 -0.25208697 -0.1435635 6.3993745 -6.0820804 -2.182251 0.93536204
0.24557404 6.1056786 3.0090637 6.021669 0.17636998 1.7989212 -4.935879 -5.695029
-2.1110709 -4.0456243 1.3790144 3.4885223 5.035064 2.3986487 4.7012033 0.2434318
-0.15611583 -0.035570778 -0.30217907 -0.01666121 -0.284469 0.32110685 -0.010650409 0.24791813
00000000: 4299 a8be 6d5b b940 670a 1041 5e96 0fc0
00000010: 9803 583f db03 ef3f e424 6ac0 ce59 c8c0
00000020: abf6 8e3f cfd7 0241 f981 733e e518 4dc0
00000030: 72f5 0740 9f04 23c0 73c4 0ac0 832c 08c1
00000040: 92f1 62c0 fdae 8440 de10 26bf 1a6b e5c0
00000050: 124a b840 452a 1f40 7452 bc40 55c2 9d40
00000060: f073 06bf af43 3bc0 869e 78c0 82d4 b040
00000070: b23f 42bf 0b75 16bf 10f5 1ac1 b215 3440
00000080: e93b 0e40 eee9 9ec0 959c 1140 b1c5 36c0
00000090: 8060 6e3d 69e9 1dc0 510e b63e 2dbe f23d
000000a0: 44c1 0d3c 0e4e 6e3c 60de 7abe 4423 ff3e
000000b0: a93c 373e 8de3 47be 30ed 6f3e 5cb1 d6be
000000c0: 1511 6f3d 8dbd f9be 8e89 fb3e b296 333e
000000d0: 9950 c7be 61f6 9f3e aaee 87be e6ae 5b3d
000000e0: b5c8 3bbe eea6 c5c0 473e 0040 8eb7 3840
000000f0: 6b9b 10c0 209e a3c0 f60f 0ebf 3130 4f3f
00000100: 9586 a5be 03c7 8640 e072 3440 2736 96c0
00000110: ab04 94c0 7497 a33f d6ef d0bf 06f1 43be
00000120: 0a98 0cc0 65c6 84be 71d0 6340 81ee c7bf
00000130: 1529 2bc1 74c8 04c1 e0e8 d63f b61b b040
00000140: 678a 5940 eadc cbc0 06ea 4840 062d 88c0
00000150: 999a d1c0 3667 1940 459f d43f a756 f63f
00000160: a6f2 3f40 a828 aebf 6c22 e03f b7e1 59c0
00000170: 34ed 8b3f 1245 5140 9741 a440 5c5a 3c3c
00000180: b9c8 a737 fb77 72bd 6202 42bd 369c 80be
00000190: 9452 35bc e976 02bd 6759 62ba 26fe b3bd
000001a0: f401 843a 453d 91bc f434 103e 6a71 703b
000001b0: 3b1b 7f3d e569 29bd 15f0 78bd 9cc3 94bd
000001c0: f1cb 423b ea98 a83d 3bb2 adc0 b19e edbf
000001d0: 7c0d 0ec0 de28 09bf 91f9 eb3e 195d 0741
000001e0: 4f26 1740 4ca5 0dc0 d612 78bf 90c8 96c0
000001f0: 75de 0ec0 881c cdc0 41f2 60c0 aeda 593f
00000200: dd2a 9c3f cba4 1c40 b9e7 7dc0 ca5b 49c0
00000210: 48c7 8940 01d5 c1c0 c5a9 0440 9471 a3c0
00000220: c43f 27c0 d99e c240 ec34 2bc1 9460 9440
00000230: d6b5 cac0 8a91 d840 60f9 0e3f 8d8b 8440
00000240: 397c e8c0 5455 0dbf d75c 8bc0 ac2c 8cc0
00000250: 9b34 10c1 9614 8abf 3823 413f e431 bbbf
00000260: 9dd8 b7be eeac 0cbe fdc1 a73d 96df bfbd
00000270: 6f55 cbbe a968 ad3e a3cf c7bd 35a0 4f3d
00000280: 6ca2 6bbe 438e 26bd 64ea 953e a16e adbe
00000290: 0675 4dbc 92be a63d 1426 58be 631f 6ebe
000002a0: f43b d23d ef9a 1d3c 7493 873e 09f7 50c0
000002b0: 01fe 6e40 daf1 1440 d8e5 7b3f 2b0e 7240
000002c0: 1b52 2fbf 1bc1 0040 7f8c bdbc f034 0d40
000002d0: f712 8040 4665 b340 01c9 d9c0 e1f5 19c0
000002e0: 7532 e03f ecd9 e1c0 6579 3d3f 2eab 3ec0
000002f0: 9d90 6240 a394 4cc0 a3c0 83c0 9c39 d340
00000300: c57e 98c0 4144 b640 6a2e af40 4606 4d40
00000310: b3dd e640 2d5d 09c0 9ff1 a840 1061 cd40
00000320: c354 eebf a5f5 53c0 5467 dbbf 644b 2cc0
00000330: f511 0ebf 12bd 13c0 e65c 453f 3a68 0a40
00000340: 26ce c140 1dac a3be 08a0 333e 6d28 b1be
00000350: 90ef 70be b246 bdbc c3a4 edbd 26f2 ab3d
00000360: 126a 9abe 1663 72bd c706 64be 8a9b b83e
00000370: 6b22 1abd 8758 863e c79b 183e 2ebc a63e
00000380: c57a 0d3f 52de 4d3e 8b11 81be 4f02 13be
00000390: adc7 cc40 67a0 c2c0 00aa 0bc0 e373 6f3f
000003a0: c377 7b3e b861 c340 8094 4040 83b1 c040
000003b0: 559a 343e 0d43 e63f b9f2 9dc0 ad3d b6c0
000003c0: c91b 07c0 c175 81c0 8b83 b03f f343 5f40
000003d0: 3f1f a140 7683 1940 4270 9640 3046 793e
000003e0: d4dc 1fbe aab2 11bd 37b7 9abe 177d 88bc
000003f0: eca5 91be 1e68 a43e 0e7f 2ebc 40de 7d3e

fc1.bias f4 [64]
-32.31201 -34.5314 -5.196771 -22.035625 -42.264053 -1.1302687 -29.798412 -43.541462
-3.7967834 -31.385746 -44.307774 -5.328816 -35.04823 -3.9708962 -59.783134 -33.25212
-34.81609 -18.330896 -25.13654 -42.833385 -52.925804 -32.432667 59.418472 -4.063058
-11.7191515 -46.891468 -40.854378 -24.188517 -0.583382 -28.925842 -33.638813 -3.6939487
-23.899012 -33.603962 -53.729454 -37.77308 -29.27441 -33.28791 -10.518768 -31.424316
-0.5605886 -28.997427 -55.5894 -22.736963 -2.9112334 -25.054485 -4.707559 -44.438053
-38.072975 -4.160881 -53.804314 -46.3214 -2.9495919 -49.954967 -28.526197 -21.177183
-3.8916283 -38.30617 -28.401014 -25.909445 44.28553 -37.589222 -40.503536 -44.14421
00000000: 803f 01c2 2720 0ac2 f34b a6c0 f648 b0c1
00000010: 640e 29c2 a5ac 90bf 2663 eec1 752a 2ec2
00000020: 80fe 72c0 0216 fbc1 293b 31c2 a985 aac0
00000030: 6331 0cc2 2a23 7ec0 ee21 6fc2 2c02 05c2
00000040: ad43 0bc2 ada5 92c1 a217 c9c1 6355 2bc2
00000050: 06b4 53c2 0dbb 01c2 84ac 6d42 9204 82c0
00000060: a581 3bc1 dd90 3bc2 e26a 23c2 1582 c1c1
00000070: 8658 15bf 2068 e7c1 258e 06c2 a869 6cc0
00000080: 2d31 bfc1 756a 06c2 f6ea 56c2 a217 17c2
00000090: fe31 eac1 d226 05c2 e04c 28c1 0065 fbc1
000000a0: bc82 0fbf bbfa e7c1 8c5b 5ec2 4de5 b5c1
000000b0: a651 3ac0 966f c8c1 53a4 96c0 91c0 31c2
000000c0: ba4a 18c2 f025 85c0 9e37 57c2 1d49 39c2
000000d0: 1dc6 3cc0 e3d1 47c2 a735 e4c1 df6a a9c1
000000e0: 7010 79c0 8539 19c2 4735 e3c1 8b46 cfc1
000000f0: 6224 3142 5d5b 16c2 9f03 22c2 ac93 30c2

fc2.weight f4 [64, 64]
-1.8687452 2.9558144 -0.33515885 0.44119456 -0.17542298 0.30227786 -2.8228633 2.9618647
-0.51817167 -1.7405324 8.739674 -0.4481179 3.593369 0.1217166 5.088411 8.021886
-0.9495743 -5.397631 -4.105215 -1.3347383 6.282646 -4.4450045 -4.1145105 0.057640307
-0.39909434 -1.0539613 -1.2311772 6.3156114 -0.018845662 2.3863118 -1.3583164 0.6885612
2.6404614 1.0952029 0.4697965 -5.246419 -2.7798476 -5.54061 -0.72733295 -2.068686
0.009603962 -0.7879533 -6.648509 3.4025385 0.8814327 -3.8306088 -4.830619 2.9966729
-2.6182616 0.6840563 -3.0616298 -1.7927145 -0.5273392 0.2618657 2.3835483 -3.589634
-0.15375838 -3.8417323 2.5613947 -3.9454722 -3.6342225 1.2699194 2.2785375 1.2371597
-0.7907904 -0.8196486 -0.6772798 -0.2704039 -0.52830034 -0.39387465 -0.18545027 -0.035461776
-0.33683163 -0.35383463 -0.74997175 0.0035547747 -0.23001459 -0.70348567 -0.9029374 0.08842702
-0.75794905 -0.6709293 -0.2670392 -0.86442655 -0.81176823 -0.0044656773 -0.69251716 -0.5480536
-0.5404472 -1.0683397 -0.5998841 -0.4435889 -0.02203705 -0.2747382 -0.5428987 0.18852153
-0.7531878 -0.3937785 -0.3489925 -0.70113117 -0.12780732 -0.4554803 -0.7802767 -0.04182278
-0.046088483 -0.34401014 -0.44101292 -0.10483819 -0.09639495 -0.32280886 -0.32086927 -0.040975586
-0.41950333 -0.048340496 -0.05679895 0.104289144 -0.32031697 0.075174704 -0.017957022 -0.40597847
-0.4437787 0.035866905 -0.7518722 -0.21643578 -0.47277007 0.014700075 -0.42619312 -0.0937932
0.36268374 -0.92152524 -0.17372014 0.4851376 -0.92391723 -0.3370615 -0.5170447 -1.1397303
-0.07658845 -0.9261183 0.45987198 -0.10824581 0.19258867 0.09083888 -0.14845909 -0.46936786
0.42125586 -0.5775854 -0.6390327 -1.1866187 -0.041916948 -0.4002303 -1.8456702 -0.3117831
-0.730419 0.34155115 0.03623954 -1.2126788 -0.1285313 -1.285238 -0.9242229 0.010599782
-0.8330229 -0.33574393 0.35206422 0.38913354 -0.038406495 0.032653067 -2.3935912 -0.5277392
-0.07271455 -0.30065992 -0.10604645 0.18664677 -0.035367746 -1.3120252 -1.6220984 0.32901004
-0.50995564 -0.3188379 -0.92137504 -0.52534306 0.05757221 -0.27992412 -0.40912023 0.3925485
-0.13659047 -0.7402966 0.09739581 -0.30460683 -1.2839833 0.69608635 -0.85121447 0.48302794
11.697407 16.582085 -0.022005254 11.089147 4.8792095 -0.26304963 18.7854 11.240973
-0.18528837 1.5946672 2.2423766 -1.1301389 3.8629029 -0.39588064 1.9307967 7.8874965
11.674612 13.584903 10.939829 8.049632 11.457735 3.5566182 -15.224909 0.41025168
3.2303133 16.134684 16.474543 12.384488 0.18655814 12.877638 18.151428 -0.29692674
3.6974573 8.629065 13.683607 15.642195 11.951488 8.170126 -0.48753494 20.8632
0.09120999 16.819843 7.315549 18.819431 0.22433896 -0.66840845 11.21208 7.2693434
5.344583 -0.040537905 14.458389 9.812489 -0.12296197 7.0475154 -0.6843509 12.820325
-0.25803 8.990292 12.137033 2.4191566 -4.8396344 9.284958 9.412402 1.3032749
00000000: 0b33 efbf 102c 3d40 f199 abbe 41e4 e13e
00000010: 15a2 33be 2ac4 9a3e cba9 34c0 318f 3d40
00000020: e6a6 04bf c4c9 debf b4d5 0b41 b66f e5be
00000030: c2f9 6540 8e46 f93d 43d4 a240 a559 0041
00000040: 4d17 73bf 65b9 acc0 ec5d 83c0 b4d8 aabf
00000050: 700b c940 7a3d 8ec0 12aa 83c0 3e18 6c3d
00000060: 1856 ccbe 34e8 86bf 3797 9dbf 7d19 ca40
00000070: 3862 9abc 55b9 1840 50dd adbf 8c45 303f
00000080: 52fd 2840 9c2f 8c3f 2b89 f03e aae2 a7c0
00000090: 06e9 31c0 ad4c b1c0 7e32 3abf 5a65 04c0
000000a0: f059 1d3c 4fb7 49bf 96c0 d4c0 31c3 5940
000000b0: 93a5 613f b228 75c0 6e94 9ac0 7dc9 3f40
000000c0: 9991 27c0 501e 2f3f bef1 43c0 ab77 e5bf
000000d0: b4ff 06bf 4313 863e 0e8c 1840 90bc 65c0
000000e0: d672 1dbe f1de 75c0 e4ed 2340 9e82 7cc0
000000f0: 1a97 68c0 b88c a23f 8fd3 1140 405b 9e3f
00000100: 3d71 4abf 7ed4 51bf 3562 2dbf 6172 8abe
00000110: b13e 07bf f0a9 c9be ade6 3dbe 5e40 11bd
00000120: 3275 acbe d029 b5be 26fe 3fbf 39f7 683b
00000130: f288 6bbe a317 34bf e826 67bf 3a19 b53d
00000140: f308 42bf 06c2 2bbf 5db9 88be 0f4b 5dbf
00000150: 0bd0 4fbf d154 92bb ce48 31bf 3e4d 0cbf
00000160: bf5a 0abf 5bbf 88bf 0192 19bf 161e e3be
00000170: 0b87 b4bc 7caa 8cbe 69fb 0abf ca0b 413e
00000180: ead0 40bf 569d c9be 25af b2be 557d 33bf
00000190: ecdf 02be b734 e9be 37c0 47bf 5d4e 2bbd
000001a0: 47c7 3cbd 1922 b0be 72cc e1be 68b5 d6bd
000001b0: b76a c5bd 3447 a5be fa48 a4be 04d6 27bd
000001c0: 24c9 d6be af00 46bd 04a6 68bd 8c95 d53d
000001d0: 9600 a4be 32f5 993d 9b1a 93bc 69dc cfbe
000001e0: f636 e3be 2de9 123d b27a 40bf 57a1 5dbe
000001f0: eb0e f2be 95d8 703c fc35 dabe a616 c0bd
00000200: afb1 b93e 14e9 6bbf b1e3 31be f563 f83e
00000210: d785 6cbf 5393 acbe 0b5d 04bf afe2 91bf
00000220: 68da 9cbd 1716 6dbf 5774 eb3e fbaf ddbd
00000230: f735 453e bc09 ba3d a905 18be fc50 f0be
00000240: d9ae d73e a3dc 13bf a697 23bf 1fe3 97bf
00000250: 1bb1 2bbd fcea ccbe ec3e ecbf 09a2 9fbe
00000260: bdfc 3abf cbdf ae3e e96f 143d 0f39 9bbf
00000270: b69d 03be ae82 a4bf df99 6cbf b5aa 2d3c
00000280: fd40 55bf a1e6 abbe c341 b43e 833c c73e
00000290: 2150 1dbd 39bf 053d 9930 19c0 eb19 07bf
000002a0: 5eeb 94bd 19f0 99be e22e d9bd 5520 3f3e
000002b0: c5dd 10bd 71f0 a7bf eca0 cfbf 0174 a83e
000002c0: 748c 02bf b93e a3be 3cdf 6bbf e27c 06bf
000002d0: d6d0 6b3d 3752 8fbe 3578 d1be 1efc c83e
000002e0: 5fde 0bbe 1484 3dbf 7477 c73d 6df5 9bbe
000002f0: 9159 a4bf b732 323f 31e9 59bf 704f f73e
00000300: 9428 3b41 1ca8 8441 5d44 b4bc 256d 3141
00000310: 7c22 9c40 71ae 86be 8048 9641 07db 3341
00000320: 3cbc 3dbe 0e1e cc3f 1983 0f40 64a8 90bf
00000330: cd39 7740 deb0 cabe 5924 f73f 5f66 fc40
00000340: 36cb 3a41 c35b 5941 8a09 2f41 4bcb 0041
00000350: e252 3741 a29f 6340 3a99 73c1 820c d23e
00000360: 74bd 4e40 d513 8141 ddcb 8341 dd26 4641
00000370: 1909 3f3e ce0a 4e41 2036 9141 c806 98be
00000380: 24a3 6c40 a610 0a41 0ef0 5a41 6e46 7a41
00000390: 4b39 3f41 d6b8 0241 2e9e f9be d5e7 a641
000003a0: 4ecc ba3d 0a8f 8641 fa18 ea40 328e 9641
000003b0: 1db9 653e d11c 2bbf ae64 3341 769e e840
000003c0: d306 ab40 130b 26bd 9055 6741 f4ff 1c41
000003d0: 7cd3 fbbd 3f85 e140 9f31 2fbf 0d20 4d41
000003e0: 821c 84be 3cd8 0f41 4a31 4241 76d3 1a40
000003f0: 49de 9ac0 308f 1441 3399 1641 b6d1 a63f

fc2.bias f4 [64]
-19.633453 -1.2224545 -3.5184672 -33.80915 -0.5386993 -8.769305 -1.1752685 -0.47393987
-1.8925662 -1.0426333 -37.02398 -4.659923 -0.40629017 -0.9805001 -4.9232025 -0.7919157
-11.179289 -9.061671 -11.8121605 -5.806738 -1.0309653 3.7342536 -0.43555436 -0.35833076
-5.1789064 -1.6882658 -13.240041 -4.902646 -0.4183407 -2.8333611 -6.849922 -0.7861464
-30.251139 -0.91817844 -4.242095 -1.5695653 -0.8200972 -3.8019109 -4.331348 -0.43302193
-8.484773 -0.75942147 -39.705235 -0.45313808 -0.5002799 -10.06843 -0.84762704 -1.2677978
-0.8302489 -0.92527825 -0.773836 -12.803392 -26.500698 -0.6236768 -1.2774312 -1.31464
-1.0446616 -1.6350121 -0.40753514 -0.7402105 -0.5401357 -0.93075395 -0.96540034 -0.92258424
00000000: 5011 9dc1 6479 9cbf 912e 61c0 923c 07c2
00000010: 33e8 09bf 134f 0cc1 336f 96bf 3fa8 f2be
00000020: 9c3f f2bf 0275 85bf 8e18 14c2 171e 95c0
00000030: 4405 d0be 0e02 7bbf e08a 9dc0 fdba 4abf
00000040: 5ede 32c1 9bfc 10c1 9cfe 3cc1 ccd0 b9c0
00000050: acf6 83bf 03fe 6e40 fb00 dfbe 2177 b7be
00000060: 9ab9 a5c0 1819 d8bf 35d7 53c1 7ae2 9cc0
00000070: c130 d6be ca55 35c0 9032 dbc0 e440 49bf
00000080: 5502 f2c1 be0d 6bbf 3ebf 87c0 84e7 c8bf
00000090: e4f1 51bf 8252 73c0 679a 8ac0 0db5 ddbe
000000a0: a1c1 07c1 7269 42bf 29d2 1ec2 b701 e8be
000000b0: 5812 00bf 4a18 21c1 16fe 58bf 3347 a2bf
000000c0: 318b 54bf 09df 6cbf 1e1a 46bf b2da 4cc1
000000d0: 6e01 d4c1 48a9 1fbf de82 a3bf 2046 a8bf
000000e0: 79b7 85bf 1448 d1bf 72a8 d0be 6f7e 3dbf
000000f0: 5546 0abf e445 6ebf 7a24 77bf 7b2e 6cbf

fc3.weight f4 [1, 64]
0.43872336 -0.28971705 0.28172982 -0.16174926 0.03906295 -0.19422697 0.17925218 -0.31204912
0.16574971 -0.14969271 -0.14924234 -0.21766867 -0.30914286 0.009736093 0.24577709 0.25980395
0.104363665 0.192888 0.10261893 -0.27203277 -0.09578107 0.072918944 -0.15285854 -0.24813063
0.7135175 -0.27684233 0.5596532 1.0751067 0.23963593 0.32730475 -0.030820848 -0.17878336
-0.20950975 -0.045844723 -0.25310156 -0.06619846 0.0418622 0.11653606 -0.17561077 0.006109886
-0.18096581 -0.29890925 -0.22011434 -0.11398408 -0.024314955 0.041937333 -0.084279306 0.14715788
0.011211702 -0.2304628 -0.2848043 0.0122201 -0.25895074 -0.29879284 0.050096467 -0.2984189
-0.08950968 -0.11803439 0.28405517 0.14781952 -0.2755629 0.17679536 -0.1085789 -0.084171176
00000000: 59a0 e03e cb55 94be e43e 903e 99a1 25be
00000010: 7900 203d 6fe3 46be e28d 373e e7c4 9fbe
00000020: 4bba 293e 0c49 19be fcd2 18be 89e4 5ebe
00000030: f947 9ebe 2284 1f3c fdac 7b3e 0605 853e
00000040: 9ebc d53d 6f84 453e e029 d23d e147 8bbe
00000050: de28 c4bd 8756 953d f386 1cbe f515 7ebe
00000060: 15a9 363f 47be 8dbe 6f45 0f3f 199d 893f
00000070: 1f63 753e 7d94 a73e 017c fcbc fc12 37be
00000080: b989 56be adc7 3bbd 8796 81be 0f93 87bd
00000090: b377 2b3d 75aa ee3d 4fd3 33be 7035 c83b
000000a0: 1a4f 39be a20a 99be a765 61be 7c70 e9bd
000000b0: 2830 c7bc 7bc6 2b3d a19a acbd 8eb0 163e
000000c0: 49b1 373c 71fe 6bbe dfd1 91be d036 483c
000000d0: 3195 84be 60fb 98be f431 4d3d 5dca 98be
000000e0: da50 b7bd 04bc f1bd ae6f 913e 005e 173e
000000f0: 9516 8dbe d809 353e 9d5e debd f061 acbd
