trained_models_1L_6/firmware_update_model.pth (torch, 24391 bytes, 5 tensors)

fc1.weight f4 [64, 19]
00000000: c76b 4640 909f 3740 0405 99c0 4634 f0bf
00000010: 5d83 9840 547a 86bf 86ea a4c0 4748 0ac1
00000020: cada 86bf e291 b93f 37e8 e0bf 8efe 4cc0
00000030: f500 08c0 2be3 0ec1 50fc 9fc1 27de a2c0
00000040: 3d41 d440 a347 85c0 36b2 e0bf b228 32c0
00000050: 77cd 5a3f 3309 1a40 90bb 1040 4a87 69c0
00000060: 5627 0dc1 a705 adc0 5a94 4340 3cc0 04c1
00000070: 1ee4 bbc0 b0fa 5bbe 1cd4 e7bd 60b7 20c0
00000080: 2ca4 fb3e bf32 1441 ffad c33e 78a4 ac40
00000090: d5b2 853e a169 8e3f 031e 7240 d11b efbf
000000a0: 9e9b f1bf 221c be40 a217 f83f 15d8 cfbf
000000b0: 6ea3 3840 a5ae c9bf 9527 8940 43fc cebe
000000c0: d08f 7f3f 1619 4cbb 402b 19c0 2521 773f
000000d0: 5571 1c41 6aab 8840 2542 e2bf 05de 0f40
000000e0: dd46 213f c5dc 8840 8d56 d9bf 1935 153c
000000f0: 591b 5abf 5a2b 1fbf 4d99 cb3f 1670 69c1
00000100: 45ae 1bbe 869b 27c1 cbc0 8f40 0828 9ebf
00000110: 01a3 9740 0cb4 49c0 a705 5a3f 5f04 a4c1
00000120: 9dc1 b940 c60c 09bf 8789 3f40 6a22 36bf
00000130: 0508 02c1 2885 99bf 1067 c2c0 e40a 8bc0
00000140: f9f8 9ac0 79ae ae3d 1073 4ec0 950b 59c0
00000150: ba76 d9bc 341d 9abe eb6d 9cc0 c624 8ec0
00000160: d322 c0c0 db4c 0ec0 2077 d53f 5c01 ae40
00000170: e959 0ac1 7c12 2d40 97a1 20c0 0d4f b6c0
00000180: 5182 0640 6fa4 8c40 1614 8ac0 5cb9 7940
00000190: c00e c640 b608 b1c0 276d 94c0 ad2e efc0
000001a0: 37bc d4c0 e4e6 ba40 a4c7 ab40 9393 59c0
000001b0: 512f dabf d3ac d4bf be51 ec40 593d 04bf
000001c0: 69ee 84bf 2539 83bf fac7 6e40 62a2 ac40
000001d0: eee5 21bf 8832 8640 2306 a2c0 83fe 50bf
000001e0: 0364 acc0 035c 2a40 b354 2d40 efb5 1dc0
000001f0: b37c 0d41 4b35 4040 0993 2d41 7390 9dc0
00000200: e501 c1c1 d3e6 4cc0 41cd 0bc1 6361 d2c0
00000210: c981 3840 055e babf 8154 0a40 0b6b 6740
00000220: 4069 48bf f672 88c0 22bf 423f 479a b040
00000230: 48d1 82c0 7ab2 2040 628a dcc0 165c bec0
00000240: 0dbc acc0 df3f 7140 7ec4 b33e 8cd9 f540
00000250: 745b 0fc1 fb12 90be c836 5940 e21b bcbf
00000260: f003 ee3f fe0f 73c0 58d0 e73f b3da 7640
00000270: 8475 b53f f4b9 82c0 fdd1 92bd 741b 6ac0
00000280: 19a5 0841 55f4 59c0 b2b5 0ec0 d35d fbbf
00000290: 7c72 ccc0 72cb 0c41 af52 a1c1 671a f8c0
000002a0: 4545 e540 642c b040 232d 12c1 e3c6 b23e
000002b0: a6f8 3d40 a3b5 fc3f 1654 0341 46bc 25c0
000002c0: dc4c 4d40 2d6a bac0 22b2 01c1 261e f040
000002d0: 0e33 14c1 b4e5 59c0 3fc2 0840 494b dfc0
000002e0: 03a4 4941 dccf 8ec1 4eba b63f 641c 143f
000002f0: abf2 b53f f20a 8f3f 3b37 8dbf 3702 0f3f
00000300: 393f e840 d544 7dc0 fd44 97bf 1198 1741
00000310: 9ce7 51c0 7669 cd40 f533 04c0 99ed 0641
00000320: 8e1b 1140 ea27 cb3f 0cec 9f40 a40c 08c0
00000330: e370 8240 919d 2ec0 76a4 85c0 42b1 e0c0
00000340: dcf4 07c0 cd2f 11c0 c2a0 a540 cfaf 68c0
00000350: 81ba e0bf c3d2 1cc0 5fab acbf 4abb 03c0
00000360: 70fd 0bbf 0745 43bf c52d 53c0 171b a6be
00000370: a483 ff3f 630b 903f bc13 f93f b2dc eebf
00000380: 6ef0 50c0 0aaf 3540 7d3a 9cbe 9859 01bf
00000390: 30c9 82bd 5604 063e ae8f 35bc 8c5d b23d
000003a0: ddb9 d33c 52ec 98bd 2c7f 3e3e b39a ef3d
000003b0: 0c5d 693e 45f3 85bd 9305 3e3d 0829 e93c
000003c0: 23e2 19be 291e 6e3d b52f 5dbe eb85 21be
000003d0: f92f aa3c 671c 8bbd 6739 373e a31f e5c0
000003e0: c843 b4bc 32f3 82bf 0aff c3c0 d006 9e3f
000003f0: 7694 0cbf 5428 d3c0 89aa 303f a986 dbc0
3.1003282 2.869114 -4.7818623 -1.8765953 4.7660356 -1.0506082 -5.1536283 -8.642646
-1.0535519 1.4497645 -1.7570866 -3.2030368 -2.1250584 -8.930461 -19.9982 -5.089618
6.6329637 -4.1649947 -1.7554386 -2.7837338 0.85469764 2.4068115 2.261448 -3.6488824
-8.8221035 -5.40694 3.0559297 -8.296932 -5.8715963 -0.21482348 -0.113197535 -2.5111923
0.4914869 9.262389 0.38218686 5.3950768 0.26113 1.1125985 3.7830818 -1.8680364
-1.8875616 5.940934 1.9382212 -1.6237818 2.884975 -1.5756422 4.286082 -0.40426835
0.99828815 -0.0031142882 -2.3932648 0.9653495 9.777669 4.2709246 -1.7676436 2.247926
0.62998754 4.2769494 -1.6979538 0.009106898 -0.8519798 -0.62175524 1.5906159 -14.589865
-0.15203197 -10.47547 4.4922843 -1.2355967 4.738648 -3.1516142 0.85164875 -20.502134
5.8048844 -0.53535116 2.992769 -0.7114626 -8.126958 -1.1993761 -6.075081 -4.3450794
-4.842892 0.08529372 -3.2257729 -3.391332 -0.026545871 -0.30100405 -4.8884177 -4.441989
-6.004251 -2.223441 1.6676979 5.437666 -8.646951 2.7042532 -2.5098627 -5.6971498
2.101704 4.3950725 -4.314952 3.9019384 6.1893005 -5.5323133 -4.6383243 -7.4744477
-6.6479754 5.840685 5.36812 -3.3996322 -1.704569 -1.6615242 7.3849783 -0.5165611
-1.0385257 -1.0251814 3.7309556 5.394822 -0.6324147 4.1936684 -5.063249 -0.81638354
-5.3872085 2.661866 2.7082946 -2.4642293 8.842944 3.0032527 10.848397 -4.923883
-24.125925 -3.2015884 -8.737611 -6.574388 2.8829215 -1.4559942 2.1614077 3.6159084
-0.782856 -4.2640333 0.76072896 5.5188327 -4.088047 2.5108933 -6.8918924 -5.948741
-5.3979554 3.7695234 0.3511085 7.682806 -8.959827 -0.2813948 3.3939686 -1.4696009
1.8594952 -3.797851 1.8110456 3.8570983 1.4176488 -4.0851994 -0.07168958 -3.6579256
8.540307 -3.4055378 -2.2298398 -1.9638008 -6.388975 8.799669 -20.165373 -7.753223
7.1647058 5.505419 -9.13602 0.34917364 2.9683013 1.9742931 8.208029 -2.5896163
3.2078161 -5.825461 -8.105989 7.50368 -9.262465 -3.404645 2.1368558 -6.97794
12.602542 -17.851494 1.4275606 0.5785582 1.4214681 1.1175215 -1.103248 0.55862755
7.2577176 -3.9573262 -1.1817929 9.474626 -3.2797613 6.4191236 -2.0656712 8.433007
2.2673068 1.5871556 4.9975643 -2.1257715 4.07628 -2.728367 -4.176326 -7.021638
-2.12432 -2.2685425 5.1758738 -3.6357305 -1.7556916 -2.4503639 -1.3489798 -2.0583062
-0.5468359 -0.762772 -3.2996686 -0.32442543 1.9962049 1.1253475 1.9459147 -1.8661101
-3.2646747 2.8388085 -0.30513373 -0.50527334 -0.0638603 0.13087592 -0.011081619 0.08709249
0.025845462 -0.074669495 0.186032 0.116994284 0.22789401 -0.065405406 0.046392035 0.028461948
-0.1502767 0.05813423 -0.2160023 -0.15773742 0.020774828 -0.06792527 0.17892991 -7.160112
-0.022004977 -1.0230467 -6.1248827 1.2345829 -0.54914033 -6.598673 0.69010216 -6.860188

fc1.bias f4 [64]
00000000: 62b6 38c1 86a0 38c1 f6b2 52c1 4ca2 2dc0
00000010: 2576 bac1 079c e0c1 7e24 c9c0 aac9 64c1
00000020: 4c0b 6940 7f71 7641 26cb fbc0 dae0 7942
00000030: db07 09c0 dd5b 943f 90ef 2740 62eb 8241
00000040: 63de 9841 3a66 a2c1 a34c c8c1 2d3f 1441
00000050: 1d24 eec1 458a a8c1 271b 8cc0 b3fe 39c1
00000060: 3885 4bc0 ebf2 9540 521b 83c1 944e 60c1
00000070: f7c6 3841 2c5d 7cc1 d6b2 8b40 374d 03c2
00000080: b15e 0ac2 77a6 4bc1 70bc 7dc1 4f6e 6bc1
00000090: 5d43 8ac1 9146 bec1 5236 2c3f f22f 33c1
000000a0: 60b3 fbc0 c1f0 c0c1 891b 00c1 e7c9 c340
000000b0: 9828 14c1 e5dd bbc0 ca26 ad40 41e5 6bc1
000000c0: 1984 80c1 4f26 13c1 11f7 2040 7f21 97c1
000000d0: 8023 1740 02fe 0941 0528 87c1 ad3a bdc0
000000e0: 9a77 5f3f 8d23 dec0 b551 1241 7260 c340
000000f0: 3fe9 56c0 e300 c3c1 827c 49c0 f640 0dc1
-11.544527 -11.53919 -13.168692 -2.7130308 -23.307688 -28.076185 -6.2857046 -14.299234
3.6413145 15.402709 -7.8685484 62.46958 -2.1411045 1.1590534 2.6239967 16.364933
19.108587 -20.299915 -25.03742 9.265424 -29.767633 -21.067514 -4.3783145 -11.624682
-3.180006 4.685903 -16.38834 -14.019184 11.548575 -15.772747 4.3655806 -32.825405
-34.592472 -12.728141 -15.858505 -14.714431 -17.282892 -23.784456 0.67270386 -11.199205
-7.8656464 -24.117556 -8.006722 6.1183963 -9.259911 -5.8708367 5.410985 -14.74347
-16.0645 -9.196853 2.5150797 -18.891356 2.3615417 8.624514 -16.89454 -5.9134126
0.8729187 -6.9418397 9.144948 6.105523 -3.3579862 -24.375433 -3.1482244 -8.82836

fc2.weight f4 [64, 64]
00000000: 11d5 8b3d 05d3 14bd 0a0d c2be 4695 58be
00000010: 6391 033e f659 32bd 78f9 a93b 2590 2ebf
00000020: 00b4 d8be ef9e 37bf 2f7e 33bf 8f8b 0cbf
00000030: d3d9 93be 53a1 6ebf 0323 9abd b24c 20bf
00000040: 78d1 05be 3075 dfbe 6f20 9c3d 3e9f 54be
00000050: 152d 35bf 3e44 33be 8643 51be 02ca 0abf
00000060: 7478 ffbe f635 a2be e91c f03d 32a1 f2bd
00000070: db7b 65bf 83fd 68bc 59c6 94bf 95f3 eabe
00000080: 24af 78be 9143 84be 0637 d5be df00 24bf
00000090: 0259 94bc 12ed 2ebf ebe3 d5be 91f9 e3be
000000a0: 35f8 1dbe 414e 8fbe df10 4ebe 21be 51bf
000000b0: 9f7e bfbe e398 febe 738b 24be 048a 2ebf
000000c0: 5a45 77be f5f2 05bf 9aa0 3abf 24af 2dbf
000000d0: 3753 c8be 5173 46bf a7be 85be 4a53 993c
000000e0: b001 c3be 5b82 80bf 2535 c8be 2845 a8bd
000000f0: 92c7 46bf 0891 e3be 56e7 95bc 952a 02bf
00000100: 1b54 24be 3a4d 68be f231 68be 55f2 3ebe
00000110: ddc3 453d 09b7 98bd d8cf 47bd 0984 1ebe
00000120: b2fb 11bd eb17 003d b8ca 5bbe aa65 10be
00000130: 05a5 06be 42ca 29be 9c98 c1bd 3799 31be
00000140: 2546 34be 3aae b2be ea16 76be 3f36 bfbd
00000150: 89d9 b73c f9ed 09be 52e3 80bd 68de f23c
00000160: 2b58 20be 6ade 19be 595c b8bd 6280 2dbe
00000170: b56c aebd 2421 c2bd d8f9 2bbc 57bc 39be
00000180: 2f32 dcbd 4842 c63c 0af6 543d a390 c4bd
00000190: 633c 3dbd 5e14 d7bc 87b6 7dbd fd24 69be
000001a0: 74d6 91be 43e6 e6bd 8a0f de3c 9c69 09bd
000001b0: b98d bdbd 6658 0b3d d547 e53c 7255 27be
000001c0: 3453 7fbd d679 1fbd b6e7 9dbd 3c59 39bd
000001d0: 4045 3ebe c088 9abe 16cf a0bd 0276 b0bd
000001e0: 0e23 9dbd 695d 24be a3f1 3bbe c95d 18be
000001f0: 8669 2cbe be2a a53c 247e 16be a21e 2ebe
00000200: da9f 16bf c521 98be 29df e13c c3d7 39bf
00000210: eae1 1cbe 8889 cdbe 66b5 c7be 989d a0be
00000220: 7df0 cfbd 4a01 c5be dddc bcbf 1149 21bf
00000230: 25da 07bf 0644 11bf 0903 72bf 4673 05be
00000240: cd8c 5cbe fce7 74be aa2f 273c 5993 14bf
00000250: 827f d03d 432c 93bf bace 5ebe 5d8f b3be
00000260: d495 75bf d1b8 f1be 7162 30be e25d c4be
00000270: 084a efbe 5870 30bf 92f7 afbd a750 113b
00000280: 0d6b 0e3d 94f2 5a3e b95a cbbd 72b4 f8be
00000290: 2e0c 18bf 8f56 45bf bad7 173e e17e 8fbe
000002a0: 7b6b 06be b2d6 b1bc eaf4 10be 7038 68be
000002b0: 8f9f 21bf f92a 03bf 8b61 cdbe 83dd ccbe
000002c0: 8599 5abf 41b8 1abf 29a9 e5be 25ed 43bf
000002d0: b6ed eabe 1b26 21bf b248 55be 113f 24be
000002e0: 2bf1 2abf 9003 17bf db9c 1cbf 80f8 dcbe
000002f0: 7c70 a0be 4c84 20bf b869 e8bb e38c 953d
00000300: 2c3f 06bf 4051 84be 0f85 83bf 9880 c7bf
00000310: 8c63 09bd e0ca 13be 0166 10bf ba6c 17bf
00000320: f779 b4bf 8e3e 12bf f0ab 2abd 9a9f 6dbf
00000330: 322a 17bd 0bc9 00bf a414 aebe 5458 5abf
00000340: 40df 38bd 7679 b4be a5fe 95be 9959 19bf
00000350: f4a6 be3d 5f9f 5dbf 8644 ccbd 4bad 17bf
00000360: 6ba0 6abf 4b04 adbf b1bf c8bc b048 56be
00000370: 0872 78bf 6087 d2be fe0e a3bf 1842 e6be
00000380: cca1 bebe f134 3fbf 010a a6bd 5d54 7bbe
00000390: af3a a0bc c98e 52bf c746 39bf 4f45 aabe
000003a0: 01ef 33bf 68c3 e0be 882e da3d d6fc b43d
000003b0: ed96 46bf cad7 34bf 39cd 12bf 6328 b8be
000003c0: dfc7 c3be a144 41bf 416d 16bd c73d 85be
000003d0: cd0c 10bf 19b7 62bf 444b 52be 115c 67bf
000003e0: b8f3 153e 6633 b5be 5a1f 5cbf 4a41 75bf
000003f0: 0240 6e3e 2e55 a8bf 944a 92be 3009 373e
0.068277486 -0.036334056 -0.37900573 -0.21150693 0.1284843 -0.043542825 0.0051872097 -0.681887
-0.4232483 -0.7172689 -0.70114416 -0.5490045 -0.28877124 -0.9321491 -0.07526209 -0.6261703
-0.13068187 -0.43644094 0.07623374 -0.20763871 -0.70771915 -0.17506501 -0.20435914 -0.5421449
-0.49896586 -0.31681794 0.11724264 -0.11847152 -0.89642113 -0.014220598 -1.1623031 -0.45888963
-0.24285561 -0.258328 -0.41643542 -0.6406383 -0.018108848 -0.6833049 -0.4177545 -0.44526342
-0.15426715 -0.2798939 -0.20123623 -0.8193074 -0.37401292 -0.49726018 -0.1606882 -0.68179345
-0.2414755 -0.5232385 -0.7290131 -0.6784537 -0.39125988 -0.7751971 -0.2612202 0.018716473
-0.38087225 -1.0039781 -0.39103046 -0.082163155 -0.7764827 -0.44446588 -0.018298786 -0.50846225
-0.16047709 -0.2268571 -0.22675303 -0.1864713 0.048282493 -0.07456786 -0.0487822 -0.15480055
-0.035640426 0.03127281 -0.2146405 -0.14101282 -0.13148887 -0.16581061 -0.09452936 -0.17343603
-0.17604883 -0.3489855 -0.24032179 -0.093365185 0.022442596 -0.13469686 -0.06293358 0.029647067
-0.15658633 -0.1502625 -0.09001989 -0.16943505 -0.08516828 -0.09478977 -0.010496579 -0.18138252
-0.10751759 0.024201527 0.051992454 -0.095979 -0.046200167 -0.026254829 -0.06194165 -0.22768016
-0.28483927 -0.11274388 0.027107019 -0.033547983 -0.09255547 0.03401985 0.027988354 -0.16341189
-0.062335208 -0.03893455 -0.07710211 -0.045251116 -0.18581104 -0.30182457 -0.078519985 -0.08616258
-0.07672702 -0.16051258 -0.18353896 -0.14879526 -0.16837129 0.020161983 -0.14696556 -0.17003873
-0.58837664 -0.29713264 0.027572231 -0.7259485 -0.15320554 -0.4014399 -0.39005584 -0.31370234
-0.101532914 -0.38477546 -1.4754902 -0.63002115 -0.5306724 -0.5674442 -0.9453588 -0.13032255
-0.21538086 -0.2391662 0.010204235 -0.58037335 0.1018057 -1.1497883 -0.21758547 -0.35070315
-0.95931745 -0.47211316 -0.17225052 -0.38352877 -0.4673617 -0.6892142 -0.08592142 0.0022173317
0.03477006 0.21381599 -0.09929413 -0.4857517 -0.59393585 -0.770852 0.14828387 -0.28026488
-0.13126938 -0.02170882 -0.14155927 -0.22677779 -0.6313409 -0.51237446 -0.40113482 -0.4001275
-0.853905 -0.604374 -0.4485562 -0.7653373 -0.45884484 -0.6294877 -0.20828512 -0.16039683
-0.66774243 -0.5898981 -0.6117684 -0.4315834 -0.3133582 -0.6270187 -0.007092681 0.07302263
-0.5244014 -0.2584324 -1.0274981 -1.5586119 -0.0335422 -0.1443286 -0.56405646 -0.5915028
-1.4099721 -0.571267 -0.04166788 -0.9282166 -0.036905475 -0.5030677 -0.34000123 -0.8529103
-0.045134783 -0.35248917 -0.2929584 -0.5990234 0.093091875 -0.86571306 -0.09974007 -0.592488
-0.9165103 -1.3516935 -0.024505468 -0.20926166 -0.97049 -0.41118908 -1.273895 -0.449723
-0.37232816 -0.7469016 -0.08107377 -0.24543901 -0.019559233 -0.8224912 -0.7237362 -0.33256003
-0.70286566 -0.43899083 0.106534064 0.08837287 -0.77574044 -0.7064177 -0.57344395 -0.35968313
-0.38238427 -0.75495344 -0.036725286 -0.26023695 -0.5626953 -0.88560635 -0.20536524 -0.9037486
0.14643753 -0.35390776 -0.8598534 -0.9580275 0.23266605 -1.3150995 -0.28572524 0.17874599

fc2.bias f4 [64]
00000000: bd54 0abf 2d93 38be 6c37 7dbf 8326 7bbf
00000010: a98e 2cbf da21 b5bf 42dd b9bf 13e8 34bf
00000020: a8f9 f0bf 2290 3cbf ad80 0dc0 8e0e b4bf
00000030: 75b5 b6bf 4840 0fc0 c3b2 47bf 5bc5 d6be
00000040: 1ca1 9bbf 044a ccc0 9746 0dbf 972f fcbf
00000050: 9dd3 2ec0 1cbf 49bf ab87 1bc0 c8b1 4fbf
00000060: 07d9 06bf 4b34 13c0 edc8 cebf 5eb9 41bf
00000070: 0efd cac0 ab3e 9cbf 57ef cfbf 2b1a 85bf
00000080: 37e4 8fc1 1d3b ebbe 419b 4bc0 b650 eabe
00000090: e3d0 1cc1 43a4 3ebf 7449 89bf 0e4c 8cbf
000000a0: 2c10 19c0 2430 a6bf 87dd 09bf 0166 97bf
000000b0: 561f f5c0 1bae 8abf b300 42bf 2cf4 77c0
000000c0: 8d3a 84c0 0663 26c0 c9ac 4bbf cb70 8fbf
000000d0: f0a3 a7bf 0810 6dc1 54c9 50bf 6920 31c1
000000e0: 81ce 4bbf 2242 26bf 1b34 34bf c663 03bf
000000f0: 7128 87c0 bb75 8fbf ffcf 23c1 f66c 2cbf
-0.5403555 -0.18024893 -0.9891269 -0.9810564 -0.6740518 -1.4150956 -1.4520648 -0.7066662
-1.8826189 -0.7365743 -2.2109787 -1.4066942 -1.4274126 -2.2382984 -0.78007144 -0.41947445
-1.2158542 -6.384035 -0.55185837 -1.9702023 -2.7316658 -0.78807235 -2.4301555 -0.8113065
-0.5267491 -2.3000667 -1.6155068 -0.7567347 -6.3433905 -1.2206625 -1.6244916 -1.0398611
-17.986433 -0.45943537 -3.181351 -0.45764703 -9.800998 -0.74469393 -1.0725541 -1.096071
-2.391612 -1.2983441 -0.5385365 -1.1828004 -7.660075 -1.0834383 -0.75782317 -3.874278
-4.1321473 -2.599794 -0.79560524 -1.1206297 -1.3096905 -14.816414 -0.815572 -11.070413
-0.79611975 -0.6494466 -0.70392007 -0.5132412 -4.2236867 -1.1207803 -10.23828 -0.6735376

fc3.weight f4 [1, 64]
00000000: ec4d 61bd 6f7b 2abe 6033 2e3d a6c1 413e
00000010: 0c69 5f3e 4619 7b3e 43de b93e 07cd 563e
00000020: 1070 983e ab52 883e c01d edbc d9e5 50be
00000030: 9132 92bd c32e edbd b415 8f3e eb8a aebd
00000040: f130 52be b78c 1f3e 1138 d73c 3f3f 47be
00000050: ebfc ee3d fc4f d4be 5d95 743e 1d6c cabd
00000060: c777 343e 4c1c 223e 8475 e1bc 8204 5dbe
00000070: 29a2 fdbd 958e 80be bbbc c6bc 092d b13d
00000080: c639 2c3e a69c 65bd 5978 823e 4bdb 853d
00000090: 5ad8 0dbc 8533 9c3e eb47 5cbe be2e 953d
000000a0: 8531 bebd cdd9 593e 513c d53c 7a0a 96be
000000b0: a56a f0bd f902 ed3d f5a1 bdbe f6f8 273d
000000c0: 8928 56bc 9349 9a3e 1c97 7fbe 36fc 823e
000000d0: 04a9 17be ab82 8dbe c129 5ebe 0c58 3fbf
000000e0: b2c0 e9bc c78a 36be 06f3 203e e2dc 173e
000000f0: e61c fabd 9cbf 9d3d 85ce bbbe 1bb4 833e
-0.055005953 -0.16648649 0.042529464 0.18921527 0.21817416 0.2452136 0.36302385 0.20976649
0.29772997 0.2662557 -0.02894485 -0.2040018 -0.07138551 -0.11581185 0.27946246 -0.0852259
-0.20526482 0.15581022 0.026271852 -0.1945772 0.11669334 -0.41467273 0.23885103 -0.09883902
0.17623816 0.15831107 -0.027521856 -0.21583751 -0.12384445 -0.2510878 -0.024259916 0.08651168
0.16818914 -0.056057595 0.25482443 0.065359674 -0.008657539 0.30508056 -0.2151181 0.07284306
-0.09286789 0.2127449 0.026029738 -0.29304868 -0.11739091 0.115728326 -0.37037626 0.041008912
-0.013071188 0.30134258 -0.24959987 0.25583047 -0.14810568 -0.27638754 -0.21695615 -0.74743724
-0.028534267 -0.17826377 0.15717706 0.14830354 -0.12212543 0.07702562 -0.36681 0.25723347
