trained_models_1L_6/led_failure_model.pth (torch, 24359 bytes, 5 tensors)

fc1.weight f4 [64, 19]
-0.116378404 -0.03203362 -0.113669746 -0.040828977 0.062133495 -0.14515163 0.1361344 -0.04690705
-0.07493738 -0.09632106 -0.25376076 0.09074847 -0.17077765 0.04438482 -0.03834433 0.06546064
0.17850167 -0.1500845 -0.08450529 -2.5686958 -6.4609566 2.9240046 -2.1407523 3.1117678
2.7619596 8.211973 -5.820866 3.5358126 -5.2219696 -1.4361478 4.1446323 0.7830941
-2.588698 -3.3137937 2.8811183 4.8163953 2.7099545 -1.5971047 0.4205346 0.10600908
-0.2592487 0.29563853 -0.2960104 0.19921097 -0.32358354 -0.18036719 0.3913765 0.36754686
-0.26632237 -0.41823378 -0.5124595 0.17138901 -0.33694828 0.43016648 -0.22980668 0.05878041
-0.100972734 -5.1112194 2.9606705 -3.8193507 0.70728135 1.52798 -2.7576528 -3.2736154
-1.4523749 -0.8001122 0.2802803 -1.2655097 -4.591643 -11.808234 -3.6044068 1.5320369
2.8918965 4.1680884 2.49227 -5.2930307 0.18695399 -0.35590154 -0.10653224 0.44430944
0.05290446 0.12555383 0.18812735 -0.250593 0.0012352504 0.08643484 0.23337248 -0.47613436
-0.18271865 0.021066602 0.18538685 0.07325474 0.035001434 0.052841645 -0.21712932 0.08849633
0.028045928 0.03947476 0.0799815 -0.14712799 -0.015053262 0.05789461 0.018485235 -0.06963687
0.04239591 -0.030334786 -0.019792454 0.33616 0.043905243 -0.068665065 0.027992666 -0.011558165
-0.036705017 -0.017139442 0.34410936 -2.9820423 0.47368494 0.78073424 -2.0939279 0.7425389
-2.2339017 -2.2051957 -3.4960155 3.4603336 4.9007773 -6.094712 -3.167415 -0.34400457
5.058394 0.61145645 -4.1452866 -1.1166382 -2.0198314 2.0334027 2.4060433 -0.6794907
0.9846623 1.0855025 1.8656907 2.8767862 -1.4710326 -0.9019996 -0.113818064 2.6726453
-5.5163884 -7.2161283 -1.7181716 -0.6996537 4.0547423 3.1282737 2.1623323 -3.8822143
-0.051694956 0.0074712923 -0.21976607 -0.1826586 0.4100866 -0.17721018 -0.7074347 3.1147034
0.63565075 0.32605118 -0.50606686 0.21440914 18.224445 -0.3230437 0.27465796 -0.047945306
-0.45512342 0.32977277 -0.20993994 1.4644732 -1.0591918 5.471182 0.016691254 1.6648823
-3.263986 0.7018737 -2.9410808 -0.3000882 -3.8440707 1.062172 -2.4820368 -0.54769987
-0.2233068 0.49219552 0.006144204 -1.8425118 -0.25450528 -1.2690508 0.2231278 -0.074593365
-0.06878002 0.17413107 0.02978762 -0.051122747 0.11236053 -0.0769683 -0.19031791 0.22763039
-0.08096417 0.119867235 0.22278515 -0.010294989 -0.37223625 0.08709507 -0.16976379 -0.077432275
0.042456377 0.09704905 -0.37530813 0.16748466 0.24510361 0.024362143 -0.33822587 0.24256834
-0.16656882 0.48768222 0.020714656 -0.060277548 -0.2678332 -0.5700648 -0.18679094 -0.35894066
0.17165934 0.05626821 0.20172353 0.19474134 -1.8083512 0.41606808 5.945383 3.4270177
0.15575193 5.313616 1.4258852 0.52405816 -3.3185122 0.838528 4.7890124 3.0326529
-0.9062077 1.447571 -0.8960991 3.947821 1.8307418 0.21657898 2.8883097 -3.1689227
0.7232425 0.021047605 -0.21145761 -0.2183605 6.3450465 -2.5552993 1.0387745 3.5328395
00000000: cd57 eebd af35 03bd afcb e8bd 493c 27bd
00000010: b17f 7e3d a1a2 14be d166 0b3e 9b21 40bd
00000020: c578 99bd fa43 c5bd eeec 81be 55da b93d
00000030: 56e0 2ebe dbcc 353d f20e 1dbd 3a10 863d
00000040: 24c9 363e c0af 19be 1c11 adbd 8365 24c0
00000050: 28c0 cec0 e422 3b40 1602 09c0 3427 4740
00000060: f2c3 3040 3e64 0341 8944 bac0 c14a 6240
00000070: 601a a7c0 b1d3 b7bf d4a0 8440 db78 483f
00000080: 3aad 25c0 3215 54c0 3e64 3840 e91f 9a40
00000090: e56f 2d40 ed6d ccbf 5050 d73e 4a1b d93d
000000a0: 3fbc 84be ef5d 973e ad8e 97be f6fd 4b3e
000000b0: beac a5be 2db2 38be 8062 c83e 1a2f bc3e
000000c0: 685b 88be bd22 d6be 8c30 03bf 9a80 2f3e
000000d0: 7c84 acbe c83e dc3e 7152 6bbe bac3 703d
000000e0: cbca cebd 1c8f a3c0 a07b 3d40 3e70 74c0
000000f0: 6410 353f d994 c33f 627d 30c0 ea82 51c0
00000100: 6ce7 b9bf 27d4 4cbf e680 8f3e 39fc a1bf
00000110: bdee 92c0 87ee 3cc1 9aae 66c0 c919 c43f
00000120: d514 3940 fb60 8540 5a81 1f40 8260 a9c0
00000130: de70 3f3e ba38 b6be 932d dabd 877c e33e
00000140: 59b2 583d 2f91 003e 75a4 403e ba4d 80be
00000150: 20e8 a13a c004 b13d 32f9 6e3e e2c7 f3be
00000160: 991a 3bbe de93 ac3c 0dd6 3d3e 9506 963d
00000170: aa5d 0f3d 7b70 583d 2657 5ebe 903d b53d
00000180: 93c0 e53c 49b0 213d 57cd a33d b8a8 16be
00000190: f5a1 76bc e622 6d3d 596e 973c c69d 8ebd
000001a0: 55a7 2d3d a880 f8bc c923 a2bc 2a1d ac3e
000001b0: fcd5 333d 45a0 8cbd e050 e53c 755e 3dbc
000001c0: 0058 16bd 0468 8cbc 1a2f b03e c8d9 3ec0
000001d0: d586 f23e 33de 473f ea02 06c0 0817 3e3f
000001e0: 3ff8 0ec0 ed21 0dc0 b8be 5fc0 1b76 5d40
000001f0: 2bd3 9c40 e107 c3c0 edb6 4ac0 5e21 b0be
00000200: 5dde a140 6988 1c3f 30a6 84c0 00ee 8ebf
00000210: eb44 01c0 4523 0240 9dfc 1940 1af3 2dbf
00000220: d412 7c3f bff1 8a3f f4ce ee3f 441d 3840
00000230: cc4a bcbf 72e9 66bf 7219 e9bd 9f0c 2b40
00000240: 4186 b0c0 86ea e6c0 0ced dbbf 811c 33bf
00000250: 73c0 8140 a335 4840 a763 0a40 3376 78c0
00000260: 17be 53bd bed1 f43b 5b0a 61be db0a 3bbe
00000270: dff6 d13e 9676 35be 711a 35bf 4d57 4740
00000280: 02ba 223f 2ef0 a63e 998d 01bf 128e 5b3e
00000290: aacb 9141 fc65 a5be f89f 8c3e 4c62 44bd
000002a0: f005 e9be fad7 a83e 7ffa 56be dc73 bb3f
000002b0: 9993 87bf ec13 af40 19bc 883c dd1a d53f
000002c0: 26e5 50c0 ffad 333f ab3a 3cc0 29a5 99be
000002d0: 4105 76c0 41f5 873f b1d9 1ec0 0f36 0cbf
000002e0: 8aaa 64be 0d01 fc3e 5255 c93b 6dd7 ebbf
000002f0: 844e 82be 4270 a2bf 9d7b 643e 68c4 98bd
00000300: 8adc 8cbd 6a4f 323e 2b05 f43c 1666 51bd
00000310: 471d e63d 8ea1 9dbd b3e2 42be f117 693e
00000320: 8bd0 a5bd f47c f53d ca21 643e 50ac 28bc
00000330: c095 bebe e65e b23d 8fd6 2dbe d094 9ebd
00000340: bde6 2d3d a7c1 c63d 6328 c0be 1981 2b3e
00000350: 71fc 7a3e 1e93 c73c f12b adbe d663 783e
00000360: 0491 2abe 7cb1 f93e c8b1 a93c 97e5 76bd
00000370: 6f21 89be c4ef 11bf 2046 3fbe 12c7 b7be
00000380: 77c7 2f3e 7f79 663d 9d90 4e3e 466a 473e
00000390: 0d78 e7bf e006 d53e 9440 be40 4254 5b40
000003a0: 6f7d 1f3e 2409 aa40 6883 b63f ad28 063f
000003b0: 8162 54c0 c5a9 563f 973f 9940 fc16 4240
000003c0: 3afd 67bf 024a b93f c066 65bf 19a9 7c40
000003d0: bf55 ea3f e1c6 5d3e 11da 3840 a1cf 4ac0
000003e0: 6c26 393f 076c ac3c 5888 58be e599 5fbe
000003f0: 9f0a cb40 068a 23c0 90f6 843f 0b1a 6240

fc1.bias f4 [64]
-2.143694 -46.35592 -5.528182 -43.90595 -3.5305576 -1.3454666 -34.34939 -34.958435
23.682076 -31.892683 -2.8351395 -5.2498484 -34.229023 -22.087065 -4.514136 -29.317978
-1.4882588 -3.9100654 -40.927567 -32.059605 -22.605131 -34.537476 -31.821415 -28.40591
-31.929308 -30.28056 -5.357145 -29.54821 -5.55916 -1.011622 -1.125988 -28.154898
-19.41657 -21.3756 -2.2167947 -2.9334514 -2.4182968 -1.3943255 -2.8940141 -33.508427
-25.577587 -31.551107 -33.42108 -31.32304 -27.340591 -2.624183 -39.87318 -2.2245207
-41.87589 -18.16636 -49.29455 -4.250412 -3.6980429 -2.2236958 -2.5683923 -3.3989077
-1.7921271 -38.912647 -1.837478 -32.665398 -28.551853 -4.931889 -3.6214502 -1.851477
00000000: 4832 09c0 766c 39c2 dee6 b0c0 b19f 2fc2
00000010: a8f4 61c0 4038 acbf c665 09c2 70d5 0bc2
00000020: e474 bd41 3724 ffc1 ed72 35c0 c2fe a7c0
00000030: 85ea 08c2 4fb2 b0c1 cd73 90c0 388b eac1
00000040: 447f bebf 833e 7ac0 d4b5 23c2 093d 00c2
00000050: 4fd7 b4c1 6026 0ac2 4292 fec1 4e3f e3c1
00000060: 396f ffc1 963e f2c1 bb6d abc0 bc62 ecc1
00000070: a4e4 b1c0 d47c 81bf 6020 90bf 3b3d e1c1
00000080: 2355 9bc1 3b01 abc1 f7df 0dc0 abbd 3bc0
00000090: 60c5 1ac0 4279 b2bf 8737 39c0 a108 06c2
000000a0: e69e ccc1 ab68 fcc1 30af 05c2 9695 fac1
000000b0: 88b9 dac1 9df2 27c0 237e 1fc2 8c5e 0ec0
000000c0: e980 27c2 b554 91c1 9f2d 45c2 6003 88c0
000000d0: bcac 6cc0 0851 0ec0 8a60 24c0 b487 59c0
000000e0: 6c64 e5bf 8da6 1bc2 7b32 ebbf 5ea9 02c2
000000f0: 326a e4c1 09d2 9dc0 d7c5 67c0 33fd ecbf

fc2.weight f4 [64, 64]
-0.13383469 0.014636902 -0.115978554 -0.27725655 -0.04111102 -0.2325834 -0.18311179 -0.19057897
-0.07530352 -0.0038311682 0.009651434 0.0040015085 -0.28906485 -0.13899502 -0.24213763 -0.20085739
-0.08368465 -0.33836615 -0.09424862 0.002668902 -0.07470633 -0.111068316 -0.1903609 -0.0658705
-0.19053806 -0.10427318 -0.2002267 -0.22525822 -0.069294386 -0.09650021 -0.07508691 -0.28185073
-0.30725834 -0.30634904 -0.0806968 -0.21957748 0.109347366 -0.17415044 -0.11118445 -0.13025014
-0.01131795 -0.0022034042 -0.3192515 -0.17782603 -0.40325704 -0.08547056 0.025500374 -0.16359305
-0.18474007 -0.236227 -0.13046698 -0.028832037 0.007820568 -0.2891721 -0.03851683 -0.123401746
-0.01080541 -0.068142645 0.011653414 -0.002657493 -0.11784156 -0.054310344 -0.0324948 -0.36054373
0.0019422406 0.025481783 0.0008937935 0.03972541 -0.07651576 -0.13660781 -0.390887 -0.08789123
-0.63932127 -0.0701091 -0.078771 0.19947614 -0.11618947 -0.07529137 -0.047453582 -0.1148601
0.013018971 -0.14208354 -0.26456827 -0.008474801 -0.1278517 0.00069413945 -0.039588872 -0.122468084
-0.20267403 -0.10314903 0.10732536 -0.15970755 -0.21068455 -0.045279637 -0.04368327 0.020550262
-0.091665596 -0.059706993 -0.14336997 -0.057156686 -0.05415941 -0.10361157 -0.10408802 -0.15316598
-0.10177471 -0.099515155 -0.14488265 -0.060781706 0.014580114 -0.08094366 -0.03285585 0.14544882
-0.09038537 -0.04842434 -0.09309883 -0.077364236 -0.09486073 -0.18602844 0.021624513 0.0054912735
-0.07278882 -0.19653633 -0.056835305 -0.058645386 0.018367214 -0.08084512 -0.04752355 -0.4804752
-0.2270568 -0.40964836 -0.13923137 0.52918595 -0.15781255 -0.081099145 1.4749726 -0.7553121
-4.9221244 0.45252067 -0.2217916 0.08107091 -1.1882006 0.5573074 -0.12422113 -0.044781405
-0.040378764 -0.2858764 -0.68228954 1.4098438 0.55080587 0.21598922 -0.51711893 0.10963998
-0.48108917 0.16310124 -0.07936788 0.3722486 -0.18295027 -0.08378809 -0.09875583 1.985468
-0.62312335 0.08385294 0.049582746 -0.33429214 -0.14878799 0.10036138 -0.07811159 1.6848571
-0.28732324 -0.9187439 -0.38789028 -0.056967087 2.294748 -0.20665374 3.4103224 -0.019219944
-1.195555 -0.2823266 1.9205166 -0.106228076 -0.23258273 -2.7379217 -0.1294169 -0.10284189
-0.011377411 0.8410759 -0.030659819 -0.637785 -1.4643538 0.051305998 -0.17918321 -2.5118718
0.039904803 -0.39499804 -0.0497237 0.052475207 -0.05975355 -0.04816549 -0.12761386 -0.3939937
-0.34704304 -0.03327203 -0.14965564 0.13643028 -0.082381606 -0.2416246 -0.059726663 -0.29237023
-0.06204636 -0.015785836 -0.08367783 -0.044045683 -0.30520183 0.015488828 0.017063018 -0.17153215
-0.044023436 -0.048836138 -0.106972925 -0.22206058 -0.08679664 -0.032217287 -0.31770924 -0.14018217
-0.4160736 -0.19245909 -0.020283034 -0.02474256 0.14245093 -0.10938617 -0.10946694 -0.119982645
0.0347989 -0.08229976 -0.1617223 -0.037377093 -0.2701023 -0.06697554 -0.0136666205 0.034573473
-0.1692003 -0.27718797 -0.22981219 0.089111686 -0.10732278 -0.19778794 -0.05865573 -0.00287359
-0.009188746 -0.09007274 -0.1749331 -0.14093128 -0.15956114 0.0045383153 -0.40395916 -0.25975552
00000000: f60b 09be 9ecf 6f3c 2a86 edbd 92f4 8dbe
00000010: 0764 28bd 582a 6ebe a881 3bbe 2227 43be
00000020: bb38 9abd 5614 7bbb 0c21 1e3c 161f 833b
00000030: 4f00 94be b654 0ebe edf2 77be 8fad 4dbe
00000040: dc62 abbd 543e adbe 6c05 c1bd bfe8 2e3b
00000050: a2ff 98bd c977 e3bd f8ed 42be 1de7 86bd
00000060: 691c 43be 2d8d d5bd 3a08 4dbe 17aa 66be
00000070: 37ea 8dbd e7a1 c5bd 2ac7 99bd bd4e 90be
00000080: f750 9dbe c8d9 9cbe 5d44 a5bd ebd8 60be
00000090: 83f1 df3d 7e54 32be acb4 e3bd 4b60 05be
000000a0: ec6e 39bc fd66 10bb ef74 a3be 0718 36be
000000b0: b577 cebe 300b afbd 29e6 d03c f084 27be
000000c0: 802c 3dbe 7ee5 71be 2399 05be 2a31 ecbc
000000d0: d721 003c 5e0e 94be d3c3 1dbd 0eba fcbd
000000e0: 2d09 31bc 5f8e 8bbd f6ed 3e3c 5629 2ebb
000000f0: ea56 f1bd 8674 5ebd 4419 05bd 3099 b8be
00000100: c892 fe3a 2cbf d03c 774d 6a3a 1db7 223d
00000110: 4bb4 9cbd ebe2 0bbe 5722 c8be 5100 b4bd
00000120: 8faa 23bf 5c95 8fbd b152 a1bd 7943 4c3e
00000130: bff4 edbd 5d32 9abd b05e 42bd c63b ebbd
00000140: 864d 553c 597e 11be 7e75 87be e4d9 0abc
00000150: 8eeb 02be e9f6 353a f127 22bd 8cd0 fabd
00000160: c889 4fbe cc3f d3bd 66cd db3d 608a 23be
00000170: b1bd 57be 2477 39bd 3bed 32bd 0659 a83c
00000180: 2cbb bbbd 528f 74bd 94cf 12be 211d 6abd
00000190: 42d6 5dbd 4e32 d4bd 1a2c d5bd 8bd7 1cbe
000001a0: 426f d0bd 9ace cbbd 1e5c 14be 3df6 78bd
000001b0: 6ee1 6e3c cac5 a5bd db93 06bd 89f0 143e
000001c0: f71b b9bd 9a58 46bd 99aa bebd 2471 9ebd
000001d0: 5846 c2bd 3d7e 3ebe e425 b13c 24f0 b33b
000001e0: 4e12 95bd d240 49be 23cc 68bd 2536 70bd
000001f0: d776 963c 2092 a5bd 0ea8 42bd d800 f6be
00000200: 9481 68be 6ebd d1be ab92 0ebe bb78 073f
00000210: 9d99 21be 4f17 a6bd e7cb bc3f 225c 41bf
00000220: 0b82 9dc0 cab0 e73e 561d 63be 8108 a63d
00000230: f516 98bf b3ab 0e3f a667 febd b56c 37bd
00000240: 3464 25bd 645e 92be 87aa 2ebf c375 b43f
00000250: 9d01 0d3f 472c 5d3e e861 04bf ed8a e03d
00000260: 5251 f6be 0304 273e a18b a2bd 5e97 be3e
00000270: 5157 3bbe 1799 abbd 7f40 cabd d123 fe3f
00000280: 0385 1fbf 17bb ab3d 4717 4b3d 5728 abbe
00000290: e15b 18be 448a cd3d f8f8 9fbd 66a9 d73f
000002a0: 081c 93be cd32 6bbf 8e99 c6be 5256 69bd
000002b0: 27dd 1240 0a9d 53be b942 5a40 2573 9dbc
000002c0: f207 99bf 1d8d 90be 7dd3 f53f 1b8e d9bd
000002d0: 2b2a 6ebe 1c3a 2fc0 dd85 04be c59e d2bd
000002e0: 5268 3abc c050 573f 4d2a fbbc e145 23bf
000002f0: f26f bbbf 3d26 523d ce7b 37be 82c2 20c0
00000300: 3873 233d 2f3d cabe 14ab 4bbd 3ef0 563d
00000310: 23c0 74bd 2d49 45bd 35ad 02be 8bb9 c9be
00000320: a0af b1be 4148 08bd 543f 19be 61b4 0b3e
00000330: b0b7 a8bd 706c 77be f2a3 74bd 8db1 95be
00000340: 5324 7ebd 4c51 81bc 485f abbd 3f69 34bd
00000350: 6a43 9cbe dac4 7d3c bec7 8b3c 20a6 2fbe
00000360: eb51 34bd 6708 48bd 9f14 dbbd d963 63be
00000370: 70c2 b1bd 46f6 03bd c9aa a2be ea8b 0fbe
00000380: 9907 d5be ff13 45be 9b28 a6bc e9b0 cabc
00000390: a8de 113e db05 e0bd 3430 e0bd 76b9 f5bd
000003a0: 4b89 0e3d c78c a8bd 889a 25be b918 19bd
000003b0: d94a 8abe 792a 89bd f6e9 5fbc ea9c 0d3d
000003c0: d842 2dbe 95eb 8dbe e353 6bbe 3080 b63d
000003d0: 0ccc dbbd ec88 4abe fe40 70bd d752 3cbb
000003e0: 658c 16bc 0f78 b8bd aa21 33be 4a50 10be
000003f0: ff63 23be 26b6 943b bcd3 cebe adfe 84be

fc2.bias f4 [64]
-0.5644933 -0.5023744 -8.690679 -0.48670676 -0.69422305 -1.3676548 -1.4405012 -0.6010475
-3.7439148 -6.492361 -0.848869 -6.791261 -3.7119951 -0.50057995 -1.3026191 -3.9934912
-19.280525 -6.252825 -0.4370476 -0.981334 -1.7717487 -0.19315387 -6.983089 -5.214633
-0.13792354 -0.29880866 -4.6067724 -0.38129196 -30.862438 -1.704223 -0.7851968 -2.4184353
-0.6610411 -0.37230515 -0.61521024 -40.16019 -0.52902186 -0.9504953 -30.084156 -12.996207
-24.410658 -10.238622 -2.7348416 -32.94435 -0.46168795 -1.159064 -12.965997 -0.7120927
-0.41934505 -0.38459134 -0.541315 -0.3682267 6.0853662 -0.97897714 -16.92792 -0.4026481
-0.3800047 -3.7833433 -2.357922 -1.7714053 -0.28835157 -0.35084623 -35.76851 -0.9952725
00000000: a282 10bf 9c9b 00bf 050d 0bc1 a131 f9be
00000010: 9ab8 31bf 500f afbf 5862 b8bf 40de 19bf
00000020: 4d9c 6fc0 6cc1 cfc0 7b4f 59bf 0352 d9c0
00000030: 5491 6dc0 0226 00bf 39bc a6bf 5c95 7fc0
00000040: 843e 9ac1 2417 c8c0 b4c4 dfbe b438 7bbf
00000050: a9c8 e2bf 21ca 45be 7775 dfc0 46de a6c0
00000060: d43b 0dbe 73fd 98be ae6a 93c0 b338 c3be
00000070: 46e6 f6c1 fb23 dabf a802 49bf a5c7 1ac0
00000080: fd39 29bf c89e bebe 6b7e 1dbf 09a4 20c2
00000090: fa6d 07bf a953 73bf 5aac f0c1 77f0 4fc1
000000a0: 0749 c3c1 65d1 23c1 a507 2fc0 04c7 03c2
000000b0: 5d62 ecbe 365c 94bf b974 4fc1 b54b 36bf
000000c0: 65b4 d6be 28e9 c4be 9f93 0abf 3688 bcbe
000000d0: 52bb c240 3f9e 7abf 616c 87c1 e427 cebe
000000e0: fa8f c2be 4c22 72c0 32e8 16c0 69bd e2bf
000000f0: d1a2 93be 1ea2 b3be f412 0fc2 2eca 7ebf

fc3.weight f4 [1, 64]
0.18860005 -0.075695716 -0.202691 0.08266759 -0.29606146 -0.03530388 0.18811186 -0.23543401
0.21435899 -0.9428647 0.1537373 0.02026292 -0.96864355 0.24540225 -0.031863242 -0.56557035
0.4062277 0.2100171 0.29713032 0.08819581 -0.028635457 0.020766286 0.14897814 0.107652195
-0.027796295 -0.21273941 0.16222748 0.31120428 -0.2791946 -0.13125385 -0.11247386 -0.096442156
0.1294893 0.29297635 0.24225108 0.17981319 0.06787463 -0.040311515 0.1736133 0.51793146
0.39593807 0.1695136 0.03486676 0.36451626 -0.2752017 -0.19389622 -0.35225588 -0.017672015
0.16871713 -0.08048483 -0.11022782 0.018859377 -0.12815504 -0.014232016 0.15844095 0.010695284
-0.28779167 0.18599719 -0.011936711 -0.2658818 -0.042958956 -0.29160944 -0.16727802 0.28622693
00000000: 5f20 413e 5b06 9bbd 3b8e 4fbe a04d a93d
00000010: 5e95 97be cd9a 10bd 65a0 403e 9d15 71be
00000020: ec80 5b3e 955f 71bf 506d 1d3e 6cfe a53c
00000030: 06f9 77bf ba4a 7b3e 0883 02bd 38c9 10bf
00000040: 14fd cf3e b90e 573e 7721 983e 01a0 b43d
00000050: e894 eabc 0f1e aa3c ba8d 183e c178 dc3d
00000060: 0eb5 e3bc 5cd8 59be f61e 263e 2b56 9f3e
00000070: 98f2 8ebe 6967 06be b258 e6bd 7783 c5bd
00000080: d898 043e ff00 963e ab10 783e f320 383e
00000090: db01 8b3d b01d 25bd afc7 313e 2897 043f
000000a0: 65b8 ca3e f994 2d3e 73d0 0e3d e0a1 ba3e
000000b0: 3de7 8cbe bb8c 46be e25a b4be e7c4 90bc
000000c0: 2fc4 2c3e 3bd5 a4bd 20bf e1bd fb7e 9a3c
000000d0: 133b 03be 672d 69bc 583e 223e 463b 2f3c
000000e0: 6e59 93be 0c76 3e3e 3292 43bc a921 88be
000000f0: bbf5 2fbd d54d 95be ee4a 2bbe 568c 923e
