trained_models_1L_6/power_issue_model.pth (torch, 24359 bytes, 5 tensors)

fc1.weight f4 [64, 19]
000000 f2 fe 92 40 38 73 5e 3f fb 0f 61 c0 ce 4b 0d c0
       4.5936213 0.8689456 -3.5166004 -2.2077518
000010 89 1f e6 bf 30 cc 22 40 e8 59 11 40 5d 74 4b 40
       -1.7978374 2.5437126 2.2711124 3.1789773
000020 aa 4e 0b 40 10 e4 8a be 18 81 b3 c0 f5 50 92 3e
       2.1766763 -0.27127123 -5.6095085 0.2857739
000030 28 b3 ad 40 7c a9 00 c0 18 2c 9d 3f 2b 47 c2 3e
       5.4281197 -2.0103445 1.2279081 0.37944922
000040 64 3d 47 3e 24 ef 8d 40 8b 23 98 c0 98 f0 c1 c0
       0.19457012 4.435442 -4.7543387 -6.0606194
000050 8d a1 17 40 b3 59 cf bf 02 01 08 3f be 01 cc be
       2.3692353 -1.6199249 0.5312654 -0.3984508
000060 8e 97 bf bf 92 12 67 c0 82 43 85 bf 5d bc 75 c0
       -1.4968126 -3.6105084 -1.0411227 -3.8396218
000070 19 71 b3 40 9b 37 1e 3f 00 a9 a2 40 fe a8 54 40
       5.607556 0.618036 5.08313 3.3228145
000080 79 bf fd 3f 67 ff 8a bc 77 f8 31 40 33 da af 3f
       1.9824058 -0.016967488 2.78079 1.3738464
000090 c0 92 e7 3f 67 02 1a c0 be 24 84 3e a6 41 d9 bf
       1.809166 -2.4063966 0.25809282 -1.6973159
0000a0 b6 3d c8 3f a0 78 d5 bf ea c0 0a c1 29 e8 b8 3f
       1.5643833 -1.6677437 -8.672098 1.444585
0000b0 b0 f3 9a bf 08 b8 37 c0 6b 7c bd 3d fb 2e 30 3f
       -1.2105618 -2.8706074 0.092522465 0.68821687
0000c0 98 f4 24 c0 a0 39 39 c0 bb fd dd bf cf 23 c5 3f
       -2.5774288 -2.8941422 -1.7343057 1.5401553
0000d0 b4 20 58 40 8c 6f 90 3f f9 b4 6a 3f 55 90 12 c0
       3.376996 1.1284041 0.9168239 -2.2900593
0000e0 45 db f5 3f 82 c8 2c bf 3f e3 f6 3f 2e 40 81 c0
       1.9207541 -0.6749345 1.92881 -4.0390844
0000f0 60 d5 52 bf d9 c8 cc 3f ad 53 c4 c0 d7 ca 80 bf
       -0.82356834 1.5998794 -6.1352143 -1.0061902
000100 7f 2c 37 40 af eb 5d c0 6d 9a ba 3f a2 5c c6 40
       2.8620908 -3.46751 1.4578377 6.1988077
000110 03 6d 39 3f a3 ef a1 40 75 81 b1 bf 8e b7 ac 40
       0.72431964 5.0605025 -1.3867632 5.3974066
000120 b7 e7 0f 40 fd 9c a3 c0 e7 fc 36 40 33 8e be 3e
       2.2485178 -5.1129136 2.859186 0.37217864
000130 80 2a ab 3d 6c e0 3d 3f 9c c4 77 3d dd 3c b2 3f
       0.083577156 0.74170566 0.060490236 1.3924824
000140 32 64 e2 bf a3 d7 4d 40 30 9e fd 3e 51 48 b0 be
       -1.7686827 3.2162864 0.4953475 -0.34430173
000150 ab 73 1a 3f d6 bd a6 bf 2f fe e6 41 de cf 1b c0
       0.60332745 -1.3026683 28.874113 -2.4345622
000160 de b1 0f 3d 32 c8 de bf 53 6f 46 bf bb 70 84 3f
       0.035081737 -1.7404845 -0.7751362 1.0346903
000170 d0 65 bd 3f a3 3d 15 40 29 a9 29 40 0a 87 8d 3f
       1.4796696 2.331887 2.6509497 1.1056836
000180 59 b3 07 40 ba be 68 40 ec 2f 0c c0 d3 5e 8a 40
       2.1203215 3.636641 -2.190425 4.324075
000190 4c 9c c8 3f 68 87 85 bf 7c 96 8b 3f d7 2c e1 bf
       1.5672698 -1.0431948 1.0905299 -1.7591809
0001a0 ab a8 9d bf 3d f3 71 c1 2a 5d a0 40 56 9b b5 3f
       -1.2317098 -15.121884 5.0113726 1.418803
0001b0 2a 34 e4 bf 24 1b 0d 3f b9 28 c7 40 1e fc 36 3f
       -1.7828419 0.5511954 6.223721 0.7147845
0001c0 c2 0a 8e 40 2d ea 9b 3e 34 42 ba c0 cc 6b 0d 40
       4.438813 0.304521 -5.8205814 2.2097044
0001d0 66 0c 72 c0 89 64 6b 40 17 dc 61 40 3e 7b 29 3f
       -3.7820067 3.6780112 3.5290582 0.6620368
0001e0 b6 46 0b 40 b9 15 96 40 26 f6 12 c0 4b 6c 18 bf
       2.1761909 4.6901517 -2.2962737 -0.5954024
0001f0 f4 27 c0 c0 0d f6 87 3f c2 74 a7 3e d2 73 90 c0
       -6.004877 1.0621964 0.32706267 -4.514138
000200 20 03 42 bf cb 93 a7 c0 d4 14 57 bf 45 db f5 3f
       -0.7578602 -5.236791 -0.84016156 1.9207541
000210 c1 d7 8d 40 a6 9b 11 3f 15 16 de c0 80 f5 e1 3f
       4.432587 0.56878126 -6.9401956 1.7653046
000220 b4 a2 1e c0 25 be 46 c0 b2 b6 78 bf 9c 7e 32 c0
       -2.4786806 -3.1053555 -0.9715377 -2.7889776
000230 48 dc 8b 3f ab c1 c2 40 11 fc 84 c0 25 e6 ab 40
       1.09266 6.086141 -4.15577 5.371844
000240 35 59 79 c0 f2 34 1e bf ca ab 7d c0 97 74 a8 3c
       -3.8960698 -0.6179954 -3.9636102 0.020563407
000250 58 6f a2 c0 58 8b 0a 3f 9e 1b 2e 40 f3 bf 0c 40
       -5.076092 0.5411887 2.7204356 2.1992157
000260 f2 ad f3 3d 0c 2b 37 be 23 b9 d6 bc 70 ca 89 be
       0.11898412 -0.17887515 -0.026211327 -0.2691226
000270 60 d9 24 3d 18 24 a0 3c 2d ad ea 3e 0b 2e 90 bd
       0.040246367 0.01954846 0.45835248 -0.07040032
000280 47 a8 90 3b 34 cc 54 3e ce 60 1f 3d 3e b9 7c bd
       0.0044145915 0.20781022 0.03891068 -0.0617001
000290 06 f7 f6 bc cd 7f 1a be 6b 80 90 be ce 68 3c 3d
       -0.030147087 -0.15087815 -0.28222975 0.045998387
0002a0 13 e1 8b 3d 0e 25 4a bf 84 60 c5 3e bb 00 38 bd
       0.06830039 -0.7896279 0.38550198 -0.04492257
0002b0 49 a3 75 3d 1f 6c 42 3f c0 b6 23 40 7a 72 bf bf
       0.059970174 0.7594623 2.5580292 -1.495681
0002c0 1a af 92 3e d0 cf 7f 40 d5 2b c1 c0 05 b6 43 c0
       0.28649217 3.9970589 -6.0366006 -3.0579846
0002d0 09 2c f9 40 91 ae a0 3f d7 60 30 c0 82 39 85 bf
       7.7866254 1.2553273 -2.7559106 -1.0408175
0002e0 77 98 6f c0 b6 86 0f c0 ba f8 7d 40 fb f6 2e 40
       -3.7436807 -2.242597 3.968306 2.7338245
0002f0 e1 05 53 3f 8e 9b a1 40 10 e6 c5 40 04 bd e3 bf
       0.82430845 5.0502386 6.184334 -1.7792058
000300 07 24 e4 3f 74 1f 4d c0 ed c3 b4 c0 f8 c5 30 c0
       1.7823495 -3.2050447 -5.6489167 -2.762083
000310 ff 69 4a 40 68 d3 d1 40 b0 34 d1 3f 78 6e 4a 40
       3.1627195 6.5570564 1.6344204 3.1629925
000320 5b 97 1b bf f2 1c 4e 3f f6 c1 0f c0 2b 29 ac be
       -0.60777825 0.8051292 -2.2462134 -0.3362516
000330 88 dd 5c c0 4c e7 72 bf 6a 75 06 bf 0c 59 19 40
       -3.4510212 -0.9488418 -0.5252291 2.39606
000340 fc f6 60 c0 d4 97 e9 be 48 52 df 3f 44 ab ec 3f
       -3.5150747 -0.45623648 1.7446985 1.8489766
000350 19 c0 26 40 93 d5 aa 3f 38 3f b0 40 8b 2d 04 3e
       2.6054747 1.3346428 5.507717 0.12907998
000360 c4 48 5c c0 fa 51 55 c0 0b 3f 5f 3f be 59 e6 c0
       -3.4419413 -3.3331285 0.8720557 -7.198455
000370 a6 95 c3 3f 4f 97 af bf 68 00 89 c0 7d 7e 49 40
       1.5280044 -1.3718051 -4.2812996 3.1483452
000380 2f 1a 1d 40 80 24 1f 40 2d 0f 8a 40 f7 c9 7c 3e
       2.4547231 2.4866028 4.3143525 0.24686418
000390 49 b4 06 40 fd df 63 c0 c3 ea 8f c0 e9 c4 98 40
       2.1047537 -3.5605462 -4.4974074 4.774037
0003a0 d0 f6 66 3e e7 31 36 40 91 26 4d 3e 2c 53 9a bf
       0.22555089 2.8467958 0.20034243 -1.2056632
0003b0 0c 81 e6 3f c8 92 d0 bf f4 7a 29 c0 e2 3a 2c 3f
       1.8008132 -1.6294794 -2.6481295 0.6727735
0003c0 ff 04 c3 40 fc ba c0 3f fd e7 54 3f 59 ab 94 c0
       6.09436 1.5057063 0.83166486 -4.6459165
0003d0 7a d5 f9 be 7e d6 95 3f 38 7a 11 3f 96 ab 83 be
       -0.48795682 1.1706083 0.56827116 -0.25716847
0003e0 0b 82 d5 bf 14 a3 60 3f 4b 32 09 c0 76 5b 11 40
       -1.6680311 0.8774884 -2.1436946 2.2712073
0003f0 9d b4 8b bf 8f 55 a5 be f4 86 16 40 b2 48 0a bf
       -1.0914494 -0.3229184 2.351987 -0.54017174

fc1.bias f4 [64]
000000 28 c4 0f c2 fe 1c da c1 f7 9d a0 c1 0f 5f 0a c2
       -35.94156 -27.264156 -20.077131 -34.59283
000010 76 4f ba c1 a9 d5 2e c2 57 71 0a c2 9c 4b 1f c2
       -23.2888 -43.708652 -34.610683 -39.823837
000020 26 66 5d c0 80 a2 13 c2 36 e2 15 c2 29 c7 28 42
       -3.4593596 -36.90869 -37.47091 42.194492
000030 f8 d6 ed c1 98 07 cd c1 b4 5a de c1 ca 1f 12 c2
       -29.729965 -25.628708 -27.794289 -36.531044
000040 86 1b f4 c1 68 80 0c c2 85 f7 13 c2 a0 2b 1f c2
       -30.51344 -35.125397 -36.99172 -39.792603
000050 20 e1 6a bf 6d 35 c8 c1 de 24 6f c1 7b 2e 44 c0
       -0.91749763 -25.026087 -14.946501 -3.065337
000060 4f 51 1d c2 31 83 6c c0 9c 3d 05 c2 de a1 11 c2
       -39.329403 -3.6955073 -33.310165 -36.408073
000070 b7 99 fe c1 77 d0 d8 c1 73 be 06 c2 11 f4 a6 c1
       -31.825056 -27.10179 -33.685986 -20.869173
000080 78 c9 dd c1 24 8a cd c1 81 a0 92 c1 29 bb dc c1
       -27.723373 -25.692451 -18.328371 -27.591387
000090 ef 23 15 c2 07 4c 6f c0 66 96 21 c1 ba 75 8e c1
       -37.28509 -3.7390153 -10.099218 -17.807484
0000a0 4b a1 06 c2 c4 ca 05 c2 4d bb 0c c1 d2 81 b5 c1
       -33.657513 -33.448013 -8.795728 -22.688389
0000b0 95 6d 65 c0 94 63 c2 c1 6a 46 fe c1 f5 e2 10 c2
       -3.5848134 -24.298622 -31.784382 -36.221638
0000c0 3c 11 bf c1 0c 73 eb bf 09 56 18 c2 83 e4 fd c1
       -23.883415 -1.8394485 -38.08402 -31.736578
0000d0 ae 6c 11 c2 eb 20 da c1 ed a3 b4 bf cc d2 ef c0
       -36.356133 -27.266073 -1.4112526 -7.494482
0000e0 0e 2a 6f c0 15 92 0c c0 59 47 ab c1 cb 0d 88 c1
       -3.7369418 -2.1964161 -21.409838 -17.006735
0000f0 49 b3 13 c2 44 e1 fd c1 43 60 d4 c1 d9 8b 16 c2
       -36.925083 -31.734993 -26.547003 -37.63657

fc2.weight f4 [64, 64]
000000 d6 d2 c0 40 5b 71 1c 3f 7a 64 1a c0 5a ae df 3f
       6.025737 0.61110467 -2.4123826 1.7475083
000010 87 79 62 c1 f5 e1 ae 40 e2 3a 1a 40 ec 9f 81 40
       -14.15467 5.4650826 2.409844 4.0507717
000020 a7 d5 29 be 57 16 a2 3e 0e ab 90 40 d6 a3 ea bd
       -0.16585408 0.3165767 4.5208807 -0.114570305
000030 e7 de 1b c0 91 b9 c8 3f 7a 40 c3 bf 46 65 94 3f
       -2.4354799 1.568163 -1.5254052 1.1593406
000040 2e 7a c9 c0 88 80 cf 3f d8 77 d4 40 67 8b 34 c1
       -6.2961645 1.62111 6.6396294 -11.284034
000050 ab b6 a5 3b 24 8c 26 be d7 5a bf c1 ac a6 05 be
       0.005057176 -0.16264397 -23.919355 -0.13051862
000060 90 7a 23 c0 85 1c a1 bc 35 74 9b 40 40 0f b6 c0
       -2.5543556 -0.01966692 4.8579354 -5.6893616
000070 c6 83 2f bf 4e 25 ab c0 45 94 8d c0 7b 3d 24 c1
       -0.68560445 -5.348304 -4.4243493 -10.26501
000080 95 f1 5c bf bf bc 3f bf 56 dd 36 bf 53 ff 91 40
       -0.86306125 -0.7489738 -0.7143148 4.5624175
000090 c0 f7 56 c1 43 db 28 be 14 a2 7b bc f9 c9 18 3f
       -13.435486 -0.16489892 -0.015358467 0.59683186
0000a0 12 6f 13 c0 e7 de 46 41 e4 05 99 3f 31 59 6a 3f
       -2.3036542 12.4294195 1.1954923 0.91542345
0000b0 95 53 e4 bd 2a 8c 90 bf 5e 41 e8 40 f9 31 09 c0
       -0.111487545 -1.1292775 7.2579794 -2.143675
0000c0 1e 03 8e bc 4c aa d3 bd 81 57 08 c0 df d9 4d 40
       -0.01733547 -0.10335216 -2.1303408 3.2164228
0000d0 85 58 23 c0 6f 75 0a bf b2 a0 7a bc 4f b0 b6 3e
       -2.5522778 -0.5408544 -0.015297102 0.35681388
0000e0 df a8 6d bd ab 7b 4c bd eb fa b7 3e bd c4 33 3f
       -0.058022376 -0.049922626 0.35933623 0.70222074
0000f0 2e bf 7e 40 53 db 04 c1 59 0e 1a c1 dc bf cb 40
       3.9804187 -8.303546 -9.628503 6.3671703
000100 2d 09 b2 3f 1c 8f bc bf 3c 54 0c 41 ae df c6 3f
       1.390905 -1.4731174 8.770565 1.5537012
000110 f2 18 1e 3e 21 8e 91 3d c9 74 32 c0 a4 21 db 40
       0.15439203 0.07107187 -2.788378 6.8478565
000120 4e c3 e8 bd c5 ec 91 40 28 1b 81 40 b5 c5 ab c0
       -0.113653764 4.5601525 4.034565 -5.367884
000130 37 a2 59 3f 93 c3 63 40 bd 4c e3 bf d0 f9 4b 40
       0.85013145 3.558812 -1.7757794 3.1871223
000140 90 3b 8e 3f c5 bd d7 bf da c7 b7 3f 28 24 86 40
       1.1111927 -1.6854788 1.4357865 4.1919136
000150 60 55 1c bc 86 13 b6 40 d5 5a f7 3e 9a fd 39 3d
       -0.009541839 5.689883 0.48311487 0.04540787
000160 22 09 16 3c 26 0a cf bd 89 ba dd 3f 4b 24 14 40
       0.009157451 -0.101093575 1.7322551 2.3147151
000170 59 0d b7 bf a6 67 36 40 1f dc 09 41 30 ab fc bf
       -1.4300948 2.8500762 8.6162405 -1.9739742
000180 4e 43 dc 40 3d 64 2f 41 cf 6c 82 3f 99 03 29 41
       6.883216 10.961972 1.0189456 10.563378
000190 5d 43 f8 40 75 13 27 bd 81 78 00 c1 7f 3a a6 c0
       7.758223 -0.04079004 -8.02942 -5.1946406
0001a0 3a 2e c7 40 07 33 68 3f 65 98 90 3e 1a 05 65 40
       6.224393 0.9070286 0.28241268 3.5784364
0001b0 b0 b5 79 bd 1c 7c 2a 41 09 ab 92 40 7b d6 48 41
       -0.060964286 10.6553 4.5833783 12.552363
0001c0 14 3b d2 3f 18 6c 12 bd a1 fb b9 3f b1 86 c8 40
       1.6424279 -0.035747617 1.4529916 6.266442
0001d0 d5 66 21 41 c5 1a f1 40 04 9a e2 bd be 94 d7 be
       10.087605 7.534518 -0.110645324 -0.4210567
0001e0 79 6d 33 bc d2 6d a0 bd 83 5c 8d 40 33 41 ac c0
       -0.010951393 -0.078334466 4.417543 -5.382959
0001f0 70 ec c2 3f 13 6c 1c 41 43 50 2e 40 dd df 5d 40
       1.5228405 9.776385 2.7236488 3.4667885
000200 b8 79 8b be 9a ee 02 bf 7d 6f 96 be f8 27 0f be
       -0.27241302 -0.5114533 -0.29381934 -0.1398009
000210 3a ef 4f 3d 11 88 f8 bd 2e ba 22 bf 6e 9a 30 bf
       0.050765254 -0.121353276 -0.6356534 -0.6898564
000220 b6 62 2e bc 61 df d4 bc 27 d1 c4 be 34 01 f0 be
       -0.010643652 -0.025985422 -0.3844082 -0.46875918
000230 82 43 61 3b 2b f8 bf bd 55 5d 4a be c6 1d 9f be
       0.0034372513 -0.09373506 -0.19762166 -0.31077403
000240 35 db fe bd 38 79 87 3c 56 41 ee bd cd 17 c4 bd
       -0.12444154 0.016537294 -0.116335556 -0.09574852
000250 25 c4 83 bd 94 91 c2 bd e4 b6 00 be c0 f5 80 bb
       -0.06433896 -0.09500423 -0.12569767 -0.0039355457
000260 a5 ca a5 bd 78 cd f4 be 7c d6 1b be b8 83 0c be
       -0.08095292 -0.4781301 -0.15218538 -0.13722122
000270 85 a8 8b be 0b 39 32 be fd 93 74 be 21 f6 86 be
       -0.27277008 -0.17404573 -0.23884578 -0.26359656
000280 1f 70 b4 be f9 46 02 bf 27 8c 1f be b4 9d 23 be
       -0.35241792 -0.50889546 -0.15580808 -0.15978128
000290 b2 71 95 bd 56 f2 45 3d 85 b5 ba be 07 a7 5a 3d
       -0.07297076 0.048326813 -0.36466613 0.053381946
0002a0 88 3e a6 bd 92 a0 96 be 86 b7 d5 bd d0 38 90 be
       -0.08117396 -0.2941938 -0.10435395 -0.28168344
0002b0 63 81 00 3e b1 d9 66 be 08 b4 b7 be 4f b9 38 be
       0.12549357 -0.2254398 -0.3587954 -0.1803944
0002c0 37 36 34 be e5 e7 13 be f5 58 19 be bd ce a0 be
       -0.17598806 -0.1444393 -0.1497534 -0.3140773
0002d0 63 4b 9d bc 5f 5a ac be eb 58 b7 bd e8 e0 c3 be
       -0.019200986 -0.33662698 -0.08952507 -0.38257527
0002e0 4e 02 d5 be 55 23 50 be d7 f2 74 be 80 8d 84 be
       -0.4160332 -0.20325978 -0.23920761 -0.25889206
0002f0 91 dc 33 be 9b 31 02 bf b8 b7 a5 bd 14 6f 46 be
       -0.17564608 -0.5085694 -0.08091682 -0.1937831
000300 6e 7a 10 be ae 46 dd bd 0f 62 87 bd b7 1c 26 be
       -0.14109203 -0.10804497 -0.066105 -0.16221891
000310 9c 1c 0d be 75 65 9a be 6c c9 bf be 6f 68 c2 bd
       -0.13780445 -0.3015553 -0.3745836 -0.094925754
000320 9d 5f 37 be 4d e1 63 be 2d 59 54 bd 34 6f fb bd
       -0.17907567 -0.22253914 -0.051842857 -0.1227707
000330 39 6a 5c 3d 05 dd ce be 59 74 2c be f7 10 33 be
       0.05381224 -0.40403 -0.16841258 -0.1748694
000340 e1 b3 3f 3d b2 e1 9c bd be e3 1f be 3d 1e d4 3c
       0.046802405 -0.076602355 -0.1561422 0.025893325
000350 0b ee 0a be ae ce a1 be 7e 9d a0 bd e7 55 8c bd
       -0.13567369 -0.31602997 -0.07842539 -0.06852322
000360 5a 78 a0 be 0b 8d 60 be 3a 8c b3 bd d7 6c 18 be
       -0.3134182 -0.21928804 -0.087669805 -0.14885269
000370 ec 7f 95 be 09 6f 28 be ec 5e 41 be 45 06 a6 be
       -0.2919916 -0.16448607 -0.18883866 -0.32426658
000380 af 6c ab be 6c 38 67 be 4f 6e 81 3c 10 66 5d 3d
       -0.33481357 -0.22580117 0.01579967 0.054052413
000390 c2 99 3e be 49 99 3c be c8 84 90 be 39 a2 6f 3a
       -0.18613341 -0.18417849 -0.28226304 0.00091412995
0003a0 91 9e 5f bc d6 90 2d bc 24 e6 6a be e8 36 d9 bc
       -0.013648645 -0.010593614 -0.22939354 -0.02651544
0003b0 0b 07 c4 3c 74 e5 3e be d7 71 80 be d3 db 9f bd
       0.02392914 -0.18642217 -0.25086853 -0.078056
0003c0 38 23 29 be fa ac 48 be 72 64 eb 3c 46 37 37 be
       -0.16517341 -0.19597235 0.02873442 -0.17892179
0003d0 28 fa 4f be 53 1c c9 be 21 9f 66 bc ca 6a 38 be
       -0.20310271 -0.39279422 -0.014076025 -0.18009487
0003e0 27 99 c4 bc 26 fb 67 bd cf 70 cd bd fb 4d f9 bd
       -0.02399881 -0.056636 -0.10031282 -0.12173077
0003f0 9a de 9f bc 86 3e 3e bd d1 fc 2f be fb 7f 13 be
       -0.019515324 -0.046446346 -0.17186286 -0.1440429

fc2.bias f4 [64]
000000 4f 37 c5 c0 2b 1f 8a c1 4e 16 a0 bf ca 0d 02 bf
       -6.1630015 -17.265219 -1.2506807 -0.5080229
000010 a9 6a 87 c0 8c 55 3f c1 7a 98 79 c1 e9 dc 13 c1
       -4.23177 -11.958385 -15.599726 -9.241433
000020 d7 2c 6e bf e7 dc e2 c0 45 13 7e c1 1b 31 46 c1
       -0.9303717 -7.0894656 -15.879704 -12.386989
000030 d2 6f 79 bf 7d f3 9b c0 fa 64 ab c0 d4 b8 52 c1
       -0.9743625 -4.8734727 -5.3560762 -13.170124
000040 27 50 3c c1 3f 30 b2 bf a4 94 9a c1 4b 2a c3 be
       -11.769568 -1.3920974 -19.322578 -0.38118204
000050 17 3f c9 c0 c8 14 34 bf 7d fe c9 be 0c 1d 3d bf
       -6.2889514 -0.7034421 -0.39451972 -0.73872447
000060 55 72 7a bf 3c 66 55 bf 2d fc 08 c1 d9 95 a7 be
       -0.97830707 -0.8335912 -8.561566 -0.32731512
000070 72 8a 2c c1 7a 1a 5e bf f9 7c 14 c0 1f 01 63 bf
       -10.7838 -0.8675915 -2.3201277 -0.88673586
000080 f1 72 9c bf a7 c9 88 c0 8f b9 81 41 46 de 68 c0
       -1.2222577 -4.274616 16.215605 -3.6385665
000090 08 39 b1 be b2 e7 c6 bf 00 08 2b c1 79 73 11 c0
       -0.34613824 -1.5539458 -10.689453 -2.272673
0000a0 0d fc 02 c0 e1 1e 8d bf 29 31 1d bf 09 f0 40 c1
       -2.046634 -1.1025048 -0.6140314 -12.058602
0000b0 50 d1 18 c1 11 49 ae bf c5 c1 33 c0 f5 a7 00 bf
       -9.551102 -1.3616048 -2.8087018 -0.5025628
0000c0 fb 08 c8 be 91 84 6d c1 28 3b 4a bf c0 02 79 c0
       -0.39069352 -14.844865 -0.78996515 -3.8907928
0000d0 07 86 20 bf 50 df 0f c0 98 67 2b c1 96 6f 5f c1
       -0.6270451 -2.248005 -10.712791 -13.964743
0000e0 68 67 b5 c1 c3 a0 23 c1 8f 42 5e c1 ed 95 72 c1
       -22.675491 -10.226748 -13.89125 -15.161603
0000f0 fb 97 73 c1 22 05 2f bf 12 03 74 c1 a8 8d 32 bf
       -15.224605 -0.6836721 -15.25075 -0.697474

fc3.weight f4 [1, 64]
000000 94 37 30 3e 19 49 a7 bd 2c 30 ff 3d 00 ce 8b be
       0.17208701 -0.08168239 0.1246036 -0.27305603
000010 ae c7 1e 3e 60 79 1e be d6 b7 14 bf c4 81 f9 bc
       0.1550586 -0.15475988 -0.5809301 -0.030457385
000020 b7 e8 99 3e 73 5d ae bf d7 67 a1 bf 3c ce 3d bf
       0.3006036 -1.3622268 -1.2609814 -0.74142814
000030 e8 1d 3a 3e 38 f3 58 3e 2c 91 13 3d 0c 14 d4 bd
       0.18175471 0.2118653 0.03602712 -0.10355386
000040 7e 72 a6 be 97 b4 3c be c0 7e 8e be 09 8c 29 3d
       -0.32509226 -0.18428265 -0.27831078 0.041393314
000050 12 36 50 3c e2 ba 92 3e 77 01 9d be ea 2b a1 3d
       0.012708204 0.28658205 -0.3066518 0.07869704
000060 bc 0a d2 bd 88 f5 6e 3a cf 02 f8 3d 59 b0 2d bd
       -0.10255954 0.00091155665 0.12109911 -0.042404506
000070 47 0f 84 bf 99 a8 36 bd 87 fa 0c 3e 8b 01 52 bd
       -1.0317162 -0.04459438 0.13767444 -0.051271003
000080 af 6b 86 be ab b8 75 be d5 84 dd bd 88 ac df be
       -0.2625403 -0.23996226 -0.10816351 -0.43686318
000090 d2 e3 0f be 94 3b 93 3e d1 01 5f bf 39 93 09 be
       -0.1405175 0.28756392 -0.87112147 -0.13435067
0000a0 67 fb 08 3e 7e 9f fc bd f1 88 70 be 40 1b 8d bf
       0.13377152 -0.12335108 -0.23489739 -1.1023941
0000b0 1e 02 f4 3d fb f6 9d 3e c1 be 26 3f fe 13 41 be
       0.11914466 0.30852494 0.6513482 -0.18855283
0000c0 29 9e 13 3d 42 94 8e be 61 c9 58 be a3 db 93 bd
       0.036039505 -0.27847487 -0.2117057 -0.07219627
0000d0 74 60 be 3d 5b 95 fe bd 95 8a 36 3c 86 b5 43 be
       0.09295741 -0.12430831 0.011141439 -0.19112214
0000e0 28 fc ac 3e 02 d8 e1 be 88 1c 25 bf e7 51 51 bf
       0.3378613 -0.44110113 -0.6449666 -0.817656
0000f0 2e ac f6 3d fd aa 5e be cf 9d 83 be 35 9b a5 3d
       0.120445594 -0.21744914 -0.25706336 0.08086244
