trained_models_1L_6/sensor_malfunction_model.pth (torch, 24479 bytes, 5 tensors)

fc1.weight f4 [64, 19]
000000 e6 a7 bd be a5 e6 24 be e3 2f 67 be f6 f2 ff 3b
       -0.3704216 -0.16103609 -0.22576861 0.0078109456
000010 47 03 10 3e 51 9e e2 bd a8 7c a3 be ef 02 22 be
       0.1406375 -0.11065353 -0.31931043 -0.15821432
000020 a8 75 81 3d bb 6e 92 be c4 2f 55 bd cc b0 0e be
       0.06321269 -0.28600106 -0.052047506 -0.1393463
000030 48 3b c4 3d d3 e7 06 3e e9 bd 6e 3e 60 62 0f 3e
       0.095816195 0.13174371 0.23314632 0.14002371
000040 2d bd b3 be f0 9a 26 be ab 26 85 bb 8a ad 3d 3e
       -0.35105267 -0.16270041 -0.0040634475 0.18523231
000050 fc 87 80 be 1e 15 ec bd 6d ee 9b 3e 11 44 2e 3e
       -0.25103748 -0.11527465 0.30455342 0.17018153
000060 b9 dc 03 bd ca 5f 93 be 28 bf 66 bd 75 7a ae 3e
       -0.03219292 -0.2878402 -0.056334645 0.34077802
000070 81 91 38 be 2e c7 11 3e 94 e4 30 3d ba 08 84 be
       -0.18024255 0.14236137 0.04318674 -0.25787908
000080 e1 cf 20 be 0b f6 6e be c4 3b 19 bd 2d d9 90 3d
       -0.157043 -0.23336045 -0.037410513 0.07072673
000090 ff 9b d5 bd 16 c7 71 3e e6 9d 06 41 36 54 c6 40
       -0.104301445 0.23611102 8.413549 6.1977797
0000a0 71 ad 03 c0 16 32 d9 c0 0d da 26 40 d8 97 c3 40
       -2.057461 -6.787364 2.6070588 6.1122856
0000b0 9b 03 c2 c0 86 ef aa c0 cc 3e c1 c0 a6 4a 01 41
       -6.06294 -5.3417387 -6.0389156 8.080725
0000c0 76 ac 7c 40 35 84 fe c0 83 7a a3 c0 c4 55 b3 c0
       3.9480262 -7.9536386 -5.108705 -5.6042194
0000d0 db 1c 6c bf 66 72 69 40 16 9c 08 3f 8d ae 5b 40
       -0.9223153 3.6476073 0.5336317 3.4325287
0000e0 c8 08 02 c1 4f 30 0e 40 bb 9f 88 40 f1 92 f6 3d
       -8.127144 2.2216985 4.2694983 0.120397456
0000f0 77 0d ec c0 26 41 c2 c0 a3 ee db bf 62 3a 77 40
       -7.3766437 -6.0704527 -1.7182201 3.8629384
000100 f4 21 b4 bf d6 21 3d c0 2e 68 da c0 ad ca df 3f
       -1.4072862 -2.9551902 -6.8252172 1.7483727
000110 d1 16 31 c0 af a0 9b 3f 94 d6 73 c0 06 5c 9c 40
       -2.7670176 1.2158412 -3.8099718 4.8862333
000120 c7 82 fd 3f ca 28 ca be 3a a1 90 3e 1b 07 7e c0
       1.9805535 -0.39484245 0.28248006 -3.9691837
000130 9b 6d 34 c0 28 b9 70 3d 8c 60 87 3e e6 42 81 c0
       -2.8191898 0.05877033 0.26440847 -4.0394163
000140 00 24 ab 3f d4 fc 42 3f 25 4b b9 bf 1e 2d de bf
       1.3370361 0.76167035 -1.4476057 -1.7357519
000150 8c 22 19 bf 93 8a b4 bf 1e 7b 93 3f 65 a4 48 c0
       -0.5981834 -1.410479 1.1521947 -3.1350338
000160 1f 55 2e c0 c2 05 1f c0 38 b3 3a 3f b2 b8 9b c0
       -2.7239454 -2.4847264 0.72929716 -4.866296
000170 a8 3b 6b 3f 28 5c b7 bf 41 2e c1 3e 76 aa b9 3c
       0.91887903 -1.4324999 0.377306 0.02266429
000180 80 38 3c 3c 6a 4c 0d bc 92 b4 dd bc 2e 7f 58 bd
       0.01148808 -0.008624176 -0.027063642 -0.052855663
000190 5a b8 9f bd 5c 50 8d bc 48 38 b0 3c 4b 10 07 bd
       -0.07798834 -0.017250232 0.021511212 -0.032974523
0001a0 6e 5d 39 3c 6d ce da bc db 7c 1b 3d 85 ea c8 bc
       0.011313779 -0.02670976 0.03796087 -0.02452589
0001b0 49 68 c6 3d 2b 26 a1 b9 1d 30 c5 3b f5 68 14 bd
       0.096878596 -0.0003073675 0.0060176984 -0.036232907
0001c0 bf 7d e7 bb 06 d8 0e bc 26 f0 6b c0 20 f6 37 40
       -0.0070645506 -0.008718496 -3.6865325 2.8743973
0001d0 99 6c a3 be 5f a5 ae 3f 06 4c f1 bf d5 f9 90 40
       -0.3191879 1.3644217 -1.8851326 4.530497
0001e0 e0 3a ae 40 62 15 2b c0 9b 5e 8a 40 b8 2c 19 bd
       5.444687 -2.67318 4.3240485 -0.037396163
0001f0 c8 2a 37 40 65 be 9d 3e 96 9e 4d 3f 1a c7 87 3f
       2.8619862 0.30809322 0.8032011 1.0607636
000200 cf 45 90 bf c9 fe 4f c0 b0 3d e1 3f d5 8e a4 3d
       -1.1271304 -3.2499259 1.759695 0.080350555
000210 c1 39 96 bf 18 de 05 40 f6 a8 92 3f ed 61 fd bf
       -1.1736375 2.0916805 1.1457813 -1.979551
000220 7b 54 db 3f 36 73 bb c0 27 19 01 c0 2e f7 b0 3f
       1.7135156 -5.857814 -2.0171602 1.3825433
000230 a2 48 8a bf 71 8f 0b 3f bc b2 88 c0 a1 c6 2c c0
       -1.0803416 0.5451575 -4.271818 -2.6996233
000240 ee c6 0a 3e 5a ac 6f c0 18 76 02 3e 91 94 a0 c0
       0.13552448 -3.7448945 0.12740362 -5.0181355
000250 d3 e9 12 3d d7 1e 6c 3e 79 3b cb be 6b bc 78 bf
       0.035867523 0.2305864 -0.39693812 -0.97162503
000260 ab 56 c9 40 ee 7b 5b 3f 40 37 99 3f 9f a0 b8 c0
       6.2918296 0.85735977 1.1969986 -5.769607
000270 85 4d 4a c0 2e 0c 06 41 9b b1 24 c0 63 8b 7b 3f
       -3.1609814 8.377974 -2.5733402 0.9825956
000280 95 c8 e5 40 d2 32 ac c0 5d b7 00 40 70 c6 38 3f
       7.180735 -5.3812037 2.0111916 0.7217779
000290 49 3b 6e c0 5e 28 5e c0 c8 a7 00 bf 2d 09 49 c1
       -3.7223685 -3.4712138 -0.50256014 -12.56474
0002a0 c6 86 21 c0 94 c8 ac 40 b0 5b 76 3e 63 32 40 3f
       -2.523851 5.3994846 0.24058414 0.75076884
0002b0 58 82 81 40 af 31 be bf 65 fb 0e 40 37 01 1a c1
       4.047161 -1.4858912 2.234094 -9.625297
0002c0 db bd 10 bd e1 1a 70 c0 28 cb 51 bf d6 57 58 c0
       -0.03533731 -3.7516406 -0.81950617 -3.380361
0002d0 6c c8 18 c0 98 72 13 c0 a1 2c 07 3f fd dc 93 3f
       -2.3872328 -2.3038692 0.52802473 1.1551815
0002e0 77 89 10 be bc e4 38 40 d8 df b7 c0 ac 40 9a bf
       -0.14114939 2.8889608 -5.7460747 -1.2050986
0002f0 2e 29 19 c0 ad 5a 9e bf 17 96 6f be 7f af 39 3e
       -2.3931384 -1.2371422 -0.23397098 0.18133353
000300 7e 94 6a be 09 27 0e bd 81 2f b7 bd 80 d7 0b be
       -0.22908208 -0.034705196 -0.089446075 -0.13656425
000310 13 9b 94 3e a5 0c 36 be ac 7f 50 3e 2f 59 52 be
       0.29024562 -0.17778261 0.20361203 -0.20541833
000320 00 fc 94 3e 68 0c ae 3d 89 f8 f3 bc cb de 39 be
       0.2909851 0.0849846 -0.029781597 -0.18151395
000330 7e 1a ad bd 66 4c ac be 9a 2e 86 3e 9a 79 e6 3c
       -0.084523186 -0.33652037 0.2620743 0.028134156
000340 d0 fa ab bb cc ce c5 be 86 cb 47 bd 4d 32 b7 be
       -0.005248405 -0.38634336 -0.04877808 -0.35780564
000350 80 35 09 be 10 9b 86 bb 00 64 a1 bd 37 00 96 be
       -0.13399315 -0.0041078404 -0.078804016 -0.2929704
000360 ae 5d ac 3e a5 fb 0e be f1 c4 59 3e 74 9d a7 3b
       0.33665222 -0.13963182 0.21266533 0.0051152054
000370 75 1f 36 be b5 5a 18 3f dd 61 4b 3e e8 0e f2 be
       -0.17785437 0.5951341 0.1986155 -0.47276998
000380 f8 95 4a bd b7 b4 17 3d fb 5d 35 3b 26 04 b6 be
       -0.049459428 0.037037577 0.0027674425 -0.3555004
000390 04 4d 39 40 41 b0 40 be e1 98 ce 3f 2d 9c ee c0
       2.8953257 -0.18817236 1.6140405 -7.4565644
0003a0 27 6e d5 3f 2c 03 a0 bf a2 94 1e 40 fc d3 14 40
       1.6674241 -1.2500968 2.4778218 2.3254385
0003b0 95 1d 9a 40 47 4a 9e c0 3b 80 b2 3f 50 73 ad be
       4.816111 -4.946567 1.3945383 -0.3387704
0003c0 d9 b1 89 3f ca 90 18 40 23 3a e0 3f cb 28 1c 40
       1.07574 2.3838372 1.7517742 2.4399898
0003d0 d0 b9 c0 c0 e6 93 80 40 82 75 23 3f 85 c4 f0 3a
       -6.022682 4.018054 0.6385118 0.0018369114
0003e0 98 ce 99 3d 8b 90 88 3c b8 f8 a8 bc c4 80 02 be
       0.07510108 0.016670486 -0.02062641 -0.12744433
0003f0 86 b6 5e 3d fa e5 a4 bc 0f ab 62 bd 64 84 5f bd
       0.054373287 -0.020129193 -0.055338915 -0.054569617

fc1.bias f4 [64]
000000 8d 53 7d c0 71 55 7c c0 39 16 5f c2 2d d6 e0 c1
       -3.9582245 -3.942715 -55.7717 -28.104578
000010 bf 31 a9 c1 f8 20 03 bf 0e 89 af c1 f3 03 af c1
       -21.14929 -0.5122218 -21.941921 -21.876928
000020 f4 63 32 c2 50 76 cb c1 11 d3 85 c0 91 81 90 c0
       -44.59761 -25.43277 -4.182015 -4.515816
000030 03 98 e4 c1 d6 c3 8f bf 3c bc 35 c2 f9 ee a9 c1
       -28.574224 -1.1231639 -45.433823 -21.241686
000040 a5 1a 39 c2 ab 5f 9b c1 40 58 f0 c1 d5 81 4f c2
       -46.27602 -19.421713 -30.04309 -51.87679
000050 4b 7f 77 c2 1a 77 33 42 8f 33 92 c0 f9 ec b7 c0
       -61.87431 44.86631 -4.568794 -5.7476773
000060 72 c3 6c c1 14 7c 05 c2 11 14 f8 c0 0d 13 80 c1
       -14.797716 -33.37117 -7.7524495 -16.009302
000070 a5 6d 67 c2 47 1d f0 c1 94 7c 1e c0 7f 4e 35 c2
       -57.857075 -30.014296 -2.4763536 -45.326656
000080 78 93 82 c0 c4 62 a1 c1 06 f4 91 c0 5e dc 40 c2
       -4.0805016 -20.173225 -4.561038 -48.215202
000090 7d 07 a3 c0 f5 6e 01 c0 b2 b1 37 c2 6a 51 50 c2
       -5.094664 -2.0223973 -45.92353 -52.079506
0000a0 e0 7c 2c c2 7d c6 3d c2 fc 5e c1 c1 fb e2 be c1
       -43.12195 -47.443836 -24.17138 -23.86083
0000b0 3c fa 19 c2 a4 34 d0 41 8d 77 5e c2 56 c4 3f c2
       -38.49437 26.025703 -55.61675 -47.941734
0000c0 14 7b dd c1 99 e0 3f c2 89 a9 ca c1 f7 46 a8 bf
       -27.685097 -47.969334 -25.33278 -1.3146657
0000d0 14 b6 4a c2 d6 a5 95 c1 84 85 5e c0 d0 2c ba c1
       -50.67781 -18.705975 -3.4768991 -23.271881
0000e0 7e 17 aa c1 0f 16 fb c0 b5 de 64 c0 2f 8b 1d c2
       -21.26147 -7.8464427 -3.576093 -39.38592
0000f0 82 55 28 c0 fa ac 32 bf 28 28 f9 bf 57 20 10 c0
       -2.630219 -0.6979519 -1.946538 -2.2519739

fc2.weight f4 [64, 64]
000000 7b de 91 bd d0 68 79 be 85 2b 80 40 53 35 3e 40
       -0.07122513 -0.24356389 4.0053124 2.9720047
000010 ed c6 84 3f 8d fa 62 3d 22 92 c3 bf 1f ae 1e 40
       1.0373207 0.055414725 -1.5278971 2.4793775
000020 82 80 08 3f 97 76 36 40 70 40 9f be 16 b8 3d bc
       0.5332109 2.8509881 -0.3110385 -0.011579534
000030 62 8f 90 bf f0 66 a4 bd 2f 0f de bf 0b c6 65 3f
       -1.1293757 -0.08027446 -1.7348384 0.89755315
000040 bd 06 c2 3e 0b 7c 42 40 a8 6c 37 40 f9 44 94 3f
       0.37895766 3.038821 2.8660069 1.1583549
000050 9f f2 80 be 24 4c 4a c0 6b 2e 67 3d eb a7 5b 3c
       -0.25185105 -3.1608973 0.056440752 0.013406734
000060 cf 04 79 40 58 e5 7a 40 db 86 59 c0 d2 4d a2 3e
       3.8909185 3.920248 -3.398856 0.31699997
000070 1c ab a8 3f 93 57 19 3f 72 b8 b1 bd ce f4 c7 3f
       1.3177218 0.5989925 -0.08677758 1.5621583
000080 61 bf 26 be c4 d4 1d be 3b 43 03 c0 0f cb 2c 3d
       -0.16283943 -0.15413195 -2.0509784 0.04218584
000090 79 d1 db 3c 37 68 82 3c 80 2e ad 3f 3e 7c 1b c0
       0.026833283 0.015918834 1.3529816 -2.4294581
0000a0 f8 26 6b 3f 02 20 87 3f 6d c8 9c 40 4e ba 0d 3f
       0.91856337 1.0556643 4.899466 0.55362403
0000b0 71 3f 06 bf e0 bb cf bf ca b1 28 bf 76 98 a6 3e
       -0.52440554 -1.622921 -0.65896285 0.32538193
0000c0 f3 77 f8 3f fa d3 9a 3e 1c d9 cb 3c e1 f9 e7 bd
       1.9411606 0.3023985 0.0248838 -0.113269575
0000d0 77 75 8c 3f 5a 59 a7 bf 8a 8e 51 be 9a 36 f6 3f
       1.0973347 -1.3074143 -0.2046453 1.9235413
0000e0 56 2b 06 40 d8 7c 15 be 61 aa a5 3d 84 ff 06 bd
       2.096395 -0.14598405 0.08089138 -0.032958522
0000f0 23 a8 15 be f6 f7 36 bd 53 10 06 be 15 c9 1a 3e
       -0.1461492 -0.044670068 -0.13092165 0.15115769
000100 7b 3a c5 bc ec 53 2b be 6b 26 5d be 74 04 26 bf
       -0.024075737 -0.16731232 -0.21596687 -0.64850545
000110 cc 55 ff 3d 1e c1 01 3e 73 84 cd be e5 e8 b9 bd
       0.12467536 0.12671325 -0.40140113 -0.09077624
000120 db da 43 3e 4e 74 8b be 0b de df be fb a3 9e bd
       0.19126455 -0.2723717 -0.43724093 -0.077461205
000130 4c e7 57 be 4d 31 63 be 27 6a cb bd f8 00 ad be
       -0.21084327 -0.22186776 -0.09932356 -0.33789802
000140 0a 25 3c 3d 24 03 29 bf 4d 79 ad 3c 56 a0 df bd
       0.04593376 -0.6602042 0.021176005 -0.109192535
000150 f7 68 69 be ff 9d fe be 3c 7d 82 3d aa 6b a4 be
       -0.22793947 -0.49729916 0.06371543 -0.3211339
000160 32 31 b2 be ec d2 c6 bd 77 25 a8 be 89 be 98 be
       -0.34803158 -0.09708199 -0.32841083 -0.29832867
000170 36 aa b1 be 0b 8c 47 bd b4 f5 46 be 87 49 a8 be
       -0.34700173 -0.04871754 -0.19429666 -0.32868597
000180 d0 ef b3 bd 54 4b 99 be d9 7d 17 bf 6e 63 03 be
       -0.08785975 -0.29940283 -0.59176403 -0.12830898
000190 d6 22 46 be 54 da 11 be 7d 02 d4 3d 30 fd 7d bd
       -0.19349226 -0.14243442 0.10352037 -0.062009037
0001a0 7c 4a f6 bd 51 74 96 be 0c 0c 5a be 8c eb db 3b
       -0.120259255 -0.29385617 -0.21293658 0.006711429
0001b0 ff 39 7a bd 84 ac 3f bf 56 ad c0 be 6f 99 ad bd
       -0.061090466 -0.7487261 -0.37632245 -0.08476531
0001c0 84 35 45 be 21 10 9e be 60 9d b6 3c fa 18 b3 bd
       -0.19258696 -0.3087168 0.02229184 -0.08744998
0001d0 a3 f4 73 3d ce 08 ec be 2d f9 cb bd d1 6e fb be
       0.059559476 -0.46100467 -0.09959636 -0.49107984
0001e0 0b a6 f4 be c4 63 a2 3d 52 5d 2d be d3 73 35 be
       -0.4778293 0.07929185 -0.1693013 -0.17719965
0001f0 b1 9b 92 be 36 4d 89 bd a0 eb 8a be b9 f1 2f be
       -0.28634408 -0.0670418 -0.27132893 -0.17182054
000200 7a fb ee bc 3b 4d 28 bc 1f 09 7f be 46 9b bb be
       -0.029172648 -0.010272319 -0.24905823 -0.36641902
000210 9f b0 b3 be f3 08 ff bd 00 db 8d bd 46 5b 5b bd
       -0.3509569 -0.12452879 -0.069265366 -0.053553842
000220 6a 22 23 bd 9e f2 fb 3c 0b 66 2b 3d 02 8c ae 3c
       -0.03982774 0.030755337 0.041845363 0.021306995
000230 25 46 8a be 26 eb 43 be ff 94 01 be 22 97 ac bd
       -0.2700664 -0.19132671 -0.12654494 -0.08427264
000240 ef 23 f6 bb 11 05 49 be c4 50 54 be 5c 31 59 bd
       -0.007511608 -0.19630839 -0.20733935 -0.05302559
000250 48 41 1d bd 90 9d 8b be 70 9b a7 bd a6 10 ad bd
       -0.038392335 -0.27268648 -0.08183944 -0.08450441
000260 70 b5 64 bd f7 8a 91 be 3c 75 e7 bd ca bd 3b bd
       -0.055837095 -0.28426334 -0.113016576 -0.045835294
000270 86 b8 7b bc d0 0b bd bd c9 b1 37 bd 91 98 42 be
       -0.015363818 -0.09230769 -0.044847284 -0.19003512
000280 32 ad e6 bc dd 98 72 be ed 39 ca bd 3a 90 00 be
       -0.028158758 -0.23691125 -0.0987433 -0.12555018
000290 82 3e 80 bd 7e 08 42 bd 7d f1 3c be 17 23 0d be
       -0.062619224 -0.04737138 -0.18451495 -0.13782917
0002a0 81 c4 7c bc 48 f6 3a be 2c df a9 bd a5 13 81 be
       -0.01542771 -0.18258011 -0.0829452 -0.252103
0002b0 ea 18 ce bd 70 71 20 be dc af ac bd 19 f6 7f bd
       -0.10063346 -0.15668273 -0.0843198 -0.062490556
0002c0 a0 3d a3 bd 90 6d b9 bd 23 cd 06 be b6 ed 27 3d
       -0.079707384 -0.090541005 -0.13164191 0.040998183
0002d0 1c 75 41 be 82 d1 02 be 78 b1 6c bd 74 8e c2 bc
       -0.1889233 -0.12775233 -0.057786435 -0.023749568
0002e0 b5 fc 44 bc ad 69 ac bd da 1d 51 bd 02 33 9b bc
       -0.012023141 -0.084185936 -0.05105386 -0.01894522
0002f0 ba 04 e8 bc 58 4a 3d 3c a0 d3 48 3d 2e ae 81 3c
       -0.028322566 0.011553369 0.049029946 0.015830126
000300 0d 84 06 bf 9b 3c 4c bc bb 2a c0 3e aa 91 89 bf
       -0.52545244 -0.012465621 0.375326 -1.0747578
000310 8d c2 22 bf 0c cc 5f 3e c1 35 11 bf f7 c8 8b 3e
       -0.6357811 0.21855181 -0.56722647 0.27301762
000320 cc 27 3b bf fa e1 60 bf aa 23 d0 be c6 7f e7 be
       -0.731076 -0.8784481 -0.4065221 -0.4521467
000330 41 3a 2a be c5 c2 0d 3f 5e 28 22 3e 75 83 af 3d
       -0.16623785 0.5537532 0.15835711 0.08569995
000340 7c 8e 8e 3c 3c bb ac bf 3c af 18 3f 93 6d ef bd
       0.017401926 -1.3494639 0.59642386 -0.116908215
000350 64 fa 44 bf 1f 1a ec bf 38 55 11 bd f6 e4 8f be
       -0.76944566 -1.8445472 -0.03548166 -0.2810437
000360 1b 7a 50 be 0e b1 6b bf 61 b7 3d c0 32 50 c2 bf
       -0.2035908 -0.9206704 -2.9643176 -1.5180724
000370 70 50 99 be 9a d2 2e bf 68 d7 1b bf 75 58 86 3e
       -0.2994418 -0.682901 -0.6087556 0.26239362
000380 54 35 47 3e cf 8e 47 3e 3c 0a 06 c0 c0 31 29 3f
       0.19453937 0.19488071 -2.0943747 0.6609154
000390 fb 3c 51 bd c8 a4 13 be 27 2f c8 bf 11 86 32 3f
       -0.051083546 -0.14418328 -1.563939 0.6973582
0003a0 9f c0 ca be 59 1b 14 bf 80 b4 4d bd da 61 9a 3d
       -0.39600083 -0.5785423 -0.050220966 0.07538195
0003b0 d6 92 09 3e 0b 59 e2 bf 2e 9b b3 3d da a6 84 be
       0.1343492 -1.7683424 0.087698326 -0.25908548
0003c0 91 6e 53 be d3 d6 9e bd 05 d1 b5 3e e8 b1 fd bd
       -0.20647646 -0.07755818 0.35511032 -0.123874485
0003d0 46 fb b2 be 27 46 a2 be 88 08 54 bf a5 fd 6a be
       -0.3495733 -0.31694147 -0.8282552 -0.2294832
0003e0 46 46 a4 3e 2b dc 09 be 4b e9 45 be f4 d9 de be
       0.32084864 -0.13462894 -0.19327275 -0.4352566
0003f0 5d 7a f0 be c9 c6 2b be 84 04 7b 3d d8 62 a1 bd
       -0.46968356 -0.1677505 0.061283603 -0.07880181

fc2.bias f4 [64]
000000 b8 51 18 c1 f0 cf 8e bf 9f a2 10 bf d4 a8 63 c0
       -9.519951 -1.1157207 -0.5649814 -3.5571795
000010 af 4a 3d bf d9 f3 9d bf e4 6e 5d c1 aa b7 72 bf
       -0.73942083 -1.2340041 -13.839573 -0.948115
000020 a9 f8 3b c1 cf 32 4f bf d0 95 5a c0 ef 39 2a c0
       -11.748208 -0.809369 -3.4153938 -2.659786
000030 fc 2c 04 bf 96 dd ba bf 95 8e 51 be 85 f8 e0 c1
       -0.5163114 -1.4598873 -0.20464547 -28.121347
000040 97 6a 93 c0 2f d0 e7 c1 e5 56 9a bf be 8c 86 bf
       -4.6067615 -28.976652 -1.2057768 -1.0511701
000050 33 a1 b6 c0 56 06 90 c1 4e f0 7b bf 85 d0 bc be
       -5.7071776 -18.003094 -0.9841355 -0.36877838
000060 c1 d7 72 c0 dc a2 2f c1 f0 eb 4a bf 46 75 59 c1
       -3.7944186 -10.977261 -0.7926626 -13.591131
000070 10 dc b4 bf 24 1d d9 40 21 22 90 bf 30 ee 5b bf
       -1.4129658 6.784807 -1.1260415 -0.8591032
000080 d8 04 47 bf 3d 22 2c c0 f9 8c 51 bf d0 9a 7d c1
       -0.77741766 -2.6895897 -0.8185573 -15.850296
000090 ba 35 20 bf 19 22 f0 be 8c cb ca c1 f2 be 27 bf
       -0.6258198 -0.46901014 -25.349388 -0.65525734
0000a0 43 f1 a0 c0 bd 8d ad bf 60 ad 43 bf 9a 00 a5 c1
       -5.029451 -1.355888 -0.76436424 -20.625294
0000b0 f3 b4 94 c0 ff 6a bc c1 43 88 03 bf 65 ff ab be
       -4.6470885 -23.552244 -0.51379794 -0.33593288
0000c0 08 e8 22 bf 9c 02 da bf fb 27 39 bf 30 22 dc bf
       -0.636353 -1.7032046 -0.7232663 -1.7197933
0000d0 98 0f 83 be 00 00 f2 be 9d 34 41 bf 7c 63 55 c1
       -0.25597835 -0.47265625 -0.75470906 -13.336788
0000e0 55 97 13 c1 61 b1 d0 c1 04 bf c7 bf c0 41 99 c1
       -9.224446 -26.08661 -1.5605168 -19.157104
0000f0 85 68 0e c1 dd 3c df be c7 a1 f9 c0 34 36 87 c0
       -8.900517 -0.43601122 -7.800998 -4.2253666

fc3.weight f4 [1, 64]
000000 02 60 aa bd 55 38 12 be 03 c6 a1 be b5 b1 9f 3e
       -0.08319093 -0.14279301 -0.31596383 0.31190267
000010 18 1f 59 be 2e c3 f5 bd ee c7 85 be 3c 94 1c 3d
       -0.21203268 -0.12000118 -0.26129097 0.038227305
000020 83 e2 75 bd a4 76 b1 3d 37 bc 99 be e6 9c 4f be
       -0.06003047 0.08665207 -0.3002641 -0.20274696
000030 bb 90 84 be a1 10 34 bd dd 55 54 bc c6 e3 c0 be
       -0.2589167 -0.04396117 -0.0129599245 -0.37673777
000040 a0 ea c5 3e e8 12 b8 bf 11 9e b6 3d 1f 13 82 be
       0.38655567 -1.438077 0.089168675 -0.25405213
000050 b7 3a c7 bd e1 3f 22 be 4b 6c 9f be af 20 85 be
       -0.09727996 -0.1584468 -0.31137308 -0.26001498
000060 a6 f1 1a 3d d5 d1 84 3f 7e 86 73 be 8f f9 85 be
       0.03782811 1.0376536 -0.23781773 -0.2616696
000070 fa 43 7c ba 18 87 be 3d 43 84 12 be 42 1a 84 3d
       -0.00096231664 0.09303111 -0.14308266 0.06450321
000080 9d 72 9e be ff 15 99 3e ad 51 3b 3d 5f 5e 18 3e
       -0.30946818 0.29899594 0.04573219 0.1487975
000090 e0 b5 cc bd a9 c5 98 be 90 d6 80 3e 83 61 63 bd
       -0.099956274 -0.29838303 0.25163698 -0.055512916
0000a0 fc e4 89 bd cd cb 3c be 48 66 8f be 26 85 1f 3f
       -0.067331284 -0.18437119 -0.28007722 0.62312543
0000b0 fe da 8b 3e 78 51 88 be 26 0c 88 3e 03 cf 03 3d
       0.27315515 -0.26624656 0.2657177 0.032179844
0000c0 3d 7e 70 be 65 0f 61 be 8c e6 56 3e 8a eb 9c 3d
       -0.23485656 -0.21978529 0.20986384 0.07662113
0000d0 3c ff c5 3c 90 01 3c bd 08 e5 d8 bd d6 94 b2 3e
       0.024169557 -0.045899928 -0.10590559 0.34879178
0000e0 a2 3d 88 3e 51 8a a4 bd 81 08 ec 3d ed e8 90 be
       0.26609522 -0.08034194 0.115250595 -0.28302708
0000f0 30 51 02 3f b5 57 87 be 26 85 34 be 15 78 86 3f
       0.5090513 -0.26434103 -0.17628917 1.0505396
