trained_models_1L_6/vandalism_model.pth (torch, 24343 bytes, 5 tensors)

fc1.weight f4 [64, 19]
-1.0520306 -0.5814819 -5.116509 3.8231316 0.14187233 -0.2673417 -6.5710645 -4.261015
-2.2888758 -0.94328064 -7.5196123 -10.257451 7.3774476 -2.4164264 2.4666464 1.691352
-3.9551387 -2.937613 -2.5904586 7.178251 3.5898416 3.2091596 -1.5352764 2.554429
1.0944364 1.5671973 0.8548593 -10.95476 -5.0965652 2.4137638 -2.211001 -7.77674
-3.2675192 2.2374423 -7.3303933 -1.4993923 -0.47696927 3.5790796 -10.646785 10.173656
0.40591663 0.70666623 10.846088 -7.9593444 -2.454015 0.51718813 3.999132 9.017405
-10.247454 1.4494032 -9.327908 1.5414937 -3.0507874 -1.4748583 4.8641205 -10.712531
-0.4518639 -0.7426687 0.58971095 0.05855724 17.871105 2.6160634 6.0040674 0.8674418
2.189883 8.352241 -5.520488 2.0754616 1.9654926 1.2915523 -7.085643 -10.03768
-3.5930161 0.24411097 -22.747993 13.507172 10.168017 10.2352495 -3.3805964 -3.999994
-17.533726 14.254539 -16.792892 3.8564541 0.8318637 -2.4203308 -10.490846 3.3718724
1.2461181 -5.7435226 1.7518674 -5.614647 2.2219582 -20.470606 -1.9427018 -0.47701165
-1.1038532 4.1396894 0.51007974 -9.314797 2.097987 8.650952 0.51181394 -1.4822911
-4.6645465 1.9601096 6.6017222 7.312135 -2.641948 -0.58590925 5.3293433 -5.9468207
-4.2634745 6.063309 1.7869579 9.942346 10.906517 7.139438 2.6196258 11.152336
4.526422 1.2023162 -2.2072027 -2.8932676 -0.9528663 1.7950443 -6.58138 -0.25778428
-4.360145 -2.5492368 -2.3248081 -11.180769 -8.93761 -2.9383202 0.9080504 8.713529
6.2673216 5.8769603 -1.1409326 -5.726609 4.8704786 -2.1246872 -4.818164 -4.8354006
7.374486 0.23205955 -3.214851 0.58141667 -9.874641 5.682783 -21.062271 -5.4503846
-7.658556 -3.7354586 -1.4185117 13.283734 4.044818 2.2503796 -0.45152852 -0.027086563
-4.878017 1.7987556 -4.798703 3.06349 -1.1065356 3.1316042 -3.5994537 2.0388942
2.470174 -2.9697216 3.1544452 6.3977203 7.830282 7.2520967 -4.8462057 -8.684695
-2.3314507 9.03544 11.062889 3.8824666 -5.769818 -3.9554613 0.3653806 -7.729779
-2.1044884 -6.4639125 2.875582 -2.7320158 -6.964393 0.09731318 0.93144923 -0.5625249
-5.9071026 -1.7923049 0.41703928 -2.2899373 -4.1001754 5.447832 7.789364 -1.0302017
0.15611021 7.2324085 -8.766429 -0.72893673 -13.235126 1.3043365 -8.385971 -8.769767
-0.10352941 0.33072817 -13.1637945 6.4768057 3.1763513 -0.84332085 2.6261132 -4.5452437
3.6549106 10.308509 -6.1261835 7.1131873 -1.4374293 -7.4812984 3.0398638 -7.2420607
1.1460302 6.645117 -9.449514 0.92526805 4.7182713 9.474946 2.8503373 -4.357039
-1.9137416 2.5992901 8.006898 -4.227482 11.939215 3.6363995 -0.47780856 -0.13326412
0.41291472 -2.89359 0.79565966 -0.4375207 -3.3080747 -6.307779 -0.15705961 2.6040728
1.3246027 -0.36071283 -4.81175 6.5112777 2.2663674 6.2166047 2.8959439 -7.8043976
00000000: f0a8 86bf ffdb 14bf 71ba a3c0 30ae 7440
00000010: fb46 113e 03e1 88be 2946 d2c0 3c5a 88c0
00000020: f17c 12c0 d77a 71bf aaa0 f0c0 851e 24c1
00000030: 0d14 ec40 bba6 1ac0 89dd 1d40 397e d83f
00000040: fe20 7dc0 da01 3cc0 13ca 25c0 3bb4 e540
00000050: f7bf 6540 df62 4d40 f083 c4bf c47b 2340
00000060: 7e16 8c3f ec99 c83f 0fd8 5a3f b246 2fc1
00000070: 1017 a3c0 1b7b 1a40 0a81 0dc0 0edb f8c0
00000080: 091f 51c0 4132 0f40 9592 eac0 16ec bfbf
00000090: 5135 f4be a40f 6540 3b59 2ac1 4cc7 2241
000000a0: 4ed4 cf3e 14e8 343f 9489 2d41 f3b2 fec0
000000b0: 950e 1dc0 7166 043f c7f1 7f40 4a47 1041
000000c0: 92f5 23c1 0b86 b93f 1c3f 15c1 aa4f c53f
000000d0: 1a40 43c0 28c8 bcbf e0a6 9b40 8766 2bc1
000000e0: b55a e7be 891f 3ebf 4cf7 163f b7d9 6f3d
000000f0: 06f8 8e41 956d 2740 5221 c040 aa10 5e3f
00000100: 0b27 0c40 c7a2 0541 d6a7 b0c0 5dd4 0440
00000110: 4395 fb3f 9651 a53f 96bd e2c0 569a 20c1
00000120: faf3 65c0 3af8 793e e4fb b5c1 601d 5841
00000130: 33b0 2241 95c3 2341 b15b 58c0 e7ff 7fc0
00000140: 1245 8cc1 9712 6441 d857 86c1 25d0 7640
00000150: 05f5 543f b3e6 1ac0 81da 27c1 c2cc 5740
00000160: cc80 9f3f f0ca b7c0 313d e03f 30ab b3c0
00000170: 9034 0e40 cdc3 a3c1 74aa f8bf df3a f4be
00000180: 104b 8dbf 5678 8440 9694 023f 6909 15c1
00000190: 6b45 0640 4d6a 0a41 3d06 033f b7bb bdbf
000001a0: f743 95c0 dfe4 fa3f 4f41 d340 03fd e940
000001b0: ad15 29c0 26fe 15bf fb89 aa40 5b4c bec0
000001c0: 626e 88c0 a106 c240 09bb e43f d913 1f41
000001d0: 1881 2e41 4776 e440 f3a7 2740 f86f 3241
000001e0: 73d8 9040 7fe5 993f cf42 0dc0 4c2b 39c0
000001f0: 0cef 73bf 03c4 e53f aa9a d2c0 4dfc 83be
00000200: 4f86 8bc0 b226 23c0 a8c9 14c0 6ee4 32c1
00000210: 7300 0fc1 700d 3cc0 fe75 683f 9d6a 0b41
00000220: e68d c840 0f10 bc40 140a 92bf 6240 b7c0
00000230: f6da 9b40 e0fa 07c0 662e 9ac0 9abb 9ac0
00000240: cafb eb40 05a1 6d3e 1ec0 4dc0 b9d7 143f
00000250: 88fe 1dc1 5cd9 b540 887f a8c1 8d69 aec0
00000260: e412 f5c0 c111 6fc0 cb91 b5bf 2d8a 5441
00000270: 266f 8140 3806 1040 bf2e e7be a4e4 ddbc
00000280: b718 9cc0 a03d e63f fa8e 99c0 3810 4440
00000290: f5a2 8dbf 346c 4840 735d 66c0 3e7d 0240
000002a0: 5517 1e40 eb0f 3ec0 6ee2 4940 20ba cc40
000002b0: ac91 fa40 2d11 e840 1e14 9bc0 83f4 0ac1
000002c0: 7d36 15c0 2a91 1041 9801 3141 557a 7840
000002d0: 59a2 b8c0 4726 7dc0 2a13 bb3e 595a f7c0
000002e0: f0af 06c0 5fd8 cec0 8909 3840 59d9 2ec0
000002f0: 4fdc dec0 224c c73d 7573 6e3f a201 10bf
00000300: fc06 bdc0 3f6a e5bf 2c86 d53e 558e 12c0
00000310: a334 83c0 a454 ae40 7842 f940 a6dd 83bf
00000320: 5bdb 1f3e e46f e740 4b43 0cc1 999b 3abf
00000330: 13c3 53c1 80f4 a63f f02c 06c1 f750 0cc1
00000340: 3a07 d4bd 3455 a93e e79e 52c1 fe41 cf40
00000350: 5749 4b40 e0e3 57bf 3d12 2840 a372 91c0
00000360: 0eea 6940 a7ef 2441 b209 c4c0 3b9f e340
00000370: affd b7bf cc66 efc0 218d 4240 f6be e7c0
00000380: 1eb1 923f cca4 d440 3631 17c1 5ede 6c3f
00000390: 14fc 9640 6199 1741 ed6b 3640 dd6c 8bc0
000003a0: 7cf5 f4bf c55a 2640 411c 0041 8847 87c0
000003b0: 0607 3f41 c5ba 6840 53a3 f4be 6476 08be
000003c0: 8f69 d33e 9430 39c0 5ab0 4b3f b702 e0be
000003d0: 7fb7 53c0 53d9 c9c0 3cd4 20be 21a9 2640
000003e0: 958c a93f 5aaf b8be dbf9 99c0 635c d040
000003f0: 2a0c 1140 6dee c640 2557 3940 a0bd f9c0

fc1.bias f4 [64]
-20.355425 -22.52358 -10.392592 23.733023 -6.238441 -27.209877 -16.30096 22.826796
-22.326027 -11.4534235 -12.147847 -12.199344 -12.766137 -20.030294 -20.235115 -6.7384343
-1.5931957 -10.185043 -22.418674 -16.627407 -11.034669 -14.719629 -1.71176 -12.083542
-15.120814 -24.754286 -18.527292 7.5136166 14.323455 -16.927662 21.250572 -19.73707
-0.41640255 -10.758295 -14.839596 91.41132 -14.955799 -9.448706 -8.961477 -16.161665
8.478611 -7.646767 -6.280792 63.9556 -2.2255497 2.772116 -20.065039 -26.187807
-11.532602 -21.340109 -17.020405 -17.738157 15.675623 -16.973719 -11.064472 30.022182
2.5474677 11.652974 -5.34417 3.238124 -1.035779 -16.668022 -16.140146 -24.729868
00000000: e9d7 a2c1 4b30 b4c1 0f48 26c1 3bdd bd41
00000010: 4fa1 c7c0 d4ad d9c1 5e68 82c1 479d b641
00000020: b49b b2c1 3941 37c1 955d 42c1 8330 43c1
00000030: 1942 4cc1 0b3e a0c1 84e1 a1c1 41a1 d7c0
00000040: d6ed cbbf f0f5 22c1 7259 b3c1 ee04 85c1
00000050: 018e 30c1 9a83 6bc1 f41a dbbf 3056 41c1
00000060: dbee 71c1 c708 c6c1 e537 94c1 8c6f f040
00000070: df2c 6541 da6b 87c1 2c01 aa41 85e5 9dc1
00000080: b732 d5be fa21 2cc1 fc6e 6dc1 99d2 b642
00000090: f44a 6fc1 e62d 17c1 3662 0fc1 174b 81c1
000000a0: 64a8 0741 51b2 f4c0 40fc c8c0 89d2 7f42
000000b0: 686f 0ec0 596a 3140 3385 a0c1 a180 d1c1
000000c0: 8a85 38c1 8bb8 aac1 ca29 88c1 bfe7 8dc1
000000d0: 5acf 7a41 2dca 87c1 1408 31c1 6e2d f041
000000e0: b609 2340 9572 3a41 7103 abc0 6c3d 4f40
000000f0: 6894 84bf 1c58 85c1 051f 81c1 c5d6 c5c1

fc2.weight f4 [64, 64]
0.006128419 -0.17532925 -0.361804 -0.23803246 0.0008001785 0.031462815 -0.23039122 -0.044082843
0.038393293 0.038757633 -0.084861405 -0.093567386 0.005166273 -0.11527788 -0.08055225 0.013410134
-0.0016270679 0.028014774 0.112380534 -0.0033982706 -0.07239886 -0.27354574 -0.119558655 -0.14901063
-0.29845238 -0.03558332 -0.051586848 -0.035859 -0.093878806 0.0442567 -0.08415443 -0.06869943
-0.05242236 -0.0016003482 0.023368435 -0.3375163 -0.01892894 -0.0079264315 -0.102222174 -0.053511243
-0.23350748 -0.26356187 -0.11403534 -0.18562822 -0.06082659 -0.11001508 -0.1111826 0.007809829
-0.18753175 -0.1001946 -0.10971471 0.0005872933 -0.34525502 -0.13557225 -0.12720321 -0.06172622
0.026205994 -0.14236256 -0.030146815 -0.1460775 -0.03423854 -0.326887 -0.18410747 -0.030740038
-0.11510279 -0.3149738 -0.16811778 -0.12609811 -0.2798085 -0.0091653885 -0.10057635 0.24017376
-0.67412734 -0.336747 -0.1091052 -0.31446993 0.19502243 -0.6656211 -0.30754995 -0.38211945
-0.24195226 -0.3038375 -0.09740595 -0.17423421 -0.6971169 -0.12831952 -0.14092393 -0.24578413
-0.2514927 -0.22792563 -0.049202822 -0.44685948 -0.3458232 -0.07402882 -0.07748264 -0.67531925
-0.5015956 -0.0649185 0.067121334 -0.36368325 -0.03874774 -0.1182377 -0.3735114 -0.25643
-0.052587293 -0.57116055 -0.17017418 0.034818217 -0.138646 -0.47829944 -0.037562516 -0.69197077
-0.35993612 -0.18455829 -0.69649625 -0.40521362 -0.42801517 -0.09738515 -0.47923216 -0.03508762
-0.15957569 -0.5185803 -0.5258246 -0.12517759 -0.1686569 -0.13871177 -0.37820727 0.11592255
7.7585526 10.4165325 2.359359 -4.0270967 -2.4159038 12.290094 0.0049497774 -4.855752
12.95155 5.136957 5.17696 2.376643 4.184564 4.474674 4.211918 1.7594173
-2.9226885 0.65305555 7.1958475 12.518264 11.812555 0.061949067 -4.481925 12.975132
1.3535104 17.723116 12.828429 0.05887324 4.7592897 5.540046 -6.0071774 6.9800563
-1.214553 1.255835 1.7060218 -5.1898165 10.32937 -0.16205175 9.617181 8.276528
-2.4409025 5.008451 -1.802124 -7.8297296 3.799868 -3.533358 16.618544 14.13875
3.4700596 9.7758255 3.6340287 13.571822 -6.504127 2.3234823 9.209365 -5.5654383
-1.1660941 -4.49896 1.6597713 -5.4605613 0.63157344 9.571536 -1.6001531 5.062292
-1.1565028 -0.96564436 1.2853346 -1.5676042 -0.030130178 -1.1888843 0.2993754 -2.2430637
-0.34289128 -1.4663683 -1.9708624 -0.8328477 -0.5810284 -0.21922413 -0.90977216 -1.5766891
-0.5092732 -0.38780475 0.03370898 -0.649204 0.9608227 -0.7504059 -1.3552619 -0.590905
-0.7943247 -0.03647551 -1.1706823 0.051561113 1.0398234 -0.019501006 1.2035015 -0.6602541
1.2230484 -0.47693777 -0.83333147 -1.9245665 -0.012737119 -0.27755865 -1.8778191 -1.464282
-0.83900154 -1.4386601 -1.218486 -1.2381468 -1.3111084 -1.9443569 -0.8877416 0.52334297
0.5455114 -0.75389796 -1.3059721 -0.44138327 -0.004345513 -0.36265126 -1.2913816 -0.8279109
-0.70088255 -1.5154909 0.7065229 -1.0885909 -1.0859936 0.96336865 1.057915 -0.94240797
00000000: e8d0 c83b 8389 33be 603e b9be c8be 73be
00000010: 12c3 513a 27df 003d adeb 6bbe 3690 34bd
00000020: 4942 1d3d 53c0 1e3d d1cb adbd 42a0 bfbd
00000030: d749 a93b cf16 ecbd 94f8 a4bd 2eb6 5b3c
00000040: 5743 d5ba 3d7f e53c c427 e63d 85b5 5ebb
00000050: da45 94bd 300e 8cbe 2bdb f4bd 3e96 18be
00000060: c0ce 98be d1bf 11bd bb4c 53bd e3e0 12bd
00000070: 8843 c0bd 8346 353d 2859 acbd 49b2 8cbd
00000080: d4b8 56bd c6c2 d1ba 296f bf3c f0ce acbe
00000090: dd10 9bbc dddd 01bc dc59 d1bd 9b2e 5bbd
000000a0: 961c 6fbe 95f1 86be 5c8b e9bd 5315 3ebe
000000b0: 4d25 79bd 964f e1bd b4b3 e3bd 98e9 ff3b
000000c0: 5308 40be d432 cdbd 1bb2 e0bd 96f4 193a
000000d0: 44c5 b0be 74d3 0abe 8f41 02be a2d4 7cbd
000000e0: f4ad d63c 7ec7 11be 74f6 f6bc 5795 15be
000000f0: b63d 0cbd bc5d a7be ab86 3cbe 88d2 fbbc
00000100: 03bb ebbd 3f44 a1be 1127 2cbe dd1f 01be
00000110: 0f43 8fbe 6d2a 16bc f9fa cdbd 1cf0 753e
00000120: 9c93 2cbf 1a6a acbe 8c72 dfbd 3402 a1be
00000130: f6b3 473e 2566 2abf 3077 9dbe 29a5 c3be
00000140: 55c2 77be 9790 9bbe c57c c7bd 746a 32be
00000150: 4176 32bf 3166 03be 5d4e 10be d6ae 7bbe
00000160: a7c3 80be 5665 69be e688 49bd c4ca e4be
00000170: bd0f b1be 6c9c 97bd 38af 9ebd b9e1 2cbf
00000180: 9268 00bf fef3 84bd e976 893d b134 babe
00000190: f3b5 1ebd 9b26 f2bd e33c bfbe cb4a 83be
000001a0: c665 57bd 9437 12bf 2442 2ebe 8c9d 0e3d
000001b0: 38f9 0dbe aae3 f4be 27db 19bd ff24 31bf
000001c0: 8c49 b8be d9fc 3cbe 944d 32bf 2978 cfbe
000001d0: ce24 dbbe de71 c7bd eb5d f5be 09b8 0fbd
000001e0: cf67 23be aec1 04bf 719c 06bf 8e2e 00be
000001f0: 65b4 2cbe 750a 0ebe 62a4 c1be cd68 ed3d
00000200: 1046 f840 1eaa 2641 bdff 1640 fadd 80c0
00000210: 2b9e 1ac0 3aa4 4441 be31 a23b 5262 9bc0
00000220: 8c39 4f41 f461 a440 a8a9 a540 eb1a 1840
00000230: f3e7 8540 8830 8f40 08c8 8640 9634 e13f
00000240: 540d 3bc0 a62e 273f 6244 e640 cf4a 4841
00000250: 3a00 3d41 4ebe 7d3d ee6b 8fc0 249a 4f41
00000260: d43f ad3f f1c8 8d41 3f41 4d41 1125 713d
00000270: 1a4c 9840 0f48 b140 cc3a c0c0 9f5c df40
00000280: 7976 9bbf 34bf a03f ec5e da3f fa12 a6c0
00000290: 1945 2541 e5f0 25be f9df 1941 a96c 0441
000002a0: bf37 1cc0 3b45 a040 00ac e6bf 258d fac0
000002b0: 0a31 7340 8a22 62c0 c7f2 8441 5238 6241
000002c0: 7515 5e40 c869 1c41 ed93 6840 2f26 5941
000002d0: cf21 d0c0 efb3 1440 8f59 1341 1218 b2c0
000002e0: 9242 95bf 7bf7 8fc0 6373 d43f ebbc aec0
000002f0: ccae 213f 0325 1941 d1d1 ccbf 4cfe a140
00000300: 4908 94bf 7834 77bf d885 a43f 41a7 c8bf
00000310: 90d3 f6bc 5c2d 98bf bc47 993e 5b8e 0fc0
00000320: 728f afbe f5b1 bbbf 3845 fcbf 8235 55bf
00000330: 47be 14bf 4a7c 60be d4e6 68bf f3d0 c9bf
00000340: ba5f 02bf 588e c6be 6d12 0a3d 3c32 26bf
00000350: 7af8 753f 9a1a 40bf 3979 adbf 8d45 17bf
00000360: dd58 4bbf 5867 15bd ebd8 95bf bf31 533d
00000370: ef18 853f 93c0 9fbc 560c 9a3f 6a06 29bf
00000380: da8c 9c3f 3031 f4be 3655 55bf 3258 f6bf
00000390: 59af 50bc 2b1c 8ebe 605c f0bf 986d bbbf
000003a0: cec8 56bf 0426 b8bf 59f7 9bbf 987b 9ebf
000003b0: 66d2 a7bf b0e0 f8bf 0943 63bf cef9 053f
000003c0: a3a6 0b3f 75ff 40bf 182a a7bf fdfc e1be
000003d0: ce64 8ebb 6dad b9be fe4b a5bf f8f1 53bf
000003e0: 0a6d 33bf 9bfb c1bf afde 343f f256 8bbf
000003f0: d701 8bbf 549f 763f c269 873f a641 71bf

fc2.bias f4 [64]
-0.6037336 -0.9077939 -7.3675976 -4.018025 -0.29129937 -1.2717949 -1.1049162 -0.6752165
-1.2109964 -0.79556847 -1.6096569 -0.48768625 -4.5989594 -3.178779 -3.7304795 -0.24103521
-1.2589289 -0.962581 -0.7659541 -4.9802976 -1.4381233 -1.8235908 -3.68677 -3.4021354
-0.4598288 -0.49754417 -0.8295221 -1.9710543 -2.712912 -1.7168275 -0.69322485 -1.298739
-0.86646783 -0.5537983 -4.4491806 -0.46075538 -5.0314784 -1.8699983 -1.2114838 -1.9891045
-0.4611657 -0.8783738 -10.2211895 -0.74077004 -0.7933505 -2.242295 -1.1236768 -6.68463
-0.7949506 -1.0332774 -0.47517174 -4.3663282 -0.33383214 -0.73026603 -0.99630255 -0.5868033
-0.96935153 -1.0151415 -1.0289122 -0.71724 -1.532716 -5.8323393 -1.2748317 -2.096817
00000000: 498e 1abf 2e65 68bf 5cc3 ebc0 a993 80c0
00000010: 3125 95be 2dca a2bf e56d 8dbf fdda 2cbf
00000020: ee01 9bbf 60aa 4bbf 3d09 cebf 03b2 f9be
00000030: ad2a 93c0 1d71 4bc0 2dc0 6ec0 efd1 76be
00000040: 9524 a1bf b56b 76bf 9115 44bf 995e 9fc0
00000050: 6d14 b8bf 6c6b e9bf 0af4 6bc0 96bc 59c0
00000060: ae6e ebbe 1cbe febe 8f5b 54bf 824b fcbf
00000070: 5aa0 2dc0 01c1 dbbf 2f77 31bf 143d a6bf
00000080: d6d0 5dbf bac5 0dbf b05f 8ec0 21e8 ebbe
00000090: df01 a1c0 1b5c efbf e711 9bbf fa9a febf
000000a0: e91d ecbe 1bdd 60bf fe89 23c1 1ba3 3dbf
000000b0: 0519 4bbf c381 0fc0 a4d4 8fbf 7de8 d5c0
000000c0: e281 4bbf 6f42 84bf b649 f3be f6b8 8bc0
000000d0: 0cec aabe b7f2 3abf af0d 7fbf be38 16bf
000000e0: 6c27 78bf 28f0 81bf 65b3 83bf 0a9d 37bf
000000f0: 0a30 c4bf 86a2 bac0 af2d a3bf 4032 06c0

fc3.weight f4 [1, 64]
-0.28406543 -0.20957255 -0.42569327 0.0029848816 0.027710766 -0.07944978 -0.29253373 0.26004872
-0.033738542 0.15888257 -0.28408602 0.005049019 0.015969815 1.4190544 -0.03552353 -0.18602867
0.30431253 -0.28687915 -0.31436223 0.3274311 0.05840658 0.27763748 -0.15742329 0.07599457
0.33139846 -0.042813167 -0.06471536 -0.0475461 -0.23365206 0.107588045 -0.14008263 -0.26882586
-0.14716993 0.28220803 0.62060285 -0.27961034 1.2978923 0.2009718 -0.066022985 -0.34010312
-0.25437564 0.12452143 -0.5469811 0.07403029 0.078089245 -0.31750646 -0.25533628 1.0935774
-0.14414679 -0.4206529 0.31064397 0.2889871 -0.072509736 0.011661128 -0.06461798 -0.2569018
0.1445165 0.175041 0.24843545 -0.31491688 0.096675016 0.18001103 0.09079748 0.104821905
00000000: 0671 91be 309a 56be 78f4 d9be 019e 433b
00000010: b001 e33c 91b6 a2bd fbc6 95be 1b25 853e
00000020: 6d31 0abd 1db2 223e b973 91be 3e72 a53b
00000030: 21d3 823c 93a3 b53f 1f81 11bd 4d7e 3ebe
00000040: dace 9b3e d3e1 92be 16f4 a0be 0da5 a73e
00000050: bd3b 6f3d 8026 8e3e 9233 21be 0ba3 9b3d
00000060: 0fad a93e dc5c 2fbd 7d89 84bd b3bf 42bd
00000070: 7c42 6fbe 1f57 dc3d d271 0fbe 8ba3 89be
00000080: b7b3 16be 927d 903e d4df 1e3f 1629 8fbe
00000090: 5621 a63f 8dcb 4d3e 0f37 87bd ff21 aebe
000000a0: 863d 82be 1705 ff3d f406 0cbf 319d 973d
000000b0: 41ed 9f3d 3590 a2be 70bb 82be 58fa 8b3f
000000c0: 379b 13be d15f d7be ba0c 9f3e 1ef6 933e
000000d0: fc7f 94bd 510e 3f3c 6e56 84bd a288 83be
000000e0: 22fc 133e f33d 333e dd65 7e3e c93c a1be
000000f0: 8dfd c53d d054 383e 07f4 b93d deac d63d
