trained_models_1L_3/connectivity_issue_model.pth (torch, 24479 bytes, 5 tensors)

fc1.weight f4 [64, 19]
00000000: ac5f 92be be6f 1c3e 2b76 ec3e 647d 333f
00000010: d485 45be 544c bebe 6ff2 f23e 4fe7 00bd
00000020: 28bc 46be afbc 223e 5575 ce3e e5ac 773e
00000030: 84a6 08bd 4ef0 28be ef8a acbd ea43 eb3e
00000040: 1a29 74bf f8bf 3bbb 187a 2dbf 89ae 0dbd
00000050: e78c 803e d070 3c3e 30a2 393e f8dd 063f
00000060: 4e0c bebe b5cb 9a3e a21d a53e 545a 2dbe
00000070: 32c4 6e3f 3e2d 563f b446 5abf c00a cebe
00000080: a318 6abe 37e5 08bf 4b94 1d3f 3210 c1be
00000090: 48c0 dbbe 42b9 babe 6d7d ebbd 6d16 82bf
000000a0: a5a8 f1be 6c3f c2be d351 023f f809 4bbf
000000b0: 4941 d7be 5bbc 9abd 08a0 9cbd de57 2cbf
000000c0: 0cae 1a3f 00da 47bf 5733 0c3e 7249 e3be
000000d0: 2c6e 163f 9df7 a83e 8eeb c93d 9282 43be
000000e0: 433d 6fbd 1452 02be e723 88bd a16e f13e
000000f0: 23ac 053f 5659 273e 799c 18be 54bd 223d
00000100: 3438 a3bd a3f6 823f fa63 f83e 1fe6 dabd
00000110: 4449 55bf ceb9 453e e29c 74bd 8b58 843d
00000120: 7954 a8be 9b27 49be 3f35 063f c107 1bbf
00000130: ed5f 843e 2815 c53d b359 d83e d750 643f
00000140: 9323 38bf bec2 dcbd f4cb c0be f9c5 1cbf
00000150: 4ca0 bdbd ff67 003e eb6c ffbe adf8 18be
00000160: 8b88 8b3e 44ed dc3e 08c2 15bf d093 303e
00000170: 4e6e ca3e da45 433e e6fe a83e b2cf 2f3d
00000180: f580 20bf 3cd0 86be ead6 21bf e24b 7c3d
00000190: e445 f0be 6cd8 dfbe 34a1 1dbc 298b 6dbd
000001a0: fb83 6dbe 9b72 073f bbfb d2be e324 f93e
000001b0: 44ec c4be afeb 22be 026c 99bf 80ea 813e
000001c0: f5a2 363e aac9 043b 7e44 833e e2be e53d
000001d0: b17b a7be a22e 31bf 9793 25bd ebf6 5d3d
000001e0: 5045 e83e b0f6 e33e 682a 7dbe 21e0 993e
000001f0: 7e75 403e b8e0 a3be f371 6ebf fa0d a0be
00000200: 5deb 333f d4e0 fcbc 8455 b93d 8e31 adbe
00000210: 82dd 60be eff8 ff3e 6df8 c2be b74a 833c
00000220: 486a 54bd 0273 1f3d 52df 1cbf c126 5e3f
00000230: 18dc bebe 9b1b e2be c7b1 803e 9a70 ff3e
00000240: 774d b3bf 3de2 49bc fb93 91be 0e19 853e
00000250: ad71 f7be 3c26 33be 252c 1f3f cf3a 013f
00000260: 3bff fe3e e385 0ebe 7cbc fbbe 76c6 973e
00000270: e22f 9b3e 7b6a 05bf c99c 4fbf d4ac 313f
00000280: d53f d5be 2ae1 ffbe 7659 40be 4472 11bf
00000290: af9e dabe 6b58 89bd cc59 f23e 5034 5b3f
000002a0: e693 f13e d6d3 653e 2b89 703e bb58 193f
000002b0: 68f4 03bf a88c 853e 3a73 0bbf f2d8 bf3e
000002c0: f9e6 3b3f 29e6 07bd 6a01 38be f274 c23e
000002d0: 2eeb e43d 6507 bfbe 189c 283f 0996 593e
000002e0: e705 d3be 4e21 d43d 4f84 3dbe 0de9 3e3f
000002f0: 85b7 b3be 9d74 1ebf ce08 13be bd6a 473e
00000300: dc40 353e d98a a93e 6e86 61bf c002 11bf
00000310: 3b27 c8be 3d8d fc3d 426d 633d 0190 013e
00000320: 43a5 4b3f 39ef 2e3f 3f3e 3b3e 99d8 fb36
00000330: ce90 833e 5d1c ddbe c5cc 3e3f 25ed c03d
00000340: 892d d93e 358b 26bf 516e fa3d f1fc b73e
00000350: 6a3b ba3e f501 e13e e5a8 223f 963d dbbe
00000360: 3002 183f 7bbe 1cbf 4b53 8dbe 782c 833e
00000370: f3b1 5a3f 36f6 fb3d 53a3 88be 14f8 9a3e
00000380: f846 063e ce38 11be 8820 4fbd f469 223f
00000390: f0b1 023d f6de 0ebf 193a 7e3f f3b9 b03e
000003a0: 3bbb 0a3e fe7a 98bd 15a2 81be eb6d 3e3f
000003b0: 3a77 f8be 7bae 093f 698a b43e 5681 51bf
000003c0: 47ed 903d aba3 0f3e aa5e 41be 1396 b23d
000003d0: d9a1 8e3e 40cc f83e 0ec2 b03d 05a0 3e3f
000003e0: 6704 8abf 1a5a 63bc d42b db3e 79f9 2d3f
000003f0: 1e06 0d3e dc90 4ebf d237 b33e 1abc bb3e
-0.28588617 0.15277001 0.46183905 0.70113206 -0.19289333 -0.3716761 0.47450587 -0.031470593
-0.19407713 0.1589229 0.40323892 0.24187048 -0.033361927 -0.16497919 -0.08424937 0.45950252
-0.95375216 -0.0028648358 -0.67764425 -0.034590278 0.251075 0.1840241 0.18128276 0.5268245
-0.37118763 0.3023354 0.3224917 -0.16928989 0.9326812 0.83662784 -0.85264134 -0.40242577
-0.2286096 -0.53474754 0.615544 -0.3770767 -0.42920136 -0.36469465 -0.114985324 -1.0163094
-0.47198978 -0.37939012 0.50906104 -0.79312086 -0.42041996 -0.07555457 -0.07647711 -0.67321575
0.60421824 -0.78067017 0.1369146 -0.44391972 0.5876186 0.33001414 0.098593816 -0.19092777
-0.058408033 -0.12726623 -0.06647473 0.47154716 0.52215785 0.16342673 -0.1490344 0.03973134
-0.07969704 1.0231518 0.48513776 -0.10688423 -0.8331492 0.1930916 -0.059719928 0.06462201
-0.32876948 -0.19644015 0.52425 -0.60558707 0.25854436 0.09623176 0.42255935 0.8918585
-0.7192928 -0.107793316 -0.37655604 -0.6123958 -0.0925909 0.12539671 -0.49887785 -0.14938612
0.27252612 0.4314977 -0.58499193 0.17243886 0.3953728 0.19069615 0.33006972 0.042922683
-0.6269677 -0.26330745 -0.6321856 0.061595805 -0.46928322 -0.43719804 -0.009620953 -0.05799404
-0.23194878 0.5290925 -0.4120768 0.48660955 -0.38461506 -0.15910219 -1.1986086 0.25374222
0.178356 0.0020261803 0.25638193 0.11218049 -0.32711557 -0.6921178 -0.040423956 0.054190557
0.4536538 0.44524145 -0.24723208 0.3005381 0.1879482 -0.32007384 -0.9314262 -0.31260663
0.7028101 -0.030868925 0.09049514 -0.3382687 -0.21959499 0.4999461 -0.3808016 0.016026838
-0.05185917 0.03892804 -0.6127826 0.86777884 -0.37277293 -0.44161686 0.25135633 0.49890596
-1.4008015 -0.012322006 -0.28433213 0.25995678 -0.48328915 -0.17495054 0.62176734 0.5048036
0.498041 -0.13918261 -0.4916724 0.296436 0.3030997 -0.521156 -0.8109861 0.6940434
-0.41650262 -0.49976474 -0.18784127 -0.5681498 -0.4269919 -0.067063175 0.47334135 0.856267
0.4718315 0.2244409 0.23489825 0.59901017 -0.5154481 0.26083875 -0.54472697 0.37470204
0.7339931 -0.033178482 -0.1796929 0.37979847 0.111776695 -0.3731033 0.6586318 0.2124864
-0.4121544 0.10357915 -0.18507503 0.7457436 -0.35100952 -0.6189669 -0.14358827 0.19474311
0.17700523 0.33113745 -0.8809575 -0.5664482 -0.3909243 0.123316266 0.05552412 0.1265259
0.79549044 0.68333775 0.18285464 7.505598e-06 0.25696415 -0.43185702 0.74531204 0.09420232
0.42417553 -0.65056163 0.122280724 0.35935166 0.36373454 0.43946806 0.6353896 -0.42820424
0.5937834 -0.6122815 -0.2760261 0.25619864 0.8542778 0.123028204 -0.26687106 0.30267394
0.1311301 -0.14181826 -0.050568134 0.6344292 0.031907976 -0.5580896 0.993074 0.34516868
0.13547985 -0.07445334 -0.2531897 0.7438647 -0.48528463 0.5378186 0.3526185 -0.81837976
0.07076507 0.14027278 -0.18883768 0.08720031 0.27857855 0.4859333 0.08630763 0.7446292
-1.0782593 -0.013876462 0.42806876 0.6795879 0.13771865 -0.8068979 0.35003525 0.36666948

fc1.bias f4 [64]
00000000: 1899 4bbf 3ecc 53bf 296b 0dbf df68 62bf
00000010: 03f1 3ebf c62a 82bf 6d77 72bf eaa7 46bf
00000020: 3afc 05bf 7ca7 34bf e5e7 92be c824 adbe
00000030: 430e 4ebf 655e fdbe 79ab 7bbf 364f 4cbf
00000040: ae58 49bf 1ec7 d1be a97f 1cbf 3bab 76bf
00000050: 70fa 31bf 7e68 64bf 90ef 62bf 756b 95bf
00000060: 53d2 91bf fac2 56bf 7921 2e3e aeb1 88bf
00000070: 2fbd 38bf 6290 0cbf e37f 3cbf a8bf 99be
00000080: c3f1 3abf 5a6a 4ebf 3442 62bf 2882 d9bf
00000090: a32e 55be e4be a8bc e14c 0dbf 7f60 8abf
000000a0: 0923 36bf 86cb 0bbf 868f 2abf c6c7 27bf
000000b0: b129 50bf 71c4 2fbe 4239 85bf dca6 ab3e
000000c0: 9b40 a2bf c84f 9fbf 301c acbf 8af4 bbbe
000000d0: 6ee5 83bf 2f07 3abe 9e10 52be 54c4 5cbf
000000e0: 3ad2 82bf 711d b5be 7511 bebe f3cf 47bf
000000f0: 44f1 9cbf 5c52 1bbf 9847 cdbe d885 84bf
-0.7953048 -0.82733524 -0.5524164 -0.8844127 -0.74586505 -1.0169303 -0.9471348 -0.77599967
-0.5233799 -0.7056806 -0.28692546 -0.33817124 -0.8049051 -0.4948608 -0.9830852 -0.79808366
-0.7865094 -0.40972227 -0.61132294 -0.96355027 -0.6952276 -0.8922194 -0.88646793 -1.1673418
-1.1392311 -0.8389126 0.17004956 -1.0679224 -0.7216367 -0.5490781 -0.7363264 -0.30029035
-0.7302515 -0.8063103 -0.8838227 -1.6992846 -0.20818572 -0.020598836 -0.5519543 -1.0810698
-0.7114721 -0.5460743 -0.6662525 -0.65539205 -0.81313616 -0.1716478 -1.0408099 0.3352574
-1.2675966 -1.2446222 -1.3446102 -0.36710006 -1.0304391 -0.18166803 -0.20514151 -0.8623707
-1.0220406 -0.35374025 -0.37122694 -0.7805168 -1.2261128 -0.60672545 -0.40093684 -1.0353346

fc2.weight f4 [64, 64]
00000000: bc2b 5abe 11e4 d9be bb84 353e 7437 19bf
00000010: 0789 d03e 5063 a5bf 83d8 02bf b9b0 83bf
00000020: 4541 06bf 1300 923e 94ca 01be 7c9f b8bd
00000030: 08c1 cdbe a0ad 143e 7fa8 5abf 6b5b 84be
00000040: 50f6 ccbf 4dc2 6a3f bd84 c6be ae04 c0bd
00000050: 2082 18bf 17af 8fbf 25a2 45c0 cd41 b13e
00000060: 7595 78bf aacd d23d ffed e7be df96 003f
00000070: b6cd 9e3e b1f0 973e b234 2b3d e9c2 2d3f
00000080: 2ce9 adbf 96c8 16be 471e b3be 06e3 c73d
00000090: 2a88 a6bf 0f43 c33e 4360 4cbe 274f 97bf
000000a0: 5ce6 e4bf df94 06be 1089 a2bf 40c6 b23e
000000b0: 328a 13c0 43b2 aabf 23f6 adbe 2c45 fdbd
000000c0: d211 4abf aebe 35bf fd11 ef3e f350 27bf
000000d0: e933 00c0 cc36 d13d bf96 88bf de49 14be
000000e0: fb82 9bbf 6899 8dbe 3960 273f 518c 7f3e
000000f0: 9491 363f e9fe 43be db2c 313e f322 383e
00000100: 7782 87bf 801f af3d 5186 303f fe2b f8be
00000110: a392 f93b 27f5 fcbd 533d a0be 5de4 643e
00000120: 75cb 3e3c 33ab 0c3d 37ab f4bd bd87 8cbe
00000130: d4c5 d7be 6674 cbbe b5ce 443d 2571 383f
00000140: 858e 65be de08 71be ecba 06bf 1d04 df3c
00000150: 9552 223f 39ac dbbe 7867 37be dcc7 bbbe
00000160: 1c60 acbf bdbe 26bf eef7 a2be 622d 573e
00000170: 42d4 a83d 1620 113f 2a1f babd 929e fa3e
00000180: 641b ddbf e244 0ebf e9d8 cf3e 54fb 99bf
00000190: 6bfa 233e ec10 bc3c 6c7e 0fbe fa89 c63e
000001a0: 9ad1 233f 106e dc3e 9e94 1fbf f462 19bf
000001b0: 1a5e 863e 6efa a73e 21cc eb3e d82e 4ebf
000001c0: dda3 1bbe 9e10 6d3e d736 f73d 3438 8b3e
000001d0: 7d66 3fbe 8e35 a6bf 6543 f53d 9ba4 a0be
000001e0: 4e6f 893e d316 f1bd afc6 d4be 6312 163f
000001f0: 05bd 603e a902 78be 265a b03e 5882 88bf
00000200: d10d 703e 809a 0e3f 3754 8b3c 02a3 37be
00000210: 0afa de3e 4ac3 3e3e 09fa 353e c3b6 723d
00000220: 3251 0fbe 8fec 79bf b2d9 0ebf 2b96 d73e
00000230: c670 8fbd c190 f6bf 7285 01c0 4382 803e
00000240: bbf3 3cbe 5832 583e b567 d13d e1c8 acbf
00000250: ac91 103f 33c0 91bf 2e22 91be 4956 6fbe
00000260: 3be6 c13e dc3b cbbe 2f1e fdbe 3dce 06bf
00000270: 6289 723f a1bb d1be 1033 823e 6555 ff3d
00000280: 8796 703d 49ff 6bbe 9b82 27bd e9de c13d
00000290: a639 6f3c 9181 c93c d9cd 423e 5659 24bf
000002a0: e41f 073f 53d2 10be 578f b33d a287 1ebe
000002b0: bd99 0c3f d9b5 c53d 124f f1be d93e 29c0
000002c0: d4ae 293e 6d73 8b3e ccc5 313e 509d de3e
000002d0: 516c 20bf 3fc8 34bf 9312 dbbd dc8e a03e
000002e0: c51d 72be a065 093f b1e4 c5bd 1e00 62bf
000002f0: eb36 853d 3448 04be ca32 bb3e 7988 c3be
00000300: 04dc dabd 45e1 22bf b301 b33d 255c be3d
00000310: 048d 3ebe 5c1d aa3e 75a5 25bf a04f bebf
00000320: 5345 6abe ca6d abbe 82ca 35bf 2778 19bf
00000330: d71f 43bf e98f 903e 6f98 87bf 3cac ba3d
00000340: 5f76 98be f9dd 373f c46d a9be 3df5 a13d
00000350: 6b13 893e 921a cc3e 54f4 f7bc 36e9 d8bf
00000360: 8c68 bebf 5c96 973e 030f 5fbd e7fc 763f
00000370: 7c70 fabe 6426 6c3e beb9 5d3e 11a0 923d
00000380: af1f 003e ccb6 08be c25e 1f3e 7bac e6bd
00000390: 99b8 eb3d 2b68 eebd a7d8 b43e ce52 8fbf
000003a0: 16a1 36bf a8f3 a33d 6a1d cfbd 85a1 bc3d
000003b0: fb05 eb3e 9308 a13d 835d d7be c628 3ebe
000003c0: 8679 633d 92dc 023f 1124 88be 7bba 5abf
000003d0: c73e 08bf bb0e e7bd fce0 83bd d7d6 cf3d
000003e0: 46ca 88be 9a2f 9f3d 3319 e0bc 2e1e 433f
000003f0: 0cf1 f2bf c8ea dfbe c263 b9be 9bd0 123f
-0.21305746 -0.42556813 0.17726414 -0.5985024 0.40729544 -1.2920933 -0.5111162 -1.0288306
-0.52443343 0.28515682 -0.12674934 -0.09014794 -0.40186334 0.14519358 -0.85413355 -0.25850996
-1.6012669 0.9170273 -0.38773146 -0.093758926 -0.59573555 -1.1225308 -3.0880215 0.34620515
-0.97103053 0.102931336 -0.45298764 0.5023021 0.3101632 0.2967582 0.0417983 0.67875534
-1.3586783 -0.14724955 -0.34984037 0.09760098 -1.3010304 0.381371 -0.19958596 -1.182103
-1.78828 -0.13142727 -1.2698078 0.34916878 -2.3053098 -1.3335651 -0.3397685 -0.12366709
-0.7893344 -0.7099408 0.4669341 -0.65357894 -2.0031683 0.1021553 -1.0671004 -0.14481303
-1.2149347 -0.27656102 0.653812 0.2495587 0.71315885 -0.1914021 0.17302267 0.17982082
-1.058669 0.0855093 0.6895495 -0.48471063 0.0076163574 -0.123514466 -0.31296787 0.22352739
0.011645188 0.034342956 -0.11946719 -0.2744731 -0.42143118 -0.39737242 0.048048694 0.72047645
-0.22417648 -0.23538539 -0.5262897 0.027223641 0.6340726 -0.42904833 -0.17910564 -0.36675918
-1.346683 -0.65134794 -0.3182978 0.21013406 0.0824361 0.56689584 -0.09087975 0.48949105
-1.7273984 -0.55573857 0.40595177 -1.2029824 0.16013496 0.022957288 -0.1401307 0.38777143
0.639917 0.4305272 -0.62336147 -0.59916615 0.2624367 0.3280825 0.46054175 -0.8054023
-0.15199228 0.2315087 0.12071007 0.27191317 -0.1869144 -1.2985094 0.11975745 -0.31375584
0.2684273 -0.117719315 -0.41557834 0.58621806 0.21947105 -0.24219765 0.34443778 -1.0664778
0.2344277 0.557045 0.01700793 -0.17933276 0.4355014 0.18629184 0.17771162 0.059256326
-0.13995817 -0.97626585 -0.55800927 0.42106757 -0.07003932 -1.9262925 -2.0237699 0.25099382
-0.18452351 0.21112955 0.10224859 -1.3498803 0.5647228 -1.138678 -0.2834639 -0.23372759
0.37870964 -0.39694107 -0.4943709 -0.52658445 0.9474088 -0.40963462 0.25429583 0.124674596
0.058737304 -0.23046602 -0.04089604 0.09466345 0.014601147 0.024597915 0.19023837 -0.64198816
0.52783036 -0.14142732 0.08767574 -0.15481427 0.54922086 0.09653825 -0.47130638 -2.644461
0.16570598 0.272365 0.1736061 0.43479395 -0.6266528 -0.7061805 -0.10696902 0.31358993
-0.23644169 0.5367069 -0.0966276 -0.8828143 0.065046154 -0.12918168 0.36562186 -0.38190058
-0.10686496 -0.63624984 0.087405585 0.09294919 -0.1860848 0.33225524 -0.6470559 -1.486805
-0.22878008 -0.334822 -0.7101213 -0.5994896 -0.7622046 0.28234795 -1.0593394 0.09114882
-0.2977781 0.7182308 -0.33091557 0.079081036 0.26772627 0.39864022 -0.030267872 -1.694617
-1.4875655 0.29606903 -0.054457676 0.9647965 -0.48913944 0.2306152 0.21652886 0.071594365
0.12512086 -0.13350981 0.15563491 -0.11263367 0.115098186 -0.11640962 0.35321543 -1.1197145
-0.7133955 0.08005458 -0.10113032 0.09210495 0.45903 0.078629635 -0.4206353 -0.18570241
0.055535816 0.51117814 -0.26590016 -0.85440797 -0.5322079 -0.112821065 -0.06439397 0.10148399
-0.26716822 0.07772751 -0.027355766 0.76217926 -1.8979812 -0.4373381 -0.36208922 0.57349557

fc2.bias f4 [64]
00000000: e74e 933e 3e56 b43d 7270 f2be f341 41bd
00000010: 12c6 7bbe e42a 59bf 4e37 59be 5915 28bf
00000020: 414f 3bbe 6b93 64be ec7e 5abe 2fa7 fcbd
00000030: f3ef ebbe 09f2 083f cbe3 35be 7bc5 21be
00000040: c83d 9dbe 012e 55be a8a2 6bbe 7d02 aebe
00000050: 602e acbf 5aaa cf3e af17 dd3e 7dc6 b13e
00000060: 301b 973d c207 c6be a472 b6be 5cce c7be
00000070: 1fbb 0abf 1df4 97bf 5f94 46bf 0473 be3e
00000080: 1a7d 633f 63eb bdbe 9c24 0bbc 0dfb 72bf
00000090: 8d5e 5fbd 84e1 75be 75dd cf3d a0ab 5a3f
000000a0: df7b 90be a2f7 483f 9ae6 5b3d 1778 8bbd
000000b0: 6112 8abe 1f31 fdbe 6bdb 61bf 7e3d a4bd
000000c0: 088a 3abf 7c06 0cbf 6092 173f c1fe 683e
000000d0: c72d 22be c43c 3cbf a4d4 64be 9d83 5abe
000000e0: 2972 3ebe 39cc b03e 6838 76bf a87b 34be
000000f0: ea2f dd3c 5c3c 93bd 89fc 8dbe 4309 10bf
0.28771135 0.08805512 -0.47351414 -0.047182035 -0.24587277 -0.8483107 -0.21212503 -0.65657574
-0.18291952 -0.2232186 -0.2133748 -0.12336575 -0.46081504 0.53494316 -0.17762677 -0.15797989
-0.30711198 -0.2081833 -0.23011267 -0.33986273 -1.3451653 0.40559655 0.43182132 0.34721747
0.073782325 -0.38677794 -0.3563434 -0.39024627 -0.54191774 -1.1871372 -0.77570146 0.37197125
0.88862765 -0.37093648 -0.008492615 -0.94914323 -0.05453353 -0.24011809 0.101496615 0.8541813
-0.28219506 0.7850286 0.053686716 -0.06810015 -0.26967147 -0.4945154 -0.8822543 -0.08019541
-0.7286687 -0.54697394 0.59207726 0.22753431 -0.15837775 -0.7353022 -0.22346741 -0.21339269
-0.18598236 0.3453081 -0.9617982 -0.17625296 0.027000386 -0.07189247 -0.27731732 -0.5626413

fc3.weight f4 [1, 64]
00000000: cf50 3b3f 7df2 d7be 9397 75bf 7c10 efbe
00000010: bd94 273c 4e8b 09bf 2133 31bc f90f 0a40
00000020: 1e81 d63c 6c51 123e 746c e9bc 3624 70bd
00000030: 188c 593e 7874 86be 6dba 8cbe 65c2 553e
00000040: 8be6 c7be b162 273e 4ba7 8cbb 2e1d ce3e
00000050: 3377 4ebf 6e8d aa3e 5b91 443e a108 be3f
00000060: 320d bb3e 2f89 a1be 777d f63e a27a 13bf
00000070: d67d dd3f f8fe 80be 6ef8 d53e 6ca8 083e
00000080: 5f44 2f3f 3867 2d3f 17e0 de3e f89f 49bf
00000090: 8fe2 95be 1799 f0bc b614 6a3e 4054 033e
000000a0: fb61 b43e 7a45 55be 047e 1d3f 768b 663c
000000b0: bc9d 3f3f 3246 1f3f de2f 933e cb0f e6bc
000000c0: 8adc 36be 2c5f aebe 3940 213e 6a94 8abe
000000d0: 0275 dfbe 0aac 6bbf 0d50 94bc f7d8 7cbd
000000e0: a5c6 eabd f477 0d3e 7277 6f3e 03b7 44bf
000000f0: de8b 713f f4d8 ab3e fa77 af3e 0d42 c43e
0.7317018 -0.4217719 -0.9593441 -0.46692264 0.010228333 -0.5372819 -0.010815413 2.157225
0.026184615 0.14288872 -0.028494097 -0.058628283 0.21244848 -0.26260734 -0.27485982 0.20874937
-0.39043078 0.16346242 -0.004292404 0.40256637 -0.80650634 0.33311027 0.19196074 1.4846383
0.36533505 -0.31549975 0.48142597 -0.57609 1.7304027 -0.25194526 0.417911 0.13345498
0.684637 0.67735624 0.43530342 -0.7875972 -0.29274413 -0.029369874 0.22859463 0.12825108
0.35231003 -0.20827284 0.6152041 0.014071336 0.7485006 0.62216485 0.28747457 -0.028083703
-0.17857566 -0.34056985 0.15747155 -0.27066356 -0.43643957 -0.92059386 -0.018104577 -0.06173035
-0.1146367 0.1381529 0.23385409 -0.76841754 0.94354045 0.3356396 0.34271222 0.38331643
