trained_models_1L_3/firmware_update_model.pth (torch, 24391 bytes, 5 tensors)

fc1.weight f4 [64, 19]
-0.52674735 -0.5329908 0.6668757 0.51007175 0.48141092 -0.33895808 0.09473256 0.22553028
0.4538217 0.022857532 0.22392775 0.38345325 0.50636375 -0.38511753 -0.49427548 0.81930774
0.103499025 -0.170054 -0.24422018 0.3873532 0.03291712 -0.12314316 -0.18110125 -0.29284564
0.2747354 0.3320578 0.07722835 0.08825264 0.24588124 0.12708451 -0.035079114 -0.06251838
-0.13000795 1.4700618 0.6702385 0.13660976 0.28180072 0.08653927 0.4056103 -0.15657233
-0.10194502 -0.092753164 0.6123299 0.26199454 0.14644249 0.15821049 -0.43597168 -0.14721586
0.10959272 -0.24663644 0.23726623 -0.0043672444 1.3585219 -0.56566346 -0.13634522 0.22453052
-0.22424331 -0.6969926 0.3151791 0.736728 -0.24587391 -0.682281 0.26682702 -0.57609963
0.19317494 0.1195417 0.7305203 -0.46529034 -0.6825188 0.2720807 0.58873314 -0.5602556
-0.64060247 -0.59910846 -0.25200692 0.1338696 0.14234878 -0.75349164 0.2709936 1.4287515
-0.12329808 -0.22911018 0.18449043 -0.37401304 0.13713197 0.6158239 0.03329567 0.061103135
-0.55709916 -0.298886 -0.5950631 -0.21024436 0.22278005 0.184491 0.7364598 -0.8781256
-0.102451146 -0.12550622 0.3531433 -1.0702802 0.20891212 0.17155121 0.26173335 0.36557204
0.30273014 -0.3476423 -0.3769706 -0.1459332 -0.34729818 0.20239866 0.8532249 -0.03749029
-0.8054 -0.088930495 -0.0011212943 -0.71069187 0.20353453 -0.119534485 -0.65016645 -0.47504774
0.3428889 -0.8611036 0.20325921 0.32194528 -0.258478 0.8603954 0.66305244 0.26947826
-0.413339 0.3332253 0.49191174 0.29812643 -0.42030466 -0.3870707 -0.28650945 0.5841112
-0.54437095 0.393971 -0.27198678 -0.76387876 -0.41735488 -0.45942354 -0.03705214 0.8788739
-0.064294465 -0.08447298 0.4638226 -0.6660594 -0.2712771 0.749282 0.11274496 0.3599605
-0.15843123 0.59709704 0.049773715 1.3713479 -0.56996375 -0.46472895 -0.4208192 0.07616913
-0.0013403946 -0.24392042 -0.6990348 0.72634536 0.026727386 0.43671462 -0.34082443 -0.26657054
0.61205715 -0.18419142 0.08317086 -0.40725726 0.06613984 -0.035788625 0.43944857 -0.46222198
0.31584746 -0.36259043 0.29765415 -0.016830796 0.69120544 0.51406527 -0.20473169 -0.10391645
-0.0936488 1.0694641 0.41601756 -0.0059970296 0.6914606 0.375685 0.115761265 0.006869796
-0.06698087 -1.0286157 0.38866615 0.16825551 -0.6869434 0.013234164 0.0627752 -0.32424513
-0.43307188 -1.1129353 -0.12875792 -0.048868958 -0.16023618 -0.50824064 0.039950088 0.62419677
0.46994725 0.06749943 0.6853266 -0.44322303 -0.32069358 0.13234624 0.5349555 0.49926558
-0.23938315 0.5340328 -0.33269534 0.16222405 0.25083992 0.42508802 0.5845365 -0.52337104
0.5477296 -0.51774293 0.4187388 0.0315577 0.028104216 0.3878503 -0.82360077 0.15015447
0.18275444 0.46260905 0.04811212 -0.6638594 -0.39904675 -0.17211698 0.2382434 0.24261951
0.11676437 -0.21410166 0.9488146 0.2762151 0.082795024 -0.08215592 0.63866556 -0.031334627
-0.51314336 0.58549285 -0.0062274514 -0.18372521 0.8322867 -0.021518787 -0.4717313 0.8551979
00000000: ead8 06bf 1672 08bf 5eb8 2a3f 1094 023f
00000010: 7e7b f63e ea8b adbe 2503 c23d 69f1 663e
00000020: 515b e83e b83f bb3c 514d 653e fc53 c43e
00000030: 0ea1 013f 202e c5be ad11 fdbe 27be 513f
00000040: 4cf7 d33d a322 2ebe db14 7abe 2953 c63e
00000050: 1ad4 063d 7b32 fcbd 9b72 39be ddef 95be
00000060: 1eaa 8c3e 7b03 aa3e e629 9e3d cdbd b43d
00000070: 4bc8 7b3e 7122 023e 1eaf 0fbd a309 80bd
00000080: ce20 05be fc2a bc3f c094 2b3f 6ee3 0b3e
00000090: 2f48 903e 803b b13d 27ac cf3e 7f54 20be
000000a0: 8dc8 d0bd 5ff5 bdbd a7c1 1c3f 2624 863e
000000b0: 05f5 153e ee01 223e ae37 dfbe c1bf 16be
000000c0: 2672 e03d 438e 7cbe ebf5 723e 1a1b 8fbb
000000d0: 0ce4 ad3f 52cf 10bf 159e 0bbe 54eb 653e
000000e0: 0aa0 65be 1b6e 32bf 285f a13e 359a 3c3f
000000f0: 5fc6 7bbe f8a9 2ebf 8d9d 883e 447b 13bf
00000100: a7cf 453e 47d2 f43d 6103 3b3f 893a eebe
00000110: 8db9 2ebf 294e 8b3e 37b7 163f e96c 0fbf
00000120: 86fe 23bf 2c5f 19bf 0d07 81be 1d15 093e
00000130: e1c3 113e d4e4 40bf acbf 8a3e 54e1 b63f
00000140: b483 fcbd dc9b 6abe 0feb 3c3e a37e bfbe
00000150: 536c 0c3e a3a6 1d3f 0a61 083d 4847 7a3d
00000160: 0d9e 0ebf 9607 99be 0e56 18bf 4c4a 57be
00000170: 7420 643e 35eb 3c3e a188 3c3f d7cc 60bf
00000180: e8d1 d1bd b484 00be 33cf b43e f1fe 88bf
00000190: 0fed 553e 1fab 2f3e ea01 863e 422c bb3e
000001a0: 72ff 9a3e 2cfe b1be 4a02 c1be 836f 15be
000001b0: 11d1 b1be 9841 4f3e f26c 5a3f 6b8f 19bd
000001c0: b22e 4ebf 3121 b6bd 65f8 92ba e7ef 35bf
000001d0: 5b6b 503e 7fce f4bd 4f71 26bf 7539 f3be
000001e0: 228f af3e 4971 5cbf 2f23 503e 03d6 a43e
000001f0: 3a57 84be df42 5c3f cebd 293f 0ef9 893e
00000200: 2ba1 d3be 829c aa3e dbdb fb3e 07a4 983e
00000210: 2c32 d7be 212e c6be 5eb1 92be 5088 153f
00000220: e55b 0bbf 91b6 c93e da41 8bbe 8f8d 43bf
00000230: 8aaf d5be 9039 ebbe fcc3 17bd e1fd 603f
00000240: d1ac 83bd 2b00 adbd 287a ed3e de82 2abf
00000250: d5e4 8abe f2d0 3f3f d4e6 e63d be4c b83e
00000260: cc3b 22be 5adb 183f 86df 4b3d 5488 af3f
00000270: 25e9 11bf f4f0 edbe 9d75 d7be 90fe 9b3d
00000280: 2eb0 afba 46c6 79be f2f3 32bf c5f1 393f
00000290: 64f3 da3c 0f99 df3e 8a80 aebe ef7b 88be
000002a0: c7af 1c3f ad9c 3cbe 7c55 aa3d 0684 d0be
000002b0: 5374 873d 1897 12bd 67ff e03e 5ca8 ecbe
000002c0: c2b6 a13e 74a5 b9be 2066 983e bde0 89bc
000002d0: d7f2 303f c899 033f 2fa5 51be 26d2 d4bd
000002e0: f1ca bfbd 33e4 883f 4100 d53e bb82 c4bb
000002f0: 9003 313f c959 c03e 3e14 ed3d 071c e13b
00000300: 442d 89bd aea9 83bf 40ff c63e 2c4b 2c3e
00000310: 86db 2fbf 1bd4 583c 4990 803d 7503 a6be
00000320: 99bb ddbe aa74 8ebf 1ed9 03be d12a 48bd
00000330: f414 24be 0f1c 02bf b4a2 233d 5ccb 1f3f
00000340: ed9c f03e 243d 8a3d 9071 2f3f 21ee e2be
00000350: f331 a4be c685 073e d8f2 083f bd9f ff3e
00000360: db20 75be 60b6 083f 0b57 aabe 101e 263e
00000370: 176e 803e 23a5 d93e 2fa4 153f a5fb 05bf
00000380: 0238 0c3f cd8a 04bf ef64 d63e a642 013d
00000390: d03a e63c 5194 c63e 80d7 52bf 18c2 193e
000003a0: fb23 3b3e 18db ec3e 3711 453d b1f2 29bf
000003b0: db4f ccbe 6f3f 30be 14f6 733e 4071 783e
000003c0: 2822 ef3d 773d 5bbe 83e5 723f 116c 8d3e
000003d0: 7090 a93d 5d41 a8bd 967f 233f bd58 00bd
000003e0: 5d5d 03bf dce2 153f a60f ccbb 7622 3cbe
000003f0: be10 553f 2b48 b0bc c486 f1be 40ee 5a3f

fc1.bias f4 [64]
0.22484837 -1.6582962 -1.1346139 -0.41699848 -0.50589454 -1.537416 -0.7213035 -0.2927026
0.049528528 -1.4772912 -0.03250801 -0.21475585 -1.3263953 -0.8078383 0.58435756 -1.3812953
-0.23107316 -0.26332077 -0.4043261 -0.74540395 0.4505873 -1.4813066 -0.85298896 -0.52082884
-1.5005655 -0.74037606 -0.96890444 0.53606683 -1.5418718 -1.0012567 -0.15791938 -1.4855356
-0.2177563 -1.4986289 -0.473123 -1.3487191 -0.92625695 -1.172119 -0.09785227 -1.2577094
0.10522314 0.4611874 -0.34350625 -1.3504478 -1.4339424 -1.6262187 -1.0011024 -0.99334043
0.057456285 -0.17552881 -0.27783298 0.33396208 -0.9086331 0.7044151 -0.5551333 -0.20654951
-0.21178544 -0.14500979 -0.5320102 -0.07212212 -0.1910941 0.5134243 -0.5136703 -0.91305786
00000000: a73e 663e 0d43 d4bf 073b 91bf d380 d5be
00000010: 4e82 01bf 0cca c4bf 59a7 38bf 1ddd 95be
00000020: 6dde 4a3d e117 bdbf 1e27 05bd f5e8 5bbe
00000030: 52c7 a9bf 7ece 4ebf 7598 153f 49ce b0bf
00000040: 719e 6cbe fbd1 86be d503 cfbe cbd2 3ebf
00000050: 61b3 e63e 749b bdbf 7c5d 5abf 0a55 05bf
00000060: 8812 c0bf 4989 3dbf 1f0a 78bf ad3b 093f
00000070: 0e5c c5bf 2e29 80bf 9eb5 21be 0826 bebf
00000080: 82fb 5ebe 12d3 bfbf 2e3d f2be d4a2 acbf
00000090: 2d1f 6dbf ff07 96bf c566 c8bd 9ffc a0bf
000000a0: 3b7f d73d c120 ec3e 0de0 afbe 79db acbf
000000b0: 6d8b b7bf ef27 d0bf 2024 80bf 8f4b 7ebf
000000c0: 4857 6b3d d3bd 33be 2040 8ebe 14fd aa3e
000000d0: 2e9c 68bf 8c54 343f 371d 0ebf b781 53be
000000e0: 48de 58be 727d 14be d231 08bf c3b4 93bd
000000f0: 2cae 43be c66f 033f e67f 03bf 29be 69bf

fc2.weight f4 [64, 64]
-0.39723933 1.3516723 -0.39912492 -0.716638 -0.23017977 0.3578416 0.41481775 -0.015215703
-0.23831043 -0.21973775 -0.11675573 0.22072713 0.16586071 -0.65658134 -0.30966628 -1.5231628
0.11949716 -0.26904196 0.0008411214 0.14672661 0.13673408 -1.5475883 0.29681164 -0.03134144
0.13959157 1.048038 0.20400591 -0.041450597 0.43079698 -0.62275803 0.12046244 -0.11227976
0.52809405 -1.2668178 0.7857749 -0.6680806 0.54278386 0.22842981 -0.9660961 -0.5580711
-1.4700798 -0.16239844 -0.52421623 -0.062439732 -0.92862123 -0.95468944 0.26551622 0.25352353
-0.43216032 -0.081759766 0.43118876 -0.1726218 0.31906477 -0.13086493 0.40620756 0.24356312
-0.2549947 -2.0431418 0.16394083 0.70319074 0.13547422 -0.19013071 -0.41404748 -0.95899916
-0.056779467 0.037061445 -0.026838124 -0.062084526 -0.08037759 -0.008651171 -0.19276972 0.0034543774
-0.09336271 -0.11533005 -0.18710229 -0.10350874 0.023238136 -0.08812556 0.07042038 -0.060406182
-0.019730793 -0.049672082 0.035842508 -0.15978007 -0.036749095 -0.12394567 -0.09839571 0.056419186
0.049064748 -0.1726822 -0.20431489 -0.116206326 0.08768287 0.002817578 -0.14647934 -0.12293018
-0.018813979 -0.106921166 -0.171867 -0.007367332 -0.15543263 0.04447933 -0.04829681 0.051858902
-0.12587231 -0.22059414 -0.04922344 -0.17362432 -0.15237509 -0.10270797 0.005510177 0.08150983
-0.15701117 -0.16879275 -0.13750665 -0.012281339 2.4401663e-05 -0.105611615 -0.1126887 -0.19487853
-0.09283018 -0.030534457 0.028388938 0.06892809 -0.057773754 -0.058239393 0.046802275 0.026872043
-0.63428843 -0.47619 0.62915504 -0.21897843 -0.07200281 -0.2493819 -1.8894867 -0.09954596
-0.19979955 0.6129569 -0.4466487 -0.4488426 0.07009388 0.286468 0.19798277 -0.33255148
0.16099602 -0.07495914 0.2705752 -0.3068803 0.15392089 0.100928746 -0.7644946 0.5988468
0.063238725 -0.2689342 -0.5026915 -0.5508622 0.67131454 0.16343328 -0.12626663 0.68244076
-0.8321975 -0.5508893 -1.0716034 -1.479939 0.35066327 0.14891014 0.858682 -0.57936615
-0.34261665 0.3033777 0.32356453 -0.7873382 0.14457877 -0.8324123 -0.32368082 0.24625053
0.2599561 -2.141997 -0.26801485 -0.43667057 -0.17785868 -0.057612997 -0.8381415 -0.17088453
-0.8452645 -0.46993828 0.27676392 -0.26370633 -2.7392876 0.35282573 0.8503281 0.38030338
-0.09532341 -0.06400877 -0.036746543 -0.078269534 -0.004400296 -0.109187946 0.041332554 -0.18954137
-0.06281327 -0.04346288 -0.034015343 -0.07501511 -0.12362774 -0.063539095 -0.016616264 -0.005481565
-0.12936328 -0.046479054 0.0068218256 -0.06823744 -0.074563384 -0.05656574 0.0035737827 -0.13097672
-0.023772417 0.020847784 -0.13897343 0.045416996 0.0039160643 0.1163571 -0.097632974 0.05120137
-0.2261441 -0.026835602 -0.079809844 -0.07958613 -0.13026112 -0.041263968 -0.06083947 -0.064305015
-0.23490798 -0.044669267 -0.0980226 -0.11983124 -0.029421462 -0.08389021 -0.08635619 -0.04418483
0.0029576523 -0.029552894 -0.12747356 -0.09111716 -0.05108988 -0.0368795 -0.14592227 -0.095656276
-0.08835636 0.029367477 -0.06457896 -0.02213774 -0.09515833 -0.18589997 -0.20347211 -0.19217905
00000000: f462 cbbe 9903 ad3f 1a5a ccbe 9775 37bf
00000010: 3fb4 6bbe 0437 b73e fe62 d43e 494b 79bc
00000020: a607 74be ef02 61be a11d efbd 4b06 623e
00000030: 64d7 293e b715 28bf 948c 9ebe 00f7 c2bf
00000040: edba f43d debf 89be b47e 5c3a 803f 163e
00000050: 0504 0c3e 6017 c6bf b2f7 973e e25f 00bd
00000060: 18f1 0e3e 1c26 863f ede6 503e 1ac8 29bd
00000070: 6c91 dc3e 126d 1fbf 03b5 f63d eef2 e5bd
00000080: 2c31 073f 1627 a2bf 8b28 493f 5507 2bbf
00000090: e2f3 0a3f 81e9 693e 1352 77bf bfdd 0ebf
000000a0: 932b bcbf c74b 26be 0933 06bf cec0 7fbd
000000b0: 1fba 6dbf 8766 74bf bef1 873e d6cd 813e
000000c0: 1e44 ddbe aa71 a7bd c6c4 dc3e c5c3 30be
000000d0: 755c a33e 7501 06be 70fa cf3e 9c68 793e
000000e0: aa8e 82be d6c2 02c0 1be0 273e 4f04 343f
000000f0: c1b9 0a3e a0b1 42be 08fe d3be f880 75bf
00000100: 9691 68bd becd 173d a0db dbbc 584c 7ebd
00000110: 029d a4bd a4bd 0dbc 6d65 45be d662 623b
00000120: f334 bfbd 2932 ecbd be97 3fbe 64fc d3bd
00000130: e75d be3c 2c7b b4bd 8f38 903d 796c 77bd
00000140: 79a2 a1bc f474 4bbd 98cf 123d 639d 23be
00000150: 3886 16bd 3ad7 fdbd b183 c9bd ce17 673d
00000160: 1ef8 483d 9ad3 30be ec37 51be 95fd edbd
00000170: 1493 b33d 1da7 383b aefe 15be d1c2 fbbd
00000180: c61f 9abc 7cf9 dabd e7fd 2fbe a969 f1bb
00000190: bb29 1fbe f52f 363d e0d2 45bd 006a 543d
000001a0: ace4 00be 6ee3 61be 859e 49bd 93ca 31be
000001b0: 3708 1cbe 8e58 d2bd b78e b43b a0ee a63d
000001c0: 89c7 20be 02d8 2cbe 8bce 0cbe ab37 49bc
000001d0: 2cb2 cc37 e74a d8bd 55c9 e6bd 3d8e 47be
000001e0: c01d bebd 6623 fabc eb8f e83c 2c2a 8d3d
000001f0: 2ca4 6cbd 6e8c 6ebd beb3 3f3d c222 dc3c
00000200: ba60 22bf 2dcf f3be 4e10 213f e23b 60be
00000210: 3676 93bd f85d 7fbe b3da f1bf c1de cbbd
00000220: 4198 4cbe beea 1c3f 23af e4be b3ce e5be
00000230: 618d 8f3d efab 923e ffbb 4a3e 3044 aabe
00000240: 24dc 243e 2d84 99bd d588 8a3e 6a1f 9dbe
00000250: 709d 1d3e bbb3 ce3d ebb5 43bf 064e 193f
00000260: 4e83 813d beb1 89be 64b0 00bf 4e05 0dbf
00000270: 45db 2b3f 0e5b 273e 0a4c 01be 70b4 2e3f
00000280: e50a 55bf 1507 0dbf 4d2a 89bf a46e bdbf
00000290: 238a b33e e67b 183e 95d2 5b3f 5751 14bf
000002a0: 736b afbe 5254 9b3e 40aa a53e ff8e 49bf
000002b0: 750c 143e f918 55bf 7eb9 a5be 1929 7c3e
000002c0: f718 853e 7b16 09c0 3e39 89be 4993 dfbe
000002d0: 9620 36be 9bfb 6bbd 7190 56bf 5bfc 2ebe
000002e0: 4163 58bf c09b f0be 00b4 8d3e 8404 87be
000002f0: 7d50 2fc0 93a5 b43e 1aaf 593f 20b7 c23e
00000300: ec38 c3bd 0817 83bd 8b83 16bd c74b a0bd
00000310: 5c30 90bb ee9d dfbd 534c 293d 2217 42be
00000320: 3ea4 80bd 2206 32bd ac53 0bbd 86a1 99bd
00000330: 8a30 fdbd c920 82bd d51e 88bc b39e b3bb
00000340: cf77 04be d260 3ebd 9f89 df3b 12c0 8bbd
00000350: b0b4 98bd 7ab1 67bd 2036 6a3b c31e 06be
00000360: 5fbe c2bc f9c8 aa3c 0d4f 0ebe 2c07 3a3d
00000370: 5452 803b a24c ee3d ccf3 c7bd 87b8 513d
00000380: 5292 67be 56d6 dbbc 5873 a3bd 0efe a2bd
00000390: 2c63 05be 6804 29bd cf32 79bd 59b2 83bd
000003a0: b88b 70be 1ff7 36bd 13c0 c8bd 156a f5bd
000003b0: 4705 f1bc a1ce abbd 84db b0bd 27fb 34bd
000003c0: 2cd5 413b e918 f2bc 6e88 02be a29b babd
000003d0: 9f43 51bd f50e 17bd a66c 15be 70e7 c3bd
000003e0: 2ef4 b4bd 1094 f03c f941 84bd 355a b5bc
000003f0: 5fe2 c2bd 905c 3ebe fe5a 50be 96ca 44be

fc2.bias f4 [64]
-0.77388096 -0.15243647 0.40595815 -0.14237879 0.72010463 0.45131662 -1.2626761 -0.71233773
-0.09253586 -0.3932988 -0.12844703 0.016033968 -0.17642665 -0.4414294 0.26815578 -0.017651655
-0.32381773 -1.0739192 0.003739396 -0.17217098 -0.2039046 -0.5445837 -0.069073886 -0.6362043
-0.6218221 -0.4739554 0.10106962 0.13880502 -0.08070286 -0.16599144 -1.4802468 -0.5388159
0.56838685 0.51914185 0.7259659 0.5161563 0.38621232 -0.5940155 -0.25627768 0.63171744
-0.39037013 -1.4139314 -0.06437134 -1.240952 -0.17061582 -0.8787173 0.63755727 -0.8365818
-0.76066226 -0.28341484 -1.3813022 -0.47597098 -1.0656981 -0.37225592 -1.4152281 -0.6789336
-1.6505419 0.026880566 -0.5322933 -0.14755958 -0.18221866 -0.20120493 -0.6311048 -1.1555026
00000000: 101d 46bf 4e18 1cbe bfd9 cf3e bfcb 11be
00000010: c758 383f f912 e73e 5f9f a1bf c45b 36bf
00000020: 7183 bdbd 765e c9be 9e87 03be ab59 833c
00000030: 30a9 34be 0903 e2be b74b 893e 349a 90bc
00000040: 70cb a5be 2f76 89bf a810 753b 974d 30be
00000050: 5ecc 50be d669 0bbf 9c76 8dbd 49de 22bf
00000060: bc2f 1fbf 48aa f2be 97fd ce3d e722 0e3e
00000070: 8b47 a5bd a9f9 29be ba78 bdbf d7ef 09bf
00000080: cd81 113f 7be6 043f e7d8 393f d222 043f
00000090: 9fbd c53e 6611 18bf d436 83be 3cb8 213f
000000a0: 98de c7be b4fb b4bf 1fd5 83bd 84d7 9ebf
000000b0: eab5 2ebe 9ef3 60bf f436 233f 3a2a 56bf
000000c0: c3ba 42bf c01b 91be 83ce b0bf 78b2 f3be
000000d0: cc68 88bf 5498 bebe 3226 b5bf 98ce 2dbf
000000e0: f544 d3bf a234 dc3c 6044 08bf dc19 17be
000000f0: 8797 3abe aa08 4ebe 1690 21bf 82e7 93bf

fc3.weight f4 [1, 64]
0.34065777 -0.0056438767 -0.5580573 -0.026169041 -0.29366478 0.16207656 -0.37477705 0.29113603
-0.46711865 -0.5924628 -0.029944455 -0.023668984 -0.005993894 -0.28062356 0.33784962 -0.43745133
0.37582895 -0.5656886 -0.33701777 -0.61856717 -0.031184807 -0.5280959 0.4624492 1.5628785
0.35278928 0.16725902 -0.33755425 0.46540993 0.020232167 0.02152128 -0.7617137 -0.4161452
0.18284194 0.22883315 0.29248258 0.46113023 0.291242 0.7798386 0.48510888 0.4179168
-0.4644057 0.3782411 0.19302559 -0.3312249 0.02374067 0.7168075 -0.30223078 -0.4021049
-0.397157 -0.8374599 -0.46869642 -1.5864065 -0.3819966 0.43848002 -0.314757 -0.82971144
-0.3478393 0.36020303 2.4278843 0.288242 -0.2699897 -0.65992 -0.55209744 -1.8880007
00000000: b26a ae3e 45f0 b8bb d8dc 0ebf 7560 d6bc
00000010: 3b5b 96be 66f7 253e c7e2 bfbe c80f 953e
00000020: 2d2a efbe a4ab 17bf 134e f5bc 75e5 c1bc
00000030: 6d68 c4bb e4ad 8fbe a0fa ac3e 9ff9 dfbe
00000040: a76c c03e f8d0 10bf 988d acbe 6b5a 1ebf
00000050: 4877 ffbc 4b31 07bf 24c6 ec3e 670c c83f
00000060: cca0 b43e f345 2b3e e9d3 acbe 364a ee3e
00000070: eebd a53c 654d b03c abff 42bf fc10 d5be
00000080: eb3a 3b3e 3d53 6a3e 47c0 953e 4319 ec3e
00000090: ac1d 953e 81a3 473f 3160 f83e 31f9 d53e
000000a0: 95c6 edbe d1a8 c13e 80a8 453e 4f96 a9be
000000b0: cb7b c23c b280 373f febd 9abe b2e0 cdbe
000000c0: 2a58 cbbe c663 56bf faf8 efbe 5e0f cbbf
000000d0: 0f95 c3be 7480 e03e d427 a1be f867 54bf
000000e0: fe17 b2be 886c b83e 7562 1b40 7594 933e
000000f0: 173c 8abe 84f0 28bf 4256 0dbf 02aa f1bf
