trained_models_1L_3/led_failure_model.pth (torch, 24359 bytes, 5 tensors)

fc1.weight f4 [64, 19]
00000000: d8d7 9c3e 186a a03e e99d 21be 0f2e 383e
00000010: e344 98be 5f5f b3bd 2619 0d3f 463f 8e3e
00000020: d7bd 4bbf 8774 e8bc e84e a3bd a82c 043f
00000030: 6b56 153f a707 23bf 9abf d6bd e4ff fd3e
00000040: cc9a 7bbf 0d97 b0bd d2b7 303f 8921 a63e
00000050: eb8d 973e 54ec 743e 801c c4be 7f4f 223f
00000060: b244 3d3f 9388 313c 5294 493e ea9a debd
00000070: 8795 5d3e 759b cb3e a2b0 0c3f 3add 833f
00000080: 51f5 4a3f 1613 c23e cc45 5bbe 8fbc 33be
00000090: 314e 543d c3c5 96bd 4217 923f a5c2 4f3d
000000a0: 87fb 9c3e ed94 91be 76da 14bf 3478 e4be
000000b0: 1a71 41be 117a 01bf 2362 9dbd 0c56 1c3e
000000c0: 01b5 1c3d f98b 8c3f 8918 41bf 5d3c ca3c
000000d0: 80e6 3bbd 978e 52bd 21a9 c43e 69a2 b23d
000000e0: 0edc ecbe 35d9 223d 1de0 9fbe 8fdd 9cbd
000000f0: 878d 013f 3708 41be e154 293f a58f 5a3d
00000100: 0c2b dabd 1909 9d3e 866a 593e 5590 87be
00000110: 9aed 8a3d 7695 49bf bfdd 5d3e c052 013f
00000120: ca78 983e ea2c 26bf 8217 283e 6560 4cbe
00000130: 3033 1f3e f6ef 533e 8473 88bb 3772 82bf
00000140: 4611 0cbe d4a7 01be c3e4 c2be 5ed2 a03d
00000150: dfc8 4d3e d653 ba3e 3539 0abf 40f3 2ebe
00000160: 0ac4 a4bf 2d75 5d3e 788a 713e eb36 9e3e
00000170: c0ad 223e 71bd 1dbf 4ddb fe3d db15 933e
00000180: bb67 18bf 0d1d 59bd 4e92 babe ec85 64bf
00000190: 6fad 223f 35d7 c6be 0768 dc3e 4753 393e
000001a0: 080a 9d3e 1b68 853e 37e9 2b3f e631 4a3f
000001b0: 8fc6 3c3e 18a1 51bf 80b3 c5be 2e2d 833e
000001c0: 4842 f73e 4902 0f3d 8599 13be 9505 3abf
000001d0: 3a0a a8be 7960 813e 816e 2dbf f704 d7be
000001e0: 5cbf 45be b6de 8b3e 93c4 cebe 3063 28be
000001f0: fb7b 4abe 988f ecbe 39a7 f83d 5f44 9d3e
00000200: 5cc4 7d3f 584d a43c 162d 3abe 0bad 9f3e
00000210: 71b6 9abe 0f97 9d3e 00d2 debe ece0 2ebf
00000220: ba09 203e 66be 43be cccd 1bbe a2ea 7a3d
00000230: 82df 043c 3d30 f6be 377f 5a3e 8be5 19bf
00000240: 51d3 1bbf ceda 02bf 50ce efbe 330f 1bbe
00000250: 3584 283f 97e7 6e3e f9fe 483f 156f 0f3e
00000260: 2cda ff3e 21e2 333e 80d1 ea3d 9676 fc3d
00000270: 550f 83be 2133 fe3e 5fd7 06bf 0281 66be
00000280: 8ee9 753e b192 47bf 08e2 6a3e df1e 67bd
00000290: 68c8 983f 310d 1abe a6ae 5e3e cd69 b23e
000002a0: cc8a e63e ec3c dbbc 2933 f8bb 34b0 00be
000002b0: cc2c 3c3e ed85 113f d385 f53e bfd8 013f
000002c0: fd58 4b3d 851e df3e 850f 26be 44d8 bb3e
000002d0: 7e08 cdbe 708b 04bf e3dd d3bd bde7 aabf
000002e0: 7534 f9be a0ca 51bf cdc3 bc3d 56a3 ee3d
000002f0: 15c8 bcbc e956 d93d ab40 3fbf fa24 ec3e
00000300: b8d6 02bf 7148 6a3e 7e4f fc3d 0acd e23e
00000310: 924a 64be bb05 3bbe b8b0 403e a685 f93e
00000320: 4cd5 8a3e a4df d23e e5fe acbf 012d 40be
00000330: bef5 f5bd a84e c5be ce2d a8bd a6f1 adbe
00000340: 095a 2dbf aaaf fd3e 300b 6ebf 3547 1fbe
00000350: af85 483f 5e63 263e 013f d6be 9f16 bcbd
00000360: 71fc 18be 37bc 4a3e 4ad0 f73d 756d 323f
00000370: 0879 11be a425 c93e 223e 0b3e 2871 c4be
00000380: 01ca a5be e9a2 593f 1132 43be cf9b 143f
00000390: 2546 fcbe 8916 cdbe d80d 083f 4bd3 42be
000003a0: 8b3b c83e b1bb b6be e177 70be 098d 2dbe
000003b0: a20a d03d 0ed9 98be cd7e a23e 508d b73d
000003c0: eb67 ba3f 0df6 093f faca 0dbe 0333 013f
000003d0: 51bd d9be 2235 823e 7657 f0be c1e6 a63e
000003e0: 4d27 f9be 4c9c a5be 0e3a 3e3f 096a 053e
000003f0: 0c4b 6abf f7c9 e43d 5731 1bbf 3eb4 e33d
0.30633426 0.31330943 -0.15782894 0.1798632 -0.29740056 -0.08758425 0.551165 0.2778265
-0.7958655 -0.028375877 -0.079740345 0.5163064 0.5833499 -0.6368355 -0.10485764 0.49609292
-0.98283076 -0.08622561 0.6903049 0.3244746 0.29600462 0.23918277 -0.38302994 0.6340255
0.73932946 0.0108357845 0.19685486 -0.10869391 0.21639071 0.39767042 0.5495702 1.0301888
0.79280573 0.37905186 -0.21413344 -0.17552398 0.05183238 -0.07361939 1.1413348 0.050722737
0.3066065 -0.28433934 -0.58145845 -0.44622958 -0.18890801 -0.50576884 -0.07684734 0.152672
0.038258556 1.0980216 -0.7542806 0.024686987 -0.04587412 -0.051405516 0.38410285 0.087223835
-0.46261638 0.039757926 -0.31225672 -0.076594464 0.5060658 -0.1885079 0.6614514 0.053359646
-0.10652742 0.30671003 0.21232042 -0.26477304 0.067836 -0.78743684 0.2166662 0.5051689
0.29779655 -0.64912283 0.16415218 -0.19958647 0.1554687 0.20697007 -0.004164161 -1.0191106
-0.13678464 -0.12661678 -0.38065156 0.07852624 0.20096157 0.36392087 -0.5399354 -0.1708498
-1.2872326 0.2162673 0.23587978 0.30901274 0.15886593 -0.6161719 0.12444172 0.28727612
-0.5953328 -0.05300622 -0.36439747 -0.8926685 0.6354589 -0.38836065 0.43048117 0.18098174
0.30671716 0.2605599 0.6715273 0.7898239 0.18435119 -0.81886435 -0.3861351 0.25620407
0.48292756 0.03491429 -0.14414032 -0.7266477 -0.32820302 0.25268915 -0.6774674 -0.41995975
-0.19311279 0.27318352 -0.4038435 -0.16444087 -0.19773857 -0.46203303 0.1214127 0.30716226
0.99127746 0.020056412 -0.18181261 0.3118671 -0.30217317 0.3077931 -0.43519592 -0.68311954
0.1562871 -0.191156 -0.15215224 0.06125892 0.008109929 -0.48083678 0.21337591 -0.6011588
-0.6086932 -0.5111512 -0.4683709 -0.15142517 0.6582673 0.23330532 0.7851406 0.14007218
0.4997114 0.1756673 0.1146574 0.12327306 -0.25597635 0.49648383 -0.5267238 -0.2251015
0.24014875 -0.7795821 0.22937787 -0.056425925 1.1936159 -0.15044095 0.2174631 0.34846345
0.4502777 -0.026762448 -0.007574458 -0.12567216 0.18376464 0.5684498 0.47953662 0.50721353
0.049645413 0.43577972 -0.16216858 0.36688435 -0.40045542 -0.51775265 -0.10345056 -1.3351971
-0.48672834 -0.81949806 0.092170335 0.116522476 -0.023044625 0.1061228 -0.7470805 0.4612196
-0.51108885 0.22879197 0.123198494 0.44297057 -0.22294071 -0.18263905 0.18817413 0.48734778
0.27115858 0.4118625 -1.3515288 -0.18767168 -0.12009762 -0.38536572 -0.082118616 -0.33973426
-0.6771551 0.49548084 -0.9298582 -0.15554507 0.78328985 0.16248843 -0.41844943 -0.09184002
-0.14940049 0.19798361 0.12100275 0.6969827 -0.14206326 0.3928653 0.1359792 -0.3836758
-0.3238068 0.85014206 -0.19062068 0.58050245 -0.49272266 -0.40056255 0.53146124 -0.19025914
0.39107928 -0.35690072 -0.2348323 -0.16948332 0.10158278 -0.298531 0.31737366 0.089625
1.4562963 0.5389107 -0.1384696 0.5046846 -0.4252725 0.25431162 -0.46941727 0.32597926
-0.48662797 -0.32345808 0.74307334 0.1302873 -0.9152076 0.11171334 -0.6062216 0.11118363

fc1.bias f4 [64]
00000000: aa26 8cbf 8d27 3cbf ab58 56bf 4270 09be
00000010: 6945 f7be 3d6f e5be 9845 b7bf aa3e afbf
00000020: d180 e0be a0e1 0bbe deaf 263e 1ac8 4abf
00000030: c6c3 18bf d790 99bf cabe 98bf 7e19 a6be
00000040: cfc1 35bf a6a0 b6be b8fa 82bf 53de 8bbd
00000050: a34c acbf 2a4b 7fbf 5841 c5be c4c7 9dbf
00000060: 6700 6abf 8de4 86bd f8a1 d4bd 9cfb fb3c
00000070: 44f9 86bf 6ebf 1ebf db48 06bf 133e 53bf
00000080: 83bd 44bf af05 98bf 3e3e 43bf d55d 66bf
00000090: 10b7 e3bf c1ed c6bf 1303 a6bf 9bf8 92be
000000a0: 17e3 f2be d0ed 2dbf cc3a 62bf b92b 73bf
000000b0: 1cb2 88bf 27ad 82bf a42f 17bf af46 6dbf
000000c0: 0696 3bbf a2c3 f8be d10f 53bf d905 5bbe
000000d0: 6be3 10bf 1b1e 3cbf 3bd3 f9bb 0e89 1f3e
000000e0: d3a5 99bd df53 d7bf 22e6 47bf acee c4bf
000000f0: 82b8 50bf d358 b0bf c0ca 74bc 80b2 8bbf
-1.0949299 -0.7349785 -0.83729047 -0.13421729 -0.48295143 -0.4481143 -1.4318113 -1.3690999
-0.4384828 -0.13660288 0.16278026 -0.7921158 -0.59673727 -1.1997327 -1.1933224 -0.32441324
-0.70998853 -0.3566944 -1.0232763 -0.06829514 -1.3460888 -0.99724066 -0.38526416 -1.2326589
-0.91406864 -0.06586561 -0.103824556 0.030759625 -1.054482 -0.6201085 -0.5245492 -0.8251659
-0.7685167 -1.1876734 -0.7626685 -0.89986926 -1.7790241 -1.5541307 -1.2969688 -0.28705296
-0.4743888 -0.67941 -0.88370967 -0.9498859 -1.0679355 -1.0209092 -0.5905707 -0.9268598
-0.7327579 -0.48586756 -0.8244601 -0.2138895 -0.5659701 -0.7348344 -0.0076240576 0.15579626
-0.075023316 -1.682247 -0.7808553 -1.5385337 -0.81531537 -1.3777107 -0.0149409175 -1.0913849

fc2.weight f4 [64, 64]
00000000: dccb 5bbf 9616 d6bf c90b 1ebf b57a 8abe
00000010: c088 0fbe 845e 2c3e cb73 033f 3a14 243f
00000020: 07a4 9fbf 6338 00bf 53f2 e93e 6377 b93e
00000030: 1ad5 8ebc b308 84be dde9 ebbe 50fe c9be
00000040: ba1e 10be 489c a43e a52e 2c3e 99b7 21be
00000050: 73eb c1bf fe94 043f 539f c6bd 2228 433f
00000060: b9ac 043f 7095 c6bf 7b8e abbe c62d 143f
00000070: 61ef 82be 2709 5cbf 9ca3 103e 193d c13e
00000080: 261c f5be d36f d4be 5247 0a3f f5aa e5bd
00000090: 084e 5dbf e827 3ebf 1ac4 073e b676 dabe
000000a0: 17b3 fa3d 7cf6 7b3e 87e0 95bd 63f4 8c3e
000000b0: 31e2 573e fe88 51be 8003 a53e cc18 59be
000000c0: e92c a1be d6ed 4abe 9f52 dabb d31b e63e
000000d0: a61e 3cbe 677b 32bf 705c 81be daa9 573e
000000e0: 0a64 91be bb45 223f 8c27 943c 4976 cbbd
000000f0: 39d4 af3e 177c 28bf 3ba4 393f 2f1c 46be
00000100: 42d4 c5be f4c8 323f aa2b e0be a2a5 b0bc
00000110: 4865 523f b775 0f3f b784 61be 3579 ad3e
00000120: 6152 a33d 8c05 173e 5281 e2bc c5f1 993e
00000130: ebe8 5fbe b821 6a3e 6de2 febe 7eb5 40bf
00000140: 13d4 ed3e 0599 b0be 3b78 b1be 513a 0d3e
00000150: 6d07 9cbf b7b8 6ebf 2a95 d1bd cff4 433f
00000160: 08f9 f13e 7a1f 28be ba27 14be 79ad 383f
00000170: 64fd 093f 6f2c 4abd 2337 b7be dfd6 62c0
00000180: b359 cbbe 8401 343e a306 93be 7044 a9be
00000190: 4651 38be b656 3f3e e78b 83bf 1621 d93c
000001a0: 5226 4f3e d100 cdbf efc5 9dbe a987 e0bf
000001b0: a32b 82bf 9889 4ebf e69e ab3a 66e8 1bbf
000001c0: 5510 8e3e 9bf9 493e a70d c3be c4b4 b6bd
000001d0: b7ba f43e 284d 8b3c 2599 ecbc e7a7 173f
000001e0: 38bf 6abf eab9 6dbf fa82 23bf 755f 123f
000001f0: 76e1 7dbe 902e 71bc a8b7 f9be 6cd4 abbf
00000200: 8731 38bd 2380 ebbd afa5 0cbf b370 ac3e
00000210: 9d8d 233e a4b7 8e3e ad6d 123d e47f e53c
00000220: 54c6 5a3e 8903 92be 87d1 0ebf 3425 8d3e
00000230: 30d6 573e 8153 34bf 932e c2be 7219 06bf
00000240: e9ff 193f 5294 1dbf 799b fbbe eaa1 713d
00000250: a081 17bf 4b6f 3ebd 17f2 23be 01d9 b6be
00000260: e06a adbe cb5d 8cbe b92f 91be a439 a23d
00000270: f1b6 acbf b3f7 afbe 2e14 583d aa16 db3e
00000280: 28a1 ff3e 2f40 89bf c11f d73e bf7d 613e
00000290: a92c 723e 2e30 d63c f602 223f a6a1 6cbe
000002a0: 720b 8abe 05ec 54be 0111 15bf 7b4c 723f
000002b0: d1d4 913e ac7a 913e ec8b 0d3f 1ff7 8c3e
000002c0: 1373 2b3f 6cf0 2f3d f264 01be 35e7 8b3e
000002d0: 1237 b53e 4343 f8be 4bf7 753d 205b 8d3e
000002e0: ad23 093d 8bd1 7a3e 7a0c 8ebd 3acd a13e
000002f0: 9e17 3cbd 1716 9b3d 497f 85bd cef2 e5be
00000300: 5316 f5bd 150a 9abe 4fea 5dbd c663 953e
00000310: 6268 16bf 6234 33bf 73d4 63bf 4137 133f
00000320: 8136 60be 42c6 bdbd 433b 2f3e 2acf d33e
00000330: 1c25 f63e cffe 8abe 0f02 0abf 77fb 36be
00000340: 9a12 cebf 8b66 ddbd 6ae8 793e 01cb a4bf
00000350: 5685 aabe bd05 823e 826c b1bf 89c5 a93e
00000360: 68d6 b43c 4586 1abe a9a9 053d c0b3 45be
00000370: 44f4 50bf ce32 f5be 4bb6 053f 8df7 c0be
00000380: 67ae dc3d 2910 643e 01ff e43e 54f5 cb3e
00000390: d544 87be 26e6 8fbe 4a92 d4bf f866 49bf
000003a0: c009 1bbf 8e2b e13e f6fc 3cbf f502 c1be
000003b0: 796d c0bd bc70 2bbf 2c6e 03bf 5d50 463d
000003c0: 7cd3 b6bf ee1c 75bf 04ae 313e 9573 96bf
000003d0: e8d8 a5be 1816 ac3e 0468 82bf 5e0e b83e
000003e0: 8dc2 423f a11f f13e 3bb7 df3d fb4c 24be
000003f0: c731 8dbe e884 313f 9c60 f53c 4864 babd
-0.8585794 -1.6725643 -0.6173673 -0.27046743 -0.1401701 0.1683293 0.5134856 0.64093363
-1.2471932 -0.5008604 0.4569269 0.36223897 -0.0174356 -0.25787887 -0.4607686 -0.39451838
-0.14074221 0.32150483 0.16814668 -0.15792693 -1.5149978 0.51789844 -0.096983574 0.7623311
0.51826054 -1.5514355 -0.3350714 0.57882345 -0.25573257 -0.85951465 0.14124912 0.37741926
-0.47873038 -0.41491565 0.54015076 -0.11214248 -0.8644719 -0.7427964 0.132584 -0.42668694
0.1224119 0.24605745 -0.07318216 0.27530202 0.21082379 -0.20462415 0.32229233 -0.21200866
-0.31479576 -0.1981729 -0.0066626812 0.44943103 -0.18371066 -0.6971955 -0.25265837 0.21060887
-0.28396636 0.6338765 0.018085264 -0.099346705 0.343416 -0.65814346 0.7251622 -0.19346689
-0.38638502 0.6983788 -0.43783313 -0.021563355 0.8218579 0.56038994 -0.22023283 0.33881536
0.07974697 0.1474821 -0.027649555 0.30067268 -0.21866195 0.22864425 -0.49782124 -0.75276935
0.46450862 -0.34491745 -0.3466204 0.13791777 -1.2189766 -0.932506 -0.10233529 0.76545423
0.47260308 -0.16418257 -0.1446828 0.721397 0.5390227 -0.04935878 -0.35784253 -3.5443647
-0.39716873 0.17578703 -0.28716 -0.33060026 -0.17999753 0.18685421 -1.027707 0.026505034
0.20229462 -1.6015874 -0.30815074 -1.75414 -1.0169567 -0.806787 0.001309362 -0.60901487
0.27746835 0.19724123 -0.38096353 -0.08921197 0.47798702 0.017004564 -0.028881619 0.59240574
-0.91698027 -0.9286181 -0.6387173 0.57176906 -0.24793038 -0.014720574 -0.4877293 -1.3424201
-0.044969108 -0.114990495 -0.54940313 0.33679733 0.1597199 0.27874482 0.035749126 0.028015085
0.21364719 -0.28518322 -0.55788463 0.27567446 0.210778 -0.70439917 -0.37926158 -0.52382576
0.6015611 -0.61554444 -0.49142054 0.058992304 -0.5918217 -0.046492856 -0.16010319 -0.35712436
-0.33870602 -0.27415308 -0.28356722 0.0792115 -1.3493329 -0.34368667 0.05275362 0.4279073
0.4992764 -1.0722712 0.42016414 0.22020625 0.23649849 0.02614602 0.6328577 -0.23108539
-0.26961857 -0.2079316 -0.5822907 0.9464795 0.2848268 0.28413904 0.5529163 0.27532288
0.66972464 0.042953894 -0.12636164 0.27324834 0.35393578 -0.48488817 0.06005029 0.27608585
0.03348129 0.24493997 -0.069359735 0.31601888 -0.04592096 0.07572573 -0.06518418 -0.44911808
-0.11967149 -0.30085817 -0.054178532 0.29177684 -0.58753026 -0.70001805 -0.88996047 0.57506186
-0.21895792 -0.0926633 0.1711245 0.4136899 0.48075187 -0.2714753 -0.5390939 -0.17869364
-1.6099427 -0.10810574 0.24405065 -1.2874452 -0.33304852 0.25395003 -1.3861239 0.3315852
0.022074893 -0.15090282 0.032632504 -0.1930685 -0.8162272 -0.47890323 0.5223128 -0.37688866
0.10775452 0.2227179 0.44725803 0.39835608 -0.26419702 -0.28105277 -1.6607144 -0.7867274
-0.6056175 0.43978542 -0.7382349 -0.3769757 -0.0939588 -0.66968894 -0.51339984 0.048416484
-1.428329 -0.9574727 0.17351538 -1.1754023 -0.3239205 0.33610606 -1.0187993 0.3594846
0.7607811 0.47094443 0.1092362 -0.1604499 -0.2757704 0.69343424 0.029953294 -0.091011584

fc2.bias f4 [64]
00000000: b5c3 97be 9af8 2dbf 21aa 163f 3a0d 05bf
00000010: bac8 963d 51a2 6c3e 9951 38be dd29 39bf
00000020: 5f55 43be 5e9e 5e3e 3a6f e93e 387e d8be
00000030: 68c1 103e c5d6 1a3f a157 0bbe 42d8 50bc
00000040: b7ba aabe 7169 f93d b2af 40bf 0757 05be
00000050: f732 5ebd f3e7 bebd b696 55bf 967f 933e
00000060: c5de e8bd ff83 083f f548 87be 739e 9abf
00000070: 82ec aebe e892 c93e b986 23bc 477b 363d
00000080: bc28 25be 30ca 8f3c 6c8f 8cbe ab05 3d3c
00000090: 5c5b bcbe 7053 13bd 5e34 8fbe a727 80be
000000a0: 3f6a adbe 6533 34bf a33d 53be 94ae ebbd
000000b0: 3857 8c3d c7c5 6f3e 3b3e 83bf 0ae7 e73e
000000c0: 24a2 08bd 25d9 00be cf0b 1ebf 5e58 a53d
000000d0: 7d6d 3bbd 59e7 c6bc e535 0abf d8e6 2abf
000000e0: a2ba 6ebe 85ae 26be c13e e73e ac86 343e
000000f0: 1796 e0bd 06f4 0ebe fb83 0ebf 7a7f 62be
-0.296415 -0.6795746 0.58853346 -0.5197331 0.07362504 0.23108794 -0.17999877 -0.72329503
-0.19075535 0.217401 0.45592672 -0.42283797 0.14136279 0.6048396 -0.13607647 -0.012746872
-0.33345577 0.121783145 -0.7526809 -0.1302148 -0.054247823 -0.093215846 -0.8343309 0.28808278
-0.11370615 0.5332641 -0.2642285 -1.2079605 -0.34164816 0.39369893 -0.009980851 0.04455116
-0.1612882 0.017552465 -0.27453172 0.011536996 -0.36788452 -0.035968244 -0.2796964 -0.25030252
-0.33870122 -0.7039092 -0.20628981 -0.115079075 0.06852573 0.2341529 -1.0253366 0.45293456
-0.033357754 -0.12582834 -0.6173677 0.08073495 -0.045758713 -0.024280237 -0.53988487 -0.6675849
-0.23313382 -0.16277511 0.45165065 0.17629498 -0.10966127 -0.13960275 -0.55670136 -0.22118941

fc3.weight f4 [1, 64]
00000000: 904b 58be d5e3 cabe 63a0 d73d 5c16 9e3f
00000010: f69c 6cbe 7591 cbbe 93bc e0bd 4c57 1cbf
00000020: c04d 7a3c fad8 a73e a356 15bf 01ac dcbe
00000030: c598 183f 1853 ecbd 5048 b63c 5002 36be
00000040: 9ece a03e 202e 003f 8a10 7e3f de83 63bd
00000050: 3723 953e 2fae 77bf 6ae3 3c3f a71a 0c3e
00000060: 36ea dd3f 63f5 73be eb87 febc 1db3 49bf
00000070: 30b8 86be acbc 46be 2289 5f3f e1e8 823e
00000080: 8be3 b63e c71e 3c3e a264 413b 4b89 2b3f
00000090: da36 cf3e f178 28bf 670c efbe 4174 333e
000000a0: 41e7 d33e ae58 15bf 1c6c 2f3c f4a3 f93e
000000b0: c765 e03d 1f00 32bf 1e7e 87bf bdd8 013f
000000c0: f2b7 58bb bc46 ad3c df87 4f3e b4c5 cabe
000000d0: 25ba 133e 74ec 8abe 0894 74bf dc04 b0be
000000e0: e971 8abc 4101 2a3c d133 0c3e 1fbc 473e
000000f0: 3663 a0be eb5a 163e 8f31 643e 56c2 9bbc
-0.21122575 -0.39626947 0.10528638 1.2350574 -0.23106751 -0.39759412 -0.10973468 -0.61070704
0.015277326 0.32782727 -0.5833532 -0.4309998 0.5960811 -0.115392864 0.022251278 -0.1777432
0.31407636 0.5007038 0.99243987 -0.05554568 0.2912843 -0.9675016 0.73784506 0.13682042
1.73371 -0.23824076 -0.03107067 -0.7878893 -0.263124 -0.1940791 0.87318623 0.25568298
0.35720477 0.18371116 0.0029509445 0.6700637 0.40471536 -0.6580954 -0.4668915 0.17524816
0.4138737 -0.5833844 0.010706928 0.487579 0.109569125 -0.69531435 -1.0585363 0.5072134
-0.0033068624 0.021151893 0.20266674 -0.3960396 0.14426477 -0.27133524 -0.9553838 -0.34378707
-0.01690002 0.0103762755 0.13691641 0.19505356 -0.31325692 0.1468312 0.2228453 -0.019013565
