trained_models_1L_3/power_issue_model.pth (torch, 24359 bytes, 5 tensors)

fc1.weight f4 [64, 19]
0.38834587 0.42439744 -0.043694966 -0.21410406 -0.5873369 0.24931337 0.123984925 0.41692415
0.50445837 -0.016696334 1.6262541 -0.4649797 0.0656513 0.08716169 -0.053427994 -0.28879756
-0.71199197 0.32973853 0.2695453 0.3559296 0.11037219 0.26013753 -0.04284987 -0.58977646
0.23197499 -0.089989536 0.04441469 0.26996213 0.000369717 -2.3527095 -0.6585889 -0.3627217
-0.04665107 -0.06766627 -0.3567192 -0.04510976 -0.11013197 0.03678852 -0.17845535 -0.10888809
-0.057006914 -0.035589952 -0.09572553 -0.22435768 -0.22642373 0.11423397 -0.032907426 -0.1226039
2.5245585 0.020081908 0.21408713 0.0153455 0.023371737 0.16008534 0.27287346 0.0675143
-0.15679798 -0.72579914 0.35685995 0.3114355 0.17749672 -0.34833342 0.05865094 0.29559952
0.173394 -0.051877927 0.55670935 -2.050283 0.494046 0.19194037 -0.4046541 0.12607929
0.62611705 0.04051154 -0.37215593 -0.43911985 0.12513334 0.18730745 -0.284941 0.3110951
0.07189707 -0.02959887 0.021014886 0.69903696 0.66076404 -0.15516873 -0.18159552 0.32633796
0.415009 0.42019048 -0.45113593 -0.29501405 -0.64678574 0.040249515 -0.010006098 0.070267424
-0.33510745 -0.29823178 0.13873887 0.42760035 -0.42014223 0.52552134 -0.020648563 0.08675995
0.26171628 -2.6121132 0.088695556 -0.5094922 -0.13832666 0.25966412 0.25030318 0.60475606
-0.015356852 0.111706756 0.81146395 0.054716792 0.3828706 -0.15910631 -0.13036682 0.6895973
0.38053688 -0.6916914 -0.0096365595 -0.110651866 0.23832832 -0.0071413596 0.039040998 0.017425409
-0.10232464 -1.3101486 -0.17488581 -0.31929657 -0.48413354 0.07315134 0.08358056 -0.27787894
-0.31717268 0.674171 0.40829986 -0.28857943 0.6200005 -0.22839382 0.002080605 -1.7776943
0.48622566 -0.62511444 0.021965522 -0.47837105 0.04404524 -0.62622803 -0.16513173 0.18734926
0.2996408 -0.07123767 -0.021701954 0.46572122 0.18271637 0.047561686 -0.35744664 0.34015965
-0.30588892 0.08326091 -1.807786 -0.14779343 -0.1369992 0.09227744 -0.2548804 -0.009654726
-0.33097452 -0.5254615 0.03506909 0.4215113 0.4263988 -0.093633346 0.16134365 0.7975797
0.1350622 0.16664788 0.7353095 -0.30944383 -0.47026205 -1.1344396 -0.08736 0.7558822
-0.23164698 -0.41411313 -0.24401534 0.5536308 0.10296335 -0.9066986 -0.55182135 -0.50627995
-0.504414 -0.058988143 0.22116742 -0.24075572 -0.20237797 -0.23218954 -0.08495493 0.01566665
-2.0889516 -0.72452575 -0.015147364 -0.07113837 0.14073221 0.12388645 -0.2299048 0.18794157
-0.2824744 0.7481896 0.973584 -0.69612056 -0.49959004 -0.65917975 -0.12994947 -0.14045805
-0.035727054 0.16311887 0.6000939 0.8231019 -0.38612655 0.5968603 -0.48496252 -0.11123033
-0.7401568 0.14938731 0.04520693 -0.9433106 -0.3225317 -0.2805431 0.008721667 -0.09680934
0.06871062 0.69521445 0.06923952 -0.33167696 -0.24973223 0.37849605 -2.5308084 0.053507652
-0.14660914 -0.11757311 -0.12416129 -0.039390184 -0.44940624 0.2596862 -0.26588067 -0.17519598
-0.07337965 0.029474579 -0.9296145 -0.35220003 -0.33484498 0.24629359 0.41609696 -0.4346066
00000000: 45d5 c63e 9f4a d93e 7ef9 32bd 183e 5bbe
00000010: b65b 16bf 014c 7f3e cfeb fd3d 1577 d53e
00000020: 2f24 013f c0c6 88bc 1829 d03f d211 eebe
00000030: 3074 863d d481 b23d 50d7 5abd 46dd 93be
00000040: 1b45 36bf 7dd3 a83e d701 8a3e 683c b63e
00000050: d10a e23d bf30 853e 5883 2fbd 97fb 16bf
00000060: da8a 6d3e 6f4c b8bd 2eec 353d 7a38 8a3e
00000070: 93d6 c139 cb92 16c0 4899 28bf a9b6 b9be
00000080: 3115 3fbd 9d94 8abd e6a3 b6be 03c5 38bd
00000090: df8c e1bd 8faf 163d 00bd 36be b800 dfbd
000000a0: 1580 69bd c5c6 11bd bf0b c4bd 05be 65be
000000b0: 9fdb 67be 80f3 e93d f0c9 06bd c117 fbbd
000000c0: 5e92 2140 d082 a43c a839 5b3e b16b 7b3c
000000d0: 1676 bf3c 69ed 233e 12b6 8b3e f044 8a3d
000000e0: a68f 20be f9cd 39bf 59b6 b63e 7974 9f3e
000000f0: b3c1 353e c258 b2be f83b 703d d258 973e
00000100: 328e 313e f37d 54bd 8184 0e3f d637 03c0
00000110: 99f3 fc3e 048c 443e d22e cfbe ee1a 013e
00000120: 3549 203f 6eef 253d 398b bebe 51d4 e0be
00000130: f422 003e 86cd 3f3e c9e3 91be db47 9f3e
00000140: c53e 933d 5479 f2bc 6927 ac3c 16f4 323f
00000150: d527 293f 8de4 1ebe 2df4 39be c515 a73e
00000160: 0f7c d43e 3523 d73e 4afb e6be 150c 97be
00000170: c093 25bf addc 243d 9ef0 23bc 5ee8 8f3d
00000180: 3493 abbe d6b1 98be 9011 0e3e 6fee da3e
00000190: e21c d7be 9188 063f 2d27 a9bc 33af b13d
000001a0: adff 853e dd2c 27c0 04a6 b53d 156e 02bf
000001b0: 81a5 0dbe b2f2 843e bd27 803e 4bd1 1a3f
000001c0: 4e9b 7bbc 83c6 e43d 1abc 4f3f b71e 603d
000001d0: 9e07 c43e c4ec 22be e17e 05be 7389 303f
000001e0: bbd5 c23e b012 31bf a9e2 1dbc 729d e2bd
000001f0: 570c 743e 1102 eabb 74e9 1f3d bbbf 8e3c
00000200: 958f d1bd f3b2 a7bf 4415 33be d77a a3be
00000210: 5ae0 f7be 5fd0 953d 492c ab3d 2646 8ebe
00000220: 7564 a2be 7896 2c3f ae0c d13e afc0 93be
00000230: 5ab8 1e3f 12e0 69be c25a 083b 7d8b e3bf
00000240: 92f2 f83e 8007 20bf 0af1 b33c 0ded f4be
00000250: c868 343d 7b50 20bf 4b18 29be 7cd8 3f3e
00000260: 856a 993e 0ee5 91bd 4cc8 b1bc 0373 ee3e
00000270: 001a 3b3e 0bd0 423d 3f03 b7be 6829 ae3e
00000280: 799d 9cbe b284 aa3d 8865 e7bf 2957 17be
00000290: 8549 0cbe f4fb bc3d af7f 82be db2e 1ebc
000002a0: 7e75 a9be a584 06bf 9ba4 0f3d 54d0 d73e
000002b0: f250 da3e d7c2 bfbd 4537 253e 2f2e 4c3f
000002c0: bf4d 0a3e bea5 2a3e 3e3d 3c3f 6c6f 9ebe
000002d0: 30c6 f0be 5135 91bf cde9 b2bd 7f81 413f
000002e0: de34 6dbe a306 d4be 28df 79be c0ba 0d3f
000002f0: 73de d23d 661d 68bf 2a44 0dbf 909b 01bf
00000300: 4721 01bf 8d9d 71bd b679 623e ab88 76be
00000310: 2c3c 4fbe 18c3 6dbe dafc adbd 5957 803c
00000320: 62b1 05c0 857a 39bf a62c 78bc feb0 91bd
00000330: 1b1c 103e 2eb8 fd3d 2a6c 6bbe c173 403e
00000340: 7ca0 90be 5b89 3f3f cd3c 793f f534 32bf
00000350: 44ca ffbe 01c0 28bf 7911 05be 3cd4 0fbe
00000360: 8856 12bd a208 273e c19f 193f ceb6 523f
00000370: 61b2 c5be d6cb 183f 024d f8be bacc e3bd
00000380: eb7a 3dbf fdf8 183e e72a 393d ce7c 71bf
00000390: e022 a5be 58a3 8fbe 53e5 0e3c fa43 c6bd
000003a0: 27b8 8c3d 93f9 313f 73cd 8d3d 90d1 a9be
000003b0: ceb9 7fbe 3cca c13e c4f8 21c0 d72a 5b3d
000003c0: b520 16be 2cca f0bd 4648 febd 9a57 21bd
000003d0: 9318 e6be 97f5 843e 8321 88be 9366 33be
000003e0: 1248 96bd ac74 f13c 37fb 6dbf 9053 b4be
000003f0: cd70 abbe 6334 7c3e a90a d53e c284 debe

fc1.bias f4 [64]
0.23899247 -0.5376534 -0.98474985 -0.7668154 0.72059387 -0.69592094 -1.4165701 -0.9873336
0.58031994 -1.191707 0.17967688 0.22249559 -0.61609405 -0.6315511 -0.56009555 -1.5944655
1.5034395 0.32100317 0.92306525 0.69379956 -0.8758401 0.13989146 -0.6776966 0.92988575
0.77342016 -0.9020429 -0.5741152 0.8126202 0.19956642 -0.5808612 -0.8303713 -0.699401
-0.636946 -0.9890633 0.4336657 -0.7212424 0.68468255 -0.3301244 -0.09631818 -1.0053655
-0.598696 0.39398292 -1.1474758 1.1872256 -0.43519258 0.09720035 0.20815502 -0.274082
0.36321446 -0.650525 -0.037944015 0.3152208 0.7913438 0.022199027 0.6562863 0.3588092
-0.4273105 -0.4237121 -0.48963153 -0.7866841 0.06516539 -0.5196277 0.73001045 -1.1728995
00000000: 71ba 743e a7a3 09bf 9118 7cbf 044e 44bf
00000010: d778 383f e027 32bf 2b52 b5bf e5c1 7cbf
00000020: d98f 143f db89 98bf 37fd 373e e2d5 633e
00000030: 57b8 1dbf 55ad 21bf 6c62 0fbf 7217 ccbf
00000040: b570 c03f 875a a43e 014e 6c3f d99c 313f
00000050: 0f37 60bf b53f 0f3e 867d 2dbf fe0c 6e3f
00000060: ddfe 453f 49ec 66bf 37f9 12bf e107 503f
00000070: 245b 4c3e 52b3 14bf 3793 54bf f20b 33bf
00000080: e50e 23bf 4133 7dbf 6e09 de3e 58a3 38bf
00000090: 5b47 2f3f 1106 a9be 7742 c5bd d1af 80bf
000000a0: 2444 19bf 21b8 c93e 7de0 92bf 02f7 973f
000000b0: 90d1 debe fa10 c73d 9726 553e 7a54 8cbe
000000c0: 3ff7 b93e ce88 26bf 2f6b 1bbd 9f64 a13e
000000d0: 8295 4a3f bcda b53c 6102 283f d7b5 b73e
000000e0: 71c8 dabe cbf0 d8be fcb0 fabe 2164 49bf
000000f0: 6f75 853d 5206 05bf f7e1 3a3f 9221 96bf

fc2.weight f4 [64, 64]
0.2535391 -0.5039768 0.41610855 -2.0886478 -0.44899395 -1.3577101 -1.484405 -1.8853295
-1.6754897 -2.388015 -1.7120984 -0.24392912 -1.9976733 -0.20820676 0.45514968 -2.1014905
-0.56889504 0.30416378 0.013384769 -0.050089285 0.1169246 -0.4411583 -0.77114266 0.007240191
-0.37353066 -1.0733036 -0.052259628 -0.55621856 0.34015188 -0.3032403 -0.4962711 -0.10083027
1.0661049 0.3254768 0.13452451 -0.20578745 -0.36620942 0.4751749 0.09840618 -1.1394337
0.7132218 0.16059664 -0.23678783 0.110840484 -0.2790141 0.42304823 -0.5706488 -0.55610514
0.086779684 -0.38031232 0.36009246 0.12930804 0.19693059 -0.42263958 0.18694085 -0.11974041
0.07575782 -0.17213657 -0.51731217 -0.2707442 -1.4174441 -0.22541563 -0.7901159 -1.8563184
0.32636404 1.9634427 -0.11763589 -1.4872131 0.5136287 0.09908931 -0.6221067 -0.1939718
-0.17273334 -0.45730844 -0.756969 0.18576421 0.75705534 -0.52455103 0.21333769 0.35933968
-0.85230523 0.22114877 -0.019552846 0.058018304 0.30858025 -0.42913854 0.29695728 -0.420696
-0.00968347 0.12089291 0.44641262 -0.9558257 -0.59718776 0.28911856 0.49037856 -0.7359793
2.146312 0.2774283 -0.4296252 0.22112916 -0.07538711 0.25708348 0.4639806 -0.58783466
0.61050785 -0.050873395 -0.2897205 0.13251096 -0.6034368 -0.25304246 0.83129597 0.40907753
-0.2575597 0.4030143 0.16684128 0.11219476 0.23604736 -0.9722298 -0.15995762 -0.0633237
0.115971245 -0.3114619 -0.130682 0.01338559 -0.533264 0.8064207 -0.61665046 -0.43181872
0.21293017 0.26862735 0.38573152 -0.37227097 -0.28195545 -0.3561608 -0.7220551 0.11843488
-0.8240451 -0.21136826 -0.116225354 -0.8345091 -1.7621973 0.11162837 -0.34611535 -0.0017291725
-0.393845 0.18903904 -0.09338231 -0.09302362 -0.66467637 0.07822953 0.8856084 -0.47239175
-0.62848496 -0.9397643 0.76207733 -0.6288436 0.7365088 0.30527073 0.4370526 -1.1029068
1.2188333 0.3285059 -0.072030686 0.64248437 -0.5391482 0.3266487 0.30061066 -0.27101868
0.101503365 0.21748796 -0.15640111 -0.48063463 0.3764703 -0.9788856 0.12794603 -0.12287487
0.10961737 0.35570246 0.07503943 -0.082222775 0.37359336 -1.289502 0.15984556 -0.23727033
0.16066791 -0.25733307 -0.07491974 -0.26615033 0.14123282 -0.10661309 0.21075602 -0.8116056
0.28281116 -0.39927563 -0.4015599 0.13800025 0.21042173 0.17021705 0.010365681 -0.19494003
-0.024294827 0.12180502 -0.2976485 0.014775584 0.18632168 -0.075272605 -0.24944443 0.1639382
0.19153766 0.34158653 0.089754246 0.1748789 0.21369034 -0.14372286 -0.29954433 0.27972358
0.3848068 0.4119958 -0.013962109 -0.22013798 -0.07524605 -0.13504027 -0.11628878 -0.015864938
-0.07639485 -0.04428211 0.7331099 -0.15288556 0.35394132 0.15110293 0.40688574 -0.036082312
-0.22702803 -0.17500004 -0.11364393 0.29661563 0.26523727 0.41316053 0.16916879 -0.14254124
0.1424139 0.06887178 0.11106844 0.092230506 0.35193628 -0.010988441 0.20295766 -0.061710414
0.30254218 0.75050724 0.6424396 -0.13625376 -0.045199793 -0.051036503 0.1853017 0.17004733
00000000: e0cf 813e a004 01bf 2e0c d53e 68ac 05c0
00000010: 89e2 e5be 72c9 adbf fc00 bebf 7a52 f1bf
00000020: 7276 d6bf 3dd5 18c0 0a26 dbbf 8ec8 79be
00000030: c2b3 ffbf 2734 55be 6109 e93e d27e 06c0
00000040: 1ba3 11bf 5bbb 9b3e ca4b 5b3c 6c2a 4dbd
00000050: 2a76 ef3d 80df e1be 9b69 45bf 203f ed3b
00000060: 693f bfbe 0362 89bf 310e 56bd 5764 0ebf
00000070: 6328 ae3e 5042 9bbe 3f17 febe 1a80 cebd
00000080: 2076 883f e5a4 a63e cbc0 093e f2b9 52be
00000090: cd7f bbbe 204a f33e 2e89 c93d f7d8 91bf
000000a0: b495 363f 7273 243e 8278 72be 5600 e33d
000000b0: f0da 8ebe c799 d83e 0a16 12bf e85c 0ebf
000000c0: 8cb9 b13d 4cb8 c2be 0a5e b83e 5469 043e
000000d0: 2ca8 493e 3764 d8be 6c6d 3f3e 763a f5bd
000000e0: ea26 9b3d 9244 30be 926e 04bf fc9e 8abe
000000f0: cf6e b5bf 5bd3 66be 0945 4abf d79b edbf
00000100: 3019 a73e 1752 fb3f 16eb f0bd 005d bebf
00000110: 2c7d 033f 56ef ca3d 6242 1fbf 8ba0 46be
00000120: 02e1 30be 5524 eabe b8c8 41bf f938 3e3e
00000130: 61ce 413f fa48 06bf 3275 5a3e 5ffb b73e
00000140: ad30 5abf d374 623e 4a2d a0bc 9aa4 6d3d
00000150: 3bfe 9d3e 0cb8 dbbe c90a 983e 7765 d7be
00000160: 6ba7 1ebc b496 f73d 3290 e43e feb0 74bf
00000170: 4ce1 18bf 5907 943e e612 fb3e 2469 3cbf
00000180: 2d5d 0940 150b 8e3e d6f7 dbbe af6f 623e
00000190: 8f64 9abd 72a0 833e dd8e ed3e 557c 16bf
000001a0: 3e4a 1c3f 9f60 50bd 3f56 94be f4b0 073e
000001b0: d67a 1abf c88e 81be d0cf 543f 9c72 d13e
000001c0: ddde 83be e457 ce3e 71d8 2a3e 5ec6 e53d
000001d0: 66b6 713e 0de4 78bf eecb 23be dbaf 81bd
000001e0: 5582 ed3d ef77 9fbe 81d1 05be 3c4f 5b3c
000001f0: fd83 08bf 9671 4e3f cedc 1dbf 5817 ddbe
00000200: 5e0a 5a3e 8689 893e 9a7e c53e 4d9a bebe
00000210: 775c 90be b55a b6be 9ad8 38bf fd8d f23d
00000220: 9ff4 52bf ec70 58be 8f07 eebd 63a2 55bf
00000230: ae8f e1bf 6a9d e43d 0836 b1be 67a5 e2ba
00000240: 0da6 c9be 7393 413e 393f bfbd 2b83 bebd
00000250: 3b28 2abf ce36 a03d 3bb7 623f 55dd f1be
00000260: 64e4 20bf 6594 70bf 8017 433f e5fb 20bf
00000270: d78b 3c3f 724c 9c3e 5cc5 df3e 0d2c 8dbf
00000280: bb02 9c3f ed31 a83e d384 93bd db79 243f
00000290: 9e05 0abf 803e a73e a4e9 993e f6c2 8abe
000002a0: ffe0 cf3d 2ab5 5e3e 9d27 20be be15 f6be
000002b0: b7c0 c03e 3f98 7abf 4904 033e d2a5 fbbd
000002c0: 127f e03d a21e b63e 46ae 993d 6a64 a8bd
000002d0: a147 bf3e 670e a5bf 8eae 233e fef6 72be
000002e0: 2186 243e 29c1 83be 856f 99bd db44 88be
000002f0: 569f 103e f757 dabd 6dd0 573e 62c5 4fbf
00000300: a0cc 903e db6d ccbe 4299 cdbe f04f 0d3e
00000310: cb78 573e 614d 2e3e d1d4 293c 5c9e 47be
00000320: f205 c7bc e974 f93d 6265 98be 4b15 723c
00000330: 1ccb 3e3e 8628 9abd 5c6e 7fbe 6adf 273e
00000340: 7322 443e 6ee4 ae3e 13d1 b73d 7413 333e
00000350: a4d1 5a3e 162c 13be e05d 99be ee37 8f3e
00000360: 6605 c53e 1df1 d23e 54c1 64bc da6b 61be
00000370: 9a1a 9abd ff47 0abe d028 eebd 30f7 81bc
00000380: e774 9cbd 2861 35bd 17ad 3b3f 088e 1cbe
00000390: cc37 b53e baba 1a3e 5453 d03e 0ccb 13bd
000003a0: 097a 68be 3633 33be 26be e8bd 01de 973e
000003b0: 2ecd 873e c789 d33e 953a 2d3e 55f6 11be
000003c0: f3d4 113e a60c 8d3d da77 e33d 59e3 bc3d
000003d0: fe30 b43e dd08 34bc 22d4 4f3e 0fc4 7cbd
000003e0: cfe6 9a3e 3e21 403f ec76 243f 1b86 0bbe
000003f0: 6b23 39bd a70b 51bd bbbf 3d3e e320 2e3e

fc2.bias f4 [64]
-0.8919331 -1.1894165 -1.0289541 1.6642618 -1.0012275 -0.88458496 -0.943912 -0.4203096
-0.5035609 1.0603021 0.24147815 -0.90305936 0.21405289 -0.5841373 -1.4514217 -0.9255303
0.6568081 -1.1098889 0.48176485 -0.068291105 -0.9055458 0.7920441 -0.86370707 0.23849386
0.36283463 -0.93821615 0.23514509 0.04806765 -0.6829148 0.23179777 -1.1528344 0.5128605
0.27633747 -1.270271 -0.87505615 0.99681175 -1.1437219 -0.9082578 -0.4574764 0.9655879
-0.35735384 -1.1623918 -0.75956523 -1.089798 -1.4288231 -0.5446118 0.67844 -0.6672131
-0.3615167 -1.0861124 0.028096998 -0.8295049 -0.8472321 0.58939093 -1.2044795 -1.0437973
0.96506506 1.178724 0.8438907 -0.18318014 -1.4345741 -1.0374167 -0.16690092 0.45596606
00000000: ba55 64bf cd3e 98bf c5b4 83bf 8806 d53f
00000010: 3928 80bf 2974 62bf 38a4 71bf d232 d7be
00000020: 5ee9 00bf fbb7 873f 0c46 773e e62e 67bf
00000030: ae30 5b3e 068a 15bf 30c8 b9bf 8eef 6cbf
00000040: 9324 283f d710 8ebf e2a9 f63e 35dc 8bbd
00000050: d9d1 67bf 67c3 4a3f e81b 5dbf bc37 743e
00000060: 76c5 b93e ef2e 70bf e0c9 703e 96e2 443d
00000070: 81d3 2ebf 655c 6d3e 1490 93bf d34a 033f
00000080: 1b7c 8d3e 3d98 a2bf ae03 60bf 0e2f 7f3f
00000090: 7b65 92bf 9583 68bf 593a eabe c530 773f
000000a0: 15f7 b6be 41c9 94bf de72 42bf 807e 8bbf
000000b0: ade3 b6bf ae6b 0bbf 3eae 2d3f 7ace 2abf
000000c0: b818 b9be bb05 8bbf ad2b e63c 6f5a 54bf
000000d0: 34e4 58bf 53e2 163f 622c 9abf 269b 85bf
000000e0: 810e 773f 6ee0 963f 3909 583f 9393 3bbe
000000f0: 20a0 b7bf 12ca 84bf 13e8 2abe 6274 e93e

fc3.weight f4 [1, 64]
-0.9945352 0.22268838 1.691227 -0.14265023 0.46001896 0.81279504 0.11260271 -0.8203658
0.7304119 -0.2885054 -0.008726064 0.11260344 -1.1139582 0.87717384 0.42059126 0.44445673
-0.61561894 1.2806729 0.8399805 0.086496204 0.53234285 -0.566362 0.24319841 -0.7313572
2.5316272 0.45160344 -0.028579423 -0.77698284 0.987709 -0.002875808 0.10536604 -0.5510268
-0.874944 0.50075275 1.1918247 0.9235207 0.17101638 1.021608 0.48606113 1.1069529
0.8109557 0.18359846 0.54998595 1.1963919 1.8548905 0.74546826 -0.4382388 1.1828173
0.3981187 0.079201974 -0.026864138 1.0488341 0.15742317 -0.7006821 0.37700933 0.14342505
1.9982147 -0.2145289 1.6485163 -0.020070015 1.3470478 2.9555452 0.88185483 -0.5930263
00000000: dc99 7ebf 6c08 643e 207a d83f e712 12be
00000010: 9b87 eb3e 5613 503f 409c e63d 7e03 52bf
00000020: 46fc 3a3f fbb6 93be c4f7 0ebc a29c e63d
00000030: 2f96 8ebf 778e 603f bd57 d73e d58f e33e
00000040: 3499 1dbf 17ed a33f f608 573f ec24 b13d
00000050: 9f47 083f 1afd 10bf 0109 793e 3a3a 3bbf
00000060: 2e06 2240 9138 e73e 651f eabc 59e8 46bf
00000070: 7fda 7c3f 0d78 3cbb 26ca d73d 1810 0dbf
00000080: 54fc 5fbf 5531 003f b68d 983f da6b 6c3f
00000090: eb1e 2f3e 0dc4 823f 01dd f83e a2b0 8d3f
000000a0: cb9a 4f3f 3c01 3c3e e1cb 0c3f 5f23 993f
000000b0: 0d6d ed3f 02d7 3e3f d660 e0be 8f66 973f
000000c0: 37d6 cb3e a534 a23d 2e12 dcbc 3240 863f
000000d0: 8a33 213e e75f 33bf 5e07 c13e 04de 123e
000000e0: 80c5 ff3f 77ad 5bbe 9502 d33f df69 a4bc
000000f0: 106c ac3f a727 3d40 3dc1 613f 92d0 17bf
