trained_models_1L_3/sensor_malfunction_model.pth (torch, 24479 bytes, 5 tensors)

fc1.weight f4 [64, 19]
0	0x3f296f0c	0.6618507
1	0x3f09e684	0.53867364
2	0xbf02fa83	-0.511635
3	0xbfb6d783	-1.4284519
4	0x3de23d2a	0.11046822
5	0xbe5566c1	-0.20839979
6	0x3e1b488b	0.15164392
7	0xbf4f0790	-0.80870914
8	0xbec97a0c	-0.39350927
9	0xbec810c4	-0.3907529
10	0xbf04284b	-0.5162398
11	0xbdc8764d	-0.09788189
12	0x3dbfac7c	0.09359071
13	0xbd7e8980	-0.06214285
14	0x3edd9570	0.43278074
15	0xbe4d797b	-0.20065872
16	0xbd849655	-0.06473986
17	0xbec19024	-0.37805283
18	0x3e6dd7b1	0.23226811
19	0x3ecfbcf8	0.4057386
20	0xbf33f0b4	-0.7028916
21	0xbe0c88fd	-0.13724132
22	0xbe0ed32b	-0.13947742
23	0xbd30d88b	-0.04317526
24	0x3f2299bf	0.6351585
25	0xbeff2c67	-0.49838564
26	0xbe5be670	-0.21474624
27	0x3e412e25	0.18865259
28	0xbe170371	-0.14747407
29	0xbe311966	-0.17294845
30	0xbdea038a	-0.11426456
31	0x3eeb19ac	0.45918024
32	0x3ea3f226	0.32020682
33	0xbe691064	-0.22760159
34	0x3f0f6a18	0.5602126
35	0xbf3039ea	-0.6883837
36	0x3e06e4f4	0.13173276
37	0x3f63d79f	0.89000887
38	0xbe70207d	-0.23449893
39	0xbe2dd66a	-0.16976324
40	0x3f01f227	0.5076012
41	0x3f926679	1.1437522
42	0x3f60b184	0.8777087
43	0x3f2fe918	0.6871505
44	0xbec42d63	-0.38315877
45	0xbf546bea	-0.82977164
46	0xbdbc4f99	-0.091948695
47	0xbf1078cb	-0.56434315
48	0xbee6d571	-0.45084718
49	0x3ee2c4a2	0.44290644
50	0x3edf91d1	0.43665937
51	0x3eac9323	0.33706006
52	0x3d84feb4	0.06493893
53	0xbdb07463	-0.08615949
54	0x3f3b63ae	0.73198974
55	0x3e507d90	0.20360398
56	0xbeca20af	-0.3947806
57	0xbc6903f6	-0.014222136
58	0x3f41a862	0.75647557
59	0x3f57c6e4	0.8428786
60	0x3f67d7cf	0.9056367
61	0xbf8e9bf5	-1.1141344
62	0x3f41ce53	0.7570545
63	0xbb8b9aef	-0.004260413
64	0x3e41688b	0.18887536
65	0xbe01130a	-0.12604919
66	0x3e6734b1	0.22578694
67	0xbeb16558	-0.34647632
68	0xbe51c909	-0.20486845
69	0xbcfb76b5	-0.030696252
70	0x3eb300b3	0.3496147
71	0x3e011a06	0.12607583
72	0x3eb6460a	0.3560031
73	0x3f39e3b0	0.7261305
74	0xbec6aa88	-0.3880198
75	0xbe799c01	-0.24375917
76	0xbd30345b	-0.04301868
77	0xbea8a9d6	-0.32942075
78	0x3e13daeb	0.1443898
79	0xbed2f495	-0.41202226
80	0xbc41be08	-0.011825092
81	0x3dff8d3c	0.1247811
82	0xbec3ae2b	-0.38218817
83	0xbf2b12c7	-0.66825527
84	0xbeea38da	-0.457465
85	0x3d3d32c3	0.04619099
86	0xbea066b3	-0.31328353
87	0x3e9860cd	0.29761353
88	0xbda972ca	-0.082738474
89	0xbe0fd7f8	-0.1404723
90	0xbf7e7f09	-0.9941259
91	0x3f278762	0.6544095
92	0x3e145a42	0.14487556
93	0xbf7a28fa	-0.97718775
94	0xbf65ba14	-0.8973706
95	0x3f28a542	0.65877163
96	0x3da3d9a8	0.08000499
97	0x3d8ea868	0.06965715
98	0xbeb52618	-0.35380626
99	0x3e99da1c	0.30049217
100	0x3f32711e	0.69703853
101	0xbe9396c7	-0.2882597
102	0xbcaf49a2	-0.021397416
103	0x3e9e6aa4	0.30940735
104	0x3f0ef4c7	0.5584225
105	0xbe780a10	-0.24222589
106	0xbf074651	-0.5284167
107	0x3f1809d8	0.5939002
108	0xbeee0c21	-0.4649363
109	0xbe209bcd	-0.15684433
110	0xbdb84b05	-0.08998684
111	0xbd85a066	-0.06524734
112	0xbe8e8ad7	-0.278403
113	0x3f4c1182	0.79714215
114	0xbe51af53	-0.20477037
115	0x3cf51d40	0.029921174
116	0x3e2964e5	0.16542394
117	0x3eae09b9	0.33991793
118	0xbec77414	-0.38955748
119	0x3f7a9fa9	0.9789987
120	0xbdb20e13	-0.08694091
121	0xbe697f8e	-0.22802565
122	0xbf342724	-0.70372224
123	0x3f3cb602	0.7371522
124	0xbdf3833d	-0.11890266
125	0x3e5047ef	0.2033994
126	0xbe8d062f	-0.2754378
127	0x3efd1e96	0.49437398
128	0xbe59ccd0	-0.21269536
129	0xbf57a0c1	-0.84229666
130	0xbf775c8f	-0.9662561
131	0xbf3bfd5f	-0.7343349
132	0x3f40be3f	0.7529029
133	0xbe63b2c7	-0.22236167
134	0x3e2e7618	0.17037237
135	0x3ea332fb	0.31874833
136	0x3f98da0d	1.1941544
137	0x3dac192b	0.08403238
138	0xbeda8d1b	-0.4268578
139	0xbe8d29f7	-0.2757108
140	0x3ee21415	0.44155946
141	0x3e98230b	0.29714236
142	0x3e326a8e	0.1742346
143	0x3f2ae599	0.6675659
144	0xbec5e6e3	-0.38652715
145	0xbf34fe58	-0.707006
146	0x3d8dccc1	0.06923819
147	0xbd73fdc4	-0.05956818
148	0xbef50e84	-0.47862637
149	0x3f7b6b7d	0.9821089
150	0xbea751e9	-0.3267968
151	0xbf3b1a46	-0.73086965
152	0x3de96451	0.11396087
153	0x3c874625	0.01651294
154	0x3e329820	0.17440844
155	0x3f5d34c2	0.8640863
156	0xbe3493a7	-0.1763445
157	0xbf016626	-0.5054649
158	0x3edd0952	0.43171173
159	0xbf57b614	-0.84262204
160	0xbde9a998	-0.114093006
161	0x3f93880d	1.1525894
162	0x3eb52613	0.3538061
163	0xbed97da5	-0.42478672
164	0x3f344c75	0.70429164
165	0xbebc6952	-0.36799103
166	0x3e8bea09	0.27326992
167	0xbf38ffc7	-0.72265285
168	0x3ee1d32a	0.44106418
169	0x3eb40036	0.3515641
170	0xbe9690cf	-0.29407355
171	0xbe0574c1	-0.1303282
172	0xbe1ad4e5	-0.15120275
173	0xbd862baf	-0.06551301
174	0xbf3b727c	-0.73221564
175	0xbf0bf62d	-0.5467251
176	0x3ebdacda	0.37045938
177	0xbd92c6be	-0.07166813
178	0x3ecbad48	0.3978064
179	0xbf4ab4c0	-0.7918205
180	0x3d458a62	0.048227675
181	0x3e91b75f	0.28460214
182	0xbf4b1cec	-0.79341006
183	0xbdef641a	-0.11689015
184	0xbdce817c	-0.10083291
185	0x3ed7685b	0.42071804
186	0x3e7a79fc	0.24460596
187	0xbee6aada	-0.45052224
188	0xbede2063	-0.43384084
189	0x3f4af006	0.79272497
190	0xbdf92576	-0.12165348
191	0xbf321416	-0.695619
192	0x3f1330d7	0.574964
193	0xbeca1864	-0.39471734
194	0x3e2886c3	0.16457658
195	0xbf1f5908	-0.62245226
196	0x3f3b4395	0.73149997
197	0x3eacfdf7	0.3378751
198	0xbe0fc1ef	-0.14038824
199	0xbe9efc8e	-0.3105206
200	0xbb62f342	-0.0034629856
201	0x3e2b9752	0.16756943
202	0x3f6ccf6f	0.9250402
203	0x3f137882	0.57605755
204	0x3e4d25d3	0.2003396
205	0xbf4010b6	-0.750255
206	0x3e29f8e5	0.16598852
207	0xbec488b1	-0.38385537
208	0xbecd3215	-0.40077272
209	0xbd8dc7b3	-0.06922855
210	0xbeab3ce7	-0.33444902
211	0x3eeb960d	0.46012917
212	0x3d6a6960	0.0572294
213	0x3dc89530	0.0979408
214	0xbf8d926a	-1.1060307
215	0xbee2d2d1	-0.44301465
216	0xbee64aae	-0.4497885
217	0x3e8b52da	0.27211648
218	0x3f1053be	0.5637778
219	0x3f21d21a	0.63211215
220	0xbe63fdf3	-0.22264843
221	0x3ea8bcfe	0.3295669
222	0xbcf76f0e	-0.030204322
223	0xbf824746	-1.0178001
224	0x3ed92fd0	0.4241929
225	0x3eb8081d	0.3594369
226	0x3e32bf26	0.1745573
227	0x3e75babc	0.23997015
228	0xbc3d47a8	-0.011552729
229	0x3eeecc8e	0.46640438
230	0xbe99e00d	-0.3005375
231	0xbf3972f5	-0.72441036
232	0xbf1a974d	-0.60387117
233	0xbdabd523	-0.08390262
234	0x3f466bfb	0.77508515
235	0x3f05d6ba	0.5228077
236	0xbeeac311	-0.4585195
237	0x3cb919a5	0.022595236
238	0xbf1a6af3	-0.6031944
239	0x3e0c0931	0.13675381
240	0xbea70598	-0.32621455
241	0xbe7d030a	-0.2470819
242	0xbe9cc750	-0.30620813
243	0x3f1dbbc0	0.6161461
244	0xbf2d0ace	-0.6759461
245	0xbc133bef	-0.008986457
246	0x3f29fecd	0.6640442
247	0xbeecfa45	-0.4628469
248	0xbf646fc8	-0.89233065
249	0xbebfebac	-0.3748449
250	0xbe15790b	-0.14596955
251	0x3e123cfc	0.14281076
252	0x3f195019	0.59887844
253	0x3e90b81f	0.28265473
254	0xbe917ce2	-0.2841559
255	0xbdba8c26	-0.091087624

fc1.bias f4 [64]
0	0xbf267732	-0.6502563
1	0xbf5c77aa	-0.8612009
2	0xbf88e7e0	-1.0695763
3	0xbec76f53	-0.3895212
4	0xbf75ccf3	-0.9601585
5	0xbf990669	-1.1955081
6	0xbfa80c1d	-1.3128697
7	0xbe2c5c28	-0.1683203
8	0xbf3443a6	-0.70415723
9	0xbeeba57c	-0.46024692
10	0xbde1efe2	-0.11032082
11	0xbf558f19	-0.83421475
12	0xbf6d0a32	-0.9259368
13	0x3e011080	0.1260395
14	0xbeaeb078	-0.3411901
15	0xbf5f782f	-0.8729276
16	0xbf320f25	-0.6955436
17	0xbec021ec	-0.3752588
18	0xbdbd6f5f	-0.09249758
19	0xbed9695f	-0.42463204
20	0xbf13b26d	-0.5769413
21	0xbf7e9cc9	-0.99457985
22	0xbe98df35	-0.29857793
23	0xbea84eb8	-0.32872558
24	0xbedf6791	-0.43633702
25	0xbf6c4079	-0.9228588
26	0xbf2b021a	-0.6680008
27	0xbf25d0cf	-0.6477174
28	0xbf85bdde	-1.0448568
29	0xbe799d0a	-0.24376312
30	0xbf8aa40b	-1.0831312
31	0xbf53b420	-0.82696724
32	0xbf2e48f0	-0.68080044
33	0xbe9fa2ca	-0.31178886
34	0xbeff60a6	-0.49878424
35	0xbf0f4e51	-0.55978876
36	0xbf0e56ad	-0.55601007
37	0xbf39b150	-0.7253618
38	0xbec71f1a	-0.38890916
39	0xbf1cbd76	-0.61226594
40	0xbfcd1fe9	-1.6025363
41	0xbf6105f6	-0.8789972
42	0xbe7f5176	-0.24933419
43	0xbf2eb664	-0.68247056
44	0xbf60a59b	-0.87752694
45	0xbf7b875f	-0.98253435
46	0xbf00f1a8	-0.5036874
47	0xbf145cc8	-0.5795407
48	0xbf2b9218	-0.67019796
49	0xbf68ec6b	-0.90985745
50	0xbef48395	-0.4775664
51	0xbd960aa6	-0.0732625
52	0xbf0a5697	-0.54038376
53	0xbf2f1b3d	-0.6840094
54	0xbf246c72	-0.64227974
55	0xbf6b93e9	-0.9202257
56	0xbfa1cd48	-1.2640772
57	0xbf8c47e8	-1.0959444
58	0xbe0ce66c	-0.13759774
59	0xbf93822d	-1.1524101
60	0xbf850669	-1.0392581
61	0xbf252e21	-0.6452351
62	0xbf858311	-1.0430623
63	0xbf70d498	-0.9407439

fc2.weight f4 [64, 64]
0	0xbe3e2cb0	-0.18571734
1	0xbd2213ab	-0.039569538
2	0xbebefeab	-0.3730367
3	0x3e1a9a87	0.1509801
4	0x3c0bdaef	0.008536085
5	0xbe3b7c53	-0.18309145
6	0x3c3eaea8	0.011638321
7	0xbea4dfe8	-0.32202077
8	0x3edc15bc	0.42985332
9	0x3f3d0ed4	0.7385075
10	0xbddc2b8e	-0.10750495
11	0x3cf2b113	0.029625451
12	0xbfb1c1d2	-1.3887274
13	0x3d2a351c	0.041554555
14	0x3da748a7	0.08168154
15	0xbff49903	-1.9109195
16	0xbe651c92	-0.2237418
17	0xbe4e98c9	-0.2017547
18	0x3ea16332	0.31520993
19	0xbeaf9956	-0.34296674
20	0xbd9c0b96	-0.07619397
21	0xbf7db3c1	-0.9910241
22	0xbef3e190	-0.47633028
23	0x3d8e783b	0.06956526
24	0x3ed10d20	0.40830326
25	0x3fa407be	1.2814863
26	0x3f895618	1.0729399
27	0xbf253694	-0.64536405
28	0x3f427ca1	0.7597142
29	0xbe94adec	-0.29038942
30	0xbe1252e9	-0.1428944
31	0xbd0f0cb1	-0.034924213
32	0xbdd400ba	-0.10351701
33	0xbd0bb329	-0.034106407
34	0xbe713571	-0.23555543
35	0xbeae07bb	-0.33990273
36	0x3ecd4e43	0.4009877
37	0x3dfda7aa	0.12385495
38	0x3eab2377	0.33425495
39	0x3ec6d3cf	0.38833472
40	0x3f443bf3	0.76653975
41	0x3e591ec5	0.21203144
42	0xbe0071e4	-0.12543446
43	0x3f2f0305	0.6836398
44	0xbf28642a	-0.6577784
45	0xbfcb3240	-1.587471
46	0xbe8199ed	-0.2531275
47	0x3e8f28c9	0.27960804
48	0xbe4cc4f4	-0.19997007
49	0x3e3da103	0.18518452
50	0x3e48d1a5	0.19611223
51	0xbeef7cb2	-0.46774822
52	0x3f0a5970	0.5404272
53	0xbdaa75b0	-0.08323228
54	0xbe17f660	-0.14840078
55	0x3edbbb56	0.42916363
56	0xbf2aa956	-0.66664636
57	0x3da5106a	0.08059771
58	0xbd54c4f6	-0.05194565
59	0x3cf2237a	0.029557932
60	0xbe820f80	-0.2540245
61	0xbede1e96	-0.4338271
62	0xbf261c2e	-0.6488675
63	0x3f21b1e4	0.63162065
64	0x3b81bf01	0.003959537
65	0xbe5d56fd	-0.21615215
66	0x3ed77e4e	0.4208855
67	0xbcd7d8cf	-0.0263485
68	0x3f1183f4	0.5684197
69	0xbf842573	-1.0323929
70	0x3ef532eb	0.4789041
71	0xbea34c6e	-0.3189425
72	0xbde16bc1	-0.110068806
73	0x3d9bf298	0.076146305
74	0xbe335b4b	-0.17515294
75	0x3f07e1db	0.53079003
76	0xbdd127c7	-0.10212665
77	0x3e05f0f4	0.13080198
78	0x3f6b0b15	0.91813785
79	0xbe07c7f7	-0.13259874
80	0xbe7ba495	-0.24574502
81	0xc004be3a	-2.0741105
82	0x3e187d07	0.14891444
83	0xbf231844	-0.637089
84	0xbf0bf213	-0.5466625
85	0xbfa95d62	-1.3231623
86	0x3e8b8c5b	0.2725552
87	0x3ec29b6b	0.380092
88	0xbf08ade5	-0.5339034
89	0x3d845d3f	0.06463098
90	0xbf23d774	-0.6400063
91	0x3c4b8195	0.0124210315
92	0xbe7197b5	-0.23593028
93	0xbe9d3cd4	-0.3071047
94	0x3df96f18	0.121793926
95	0xbd7aa546	-0.061192773
96	0xbf947e2e	-1.1601007
97	0x3d37adf3	0.044843625
98	0xbeedaa61	-0.4641905
99	0x3f461290	0.77372074
100	0xbdf4988c	-0.119431585
101	0xbf15ffcc	-0.5859344
102	0xc00c9bc9	-2.1970084
103	0xbeb8e832	-0.3611465
104	0x3d274286	0.040834926
105	0x3e39ca3b	0.18143551
106	0x3ea4edc0	0.3221264
107	0x3c9fbc45	0.019498954
108	0x3eadf1d9	0.33973578
109	0xbda38ab7	-0.07985442
110	0xbfc19757	-1.512431
111	0x3d3eb74a	0.046561517
112	0x3f05d1b7	0.52273124
113	0x3f1cff60	0.6132717
114	0xbf9d5659	-1.2291976
115	0x3ed617c5	0.4181501
116	0xbed6bc24	-0.41940415
117	0xbe8b8b83	-0.27254876
118	0x3ca998e2	0.020702783
119	0x3f1a5f40	0.6030159
120	0x3f897e14	1.0741601
121	0x3e6c6dcc	0.23088759
122	0xbea55e1c	-0.32298362
123	0xbeabd6bd	-0.3356227
124	0x3ddaf0f9	0.10690493
125	0xbfa1822b	-1.2617849
126	0xb9a4e57a	-0.0003145149
127	0xbfa61649	-1.2975551
128	0x3ed43ba9	0.41451767
129	0xbeb1c247	-0.34718534
130	0xbf805156	-1.0024822
131	0xbea80607	-0.32817098
132	0xbe536294	-0.20643073
133	0x3ea74b9d	0.32674876
134	0xbf58664f	-0.8453111
135	0xbf226cab	-0.63447064
136	0xbf3ad686	-0.72983587
137	0x3f51187f	0.81678003
138	0x3afe1f72	0.0019388034
139	0x3ead2bd8	0.33822513
140	0xbd333a82	-0.04375697
141	0xbeb31613	-0.3497778
142	0xbf189d11	-0.59614664
143	0xbd28f9ac	-0.04125373
144	0x3dc8a098	0.09796256
145	0xbe7c24fd	-0.24623485
146	0xbe0e70f0	-0.1391027
147	0xbe1bfbeb	-0.15232818
148	0xbffc8927	-1.9729356
149	0xbec6f3f2	-0.3885799
150	0xbc03460d	-0.008012307
151	0xbedb7357	-0.42861435
152	0x3f06e2d8	0.52689886
153	0x3e237af5	0.15964873
154	0xbf68ef8e	-0.9099053
155	0x3f08ef25	0.53489906
156	0x3c4f9a3c	0.01267105
157	0xbef5968a	-0.47966415
158	0xbe9884d5	-0.29788843
159	0x3f52027f	0.8203506
160	0x3f33e9f1	0.7027884
161	0xbd62e5fe	-0.05539512
162	0x3b639a97	0.0034729594
163	0x3e9179d0	0.28413248
164	0xbd9618d0	-0.07328951
165	0xbf30a685	-0.6900409
166	0x3e7272cf	0.23676609
167	0x3f33eb77	0.70281166
168	0x3f5b08e0	0.8556042
169	0xbc6cc7a1	-0.014451892
170	0x3eed1c60	0.4631071
171	0xbdfb5a06	-0.1227303
172	0xbf27f201	-0.65603644
173	0xbe954b6d	-0.29159108
174	0x3c0bb199	0.008526229
175	0xbf3c61ae	-0.7358655
176	0xbf6dc287	-0.9287495
177	0x3d97309e	0.0738232
178	0xbe506145	-0.20349605
179	0xbdf90935	-0.12159959
180	0xbee72381	-0.45144275
181	0x3e0250b1	0.12726094
182	0xbe01856d	-0.12648554
183	0x3e35ed5c	0.17766327
184	0x3ea64a4d	0.32478562
185	0xbeba7887	-0.3642008
186	0xbe587019	-0.21136512
187	0xbceb1694	-0.02869729
188	0x3e7e9394	0.24860984
189	0xbe4c61fa	-0.1995925
190	0xbf2c2cb7	-0.6725573
191	0x3ed34b11	0.4126821
192	0x3ef65e70	0.48118925
193	0xbe4aa37f	-0.19788931
194	0xbd303fef	-0.04302972
195	0x3e94281b	0.28936848
196	0x3f20e3de	0.628477
197	0xbe089e02	-0.13341525
198	0xbe68fd6b	-0.22752921
199	0xbf29dc83	-0.663521
200	0x3be1afcf	0.006887413
201	0x3e76b38d	0.2409193
202	0xbf506d52	-0.8141681
203	0xbf5ceca5	-0.8629859
204	0x3da628af	0.081132285
205	0x3e81eafc	0.2537459
206	0xbdcae6d9	-0.09907312
207	0xbe487f6c	-0.19579858
208	0x3e52b9c0	0.2057867
209	0xbedeafb5	-0.4349343
210	0x3db40780	0.08790493
211	0x3e3cdfe0	0.18444777
212	0xbcf4dffe	-0.029891964
213	0xbd7bb01d	-0.06144725
214	0xbf4ab2f5	-0.79179317
215	0x3db1de22	0.086849466
216	0xbef0c520	-0.47025394
217	0xbe36a538	-0.17836463
218	0xbe994749	-0.299372
219	0xbf4a86b5	-0.79111797
220	0xbf6b75df	-0.9197673
221	0x3ec74ca2	0.38925654
222	0x3f04f268	0.5193238
223	0xbea48f5c	-0.32140625
224	0x3d2d23e1	0.042270545
225	0xbf129a40	-0.57266617
226	0x3eec6169	0.46168068
227	0xbed9cc8e	-0.42538875
228	0xbedd48e2	-0.43219668
229	0x3e03c3be	0.12867638
230	0xbe806b89	-0.25082043
231	0x3f57bda5	0.8427375
232	0x3ee08101	0.43848422
233	0x3ef59f90	0.479733
234	0xbdb09c12	-0.08623518
235	0x3ea89ad2	0.3293062
236	0xbf1e99ec	-0.61953616
237	0xbfe94ff7	-1.8227528
238	0x3f831ccc	1.0243163
239	0xbe9b547c	-0.30337894
240	0xbea3aa94	-0.31966078
241	0x3dd3c3fd	0.10340116
242	0x3e906348	0.28200746
243	0x3ed60d82	0.4180718
244	0xbe56ff20	-0.2099576
245	0xbecf8ffd	-0.40539542
246	0x3e3274e3	0.17427401
247	0x3f12fd1f	0.5741748
248	0x3f9dc23a	1.2324898
249	0xbf20bfde	-0.62792766
250	0xbece1b0e	-0.40255016
251	0x3f1e3889	0.61805016
252	0xbe997f6d	-0.2998003
253	0xbf0fdfac	-0.5620067
254	0x3d9365c0	0.07197142
255	0xbfed48b6	-1.8537815

fc2.bias f4 [64]
0	0xbeeb20dd	-0.4592351
1	0xbd32235f	-0.043490764
2	0xbf137925	-0.57606727
3	0xbee59be4	-0.44845498
4	0xbe1f74e5	-0.15571935
5	0xbe05c223	-0.13062339
6	0x3d6520bd	0.055939425
7	0xbd5dbf20	-0.05413735
8	0x3e20cd68	0.15703356
9	0xbd9a3f89	-0.075316496
10	0x3e44bbe7	0.19212304
11	0x3ed8e303	0.42360696
12	0x3d14eaf3	0.036356878
13	0x3e5e32d7	0.21699081
14	0x3e98dfde	0.29858297
15	0xbdc7cc3d	-0.09755752
16	0x3f224a57	0.63394684
17	0xbdaf5117	-0.085603885
18	0xbf22c9d9	-0.63589245
19	0xbeb1599e	-0.34638685
20	0xbce99327	-0.02851255
21	0xbcb633d3	-0.022241509
22	0xbf559de4	-0.83444047
23	0xbe1a923f	-0.15094851
24	0xbef225d7	-0.47294495
25	0xbf862964	-1.0481381
26	0xbf089836	-0.53357255
27	0x3e3293dd	0.17439218
28	0xbe753485	-0.23945816
29	0xbd1c9989	-0.03823236
30	0x3e61f225	0.22065027
31	0xbdd2a1cb	-0.10284766
32	0x3d1307ba	0.03589604
33	0x3e8e1a7d	0.27754584
34	0xbf11ca43	-0.5694925
35	0xbea84baf	-0.32870242
36	0x3e496cc9	0.19670404
37	0xbc372db1	-0.011180327
38	0x3e561215	0.20905335
39	0xbebd787f	-0.37005994
40	0xbed40476	-0.41409653
41	0xbf5f7a7e	-0.87296283
42	0xbf17d24a	-0.5930525
43	0xbf19fda5	-0.60152656
44	0xbe4fffce	-0.20312425
45	0xbe5b084b	-0.21389882
46	0xbe80cb07	-0.25154898
47	0x3e93113d	0.2872409
48	0x3f451d92	0.76998246
49	0x3f1314bc	0.57453513
50	0xbefa48ba	-0.4888361
51	0x3f7c10bb	0.9846303
52	0x3eb2206a	0.34790355
53	0xbe13fba1	-0.14451458
54	0x3e9859ca	0.29756004
55	0x3ef3da3e	0.47627443
56	0x3f17f438	0.59357023
57	0x3f17fb89	0.5936819
58	0x3e6578b4	0.22409326
59	0x3f6a28cf	0.9146852
60	0x3ee5f613	0.44914302
61	0x3cd50898	0.026005074
62	0xbd8807e3	-0.06642129
63	0x3ee605eb	0.4492639

fc3.weight f4 [1, 64]
0	0x3e6dbace	0.23215792
1	0x3e696dc3	0.22795777
2	0xc0011131	-2.0166743
3	0xbec20cc1	-0.37900355
4	0x3c12a609	0.008950719
5	0xbc84d528	-0.016214922
6	0x3fc7eec4	1.561974
7	0xbf3f756c	-0.74788547
8	0x3e916f00	0.28405
9	0xbe8e5f7b	-0.2780722
10	0x3f6c83f0	0.9238882
11	0x3e4db577	0.20088755
12	0xbfa34e60	-1.2758293
13	0xbeda0b06	-0.42586535
14	0x3eacc318	0.33742595
15	0xbcb9acdb	-0.022665432
16	0xbf151e17	-0.5824904
17	0xbc593e40	-0.01325947
18	0xbf81c87c	-1.0139308
19	0x3f31583e	0.6927527
20	0xbe335159	-0.175115
21	0x3ef954da	0.4869755
22	0xbed2b174	-0.4115101
23	0x3e1e9802	0.15487674
24	0x3f19dda0	0.601038
25	0xbfa7c48e	-1.3106859
26	0x3e1b31cf	0.15155719
27	0x3f770a0b	0.964997
28	0xbef91d52	-0.48655182
29	0x3f3738d2	0.71571076
30	0x3ebd99f7	0.37031528
31	0xbeb260d9	-0.34839514
32	0x3f098f4d	0.53734285
33	0x3ebd9fe9	0.37036064
34	0x3f9756a1	1.1823312
35	0x3e47ba84	0.19504744
36	0xbef5a97a	-0.47980863
37	0xbe26d117	-0.16290699
38	0xbe30964b	-0.17244832
39	0xbf84d41d	-1.0377232
40	0xbea71f5d	-0.32641116
41	0xbfae4fb9	-1.361808
42	0xbf4bae50	-0.79562855
43	0xbe84440a	-0.2583316
44	0xbf1d8194	-0.61525846
45	0x3dd8ae17	0.1058008
46	0xbcc7ee13	-0.024405515
47	0xbecac5b2	-0.39603955
48	0x3ee774bb	0.45206246
49	0xbee84dd2	-0.45371872
50	0xbf433a34	-0.76260686
51	0x3e1d403b	0.15356533
52	0xbe889deb	-0.26682982
53	0xbf2534c1	-0.6453362
54	0x3e1c295d	0.15250154
55	0xbe439ff4	-0.19103986
56	0xbe2c7c90	-0.16844392
57	0x3f3d691f	0.7398853
58	0x3f493266	0.78592527
59	0xbe76c570	-0.24098754
60	0xbed30d6e	-0.41221184
61	0x3eae030a	0.33986694
62	0x3eeff411	0.46865895
63	0x3f71f0a2	0.945078
