trained_models_1L_3/vandalism_model.pth (torch, 24343 bytes, 5 tensors)

fc1.weight f4 [64, 19]
000000 31 d1 1b bf d6 d5 26 3f 6d b1 a9 be 40 0f a9 3f
       -0.60866076 0.6517004 -0.33143178 1.3207779
000010 42 09 a3 be 96 ab b7 be 86 e0 77 be c8 5c 0e 3f
       -0.31843 -0.35873097 -0.24206743 0.5561032
000020 26 b5 2a bf 08 00 54 be 1f d7 91 3e 53 54 dd 3d
       -0.6668266 -0.20703137 0.28484437 0.10807099
000030 29 66 22 be 9e c4 89 3e 91 ee ae 3e 0c 48 b1 bc
       -0.15859284 0.2690782 0.34166387 -0.0216408
000040 06 39 d6 bd c0 e1 e9 be af c2 23 3f e2 cc 9a bd
       -0.10460095 -0.45680046 0.6396894 -0.075586095
000050 e0 18 f2 bb b4 ad 77 bd 41 df f0 be a9 e9 eb 3c
       -0.0073882192 -0.06046839 -0.4704533 0.028797941
000060 87 71 1c 3d 04 45 f6 be 8c 14 4b 3f 33 31 42 bf
       0.038194206 -0.4809953 0.7932823 -0.7585632
000070 54 01 ec 3e da b3 2a bf 63 0a af be 2b 11 c7 3e
       0.46094763 -0.6668068 -0.34187612 0.38880286
000080 29 2a 2b bd a7 ae a0 3e 35 f4 47 bf 46 18 2d bf
       -0.041788254 0.3138325 -0.78107005 -0.67615163
000090 1e 07 49 bf d7 04 b0 be c4 48 88 bd 4d 78 16 bd
       -0.78526485 -0.34378693 -0.06654504 -0.03673582
0000a0 37 b4 13 be a2 ea 1e bf 9c d4 6b be 5c e1 e0 be
       -0.14424215 -0.6207677 -0.23030323 -0.43921936
0000b0 5d 79 e4 be 78 dd 7e bf 24 8b ae be 10 33 55 3f
       -0.44623843 -0.99556684 -0.3409053 0.8328104
0000c0 b6 17 43 3e ee c5 03 bd 6b 58 0f 3e b0 e2 13 3f
       0.19052014 -0.032171182 0.13998573 0.5776777
0000d0 0f ec 43 3e 25 04 a1 3e 9b 97 87 bd 6d b2 ce 3e
       0.19133018 0.31448475 -0.06620713 0.40370503
0000e0 9b e1 35 3f 9a dd 35 3f 78 b3 19 be 3e 2c 59 bf
       0.7104737 0.7104126 -0.15009868 -0.84833133
0000f0 9d fd 45 3f a4 25 c9 be 48 24 c9 bc 6d 63 04 3f
       0.7734011 -0.3928653 -0.024553433 0.5171421
000100 3b 18 dd bd b6 02 72 3e af 53 15 3f cb 70 25 3f
       -0.10795637 0.23633847 0.58330816 0.64625233
000110 c9 da ca 3e c3 7c e2 be 85 b9 09 be d1 55 f5 3e
       0.39620045 -0.4423581 -0.13449676 0.47917035
000120 95 f8 a8 be bd 2a a3 3b 23 47 e1 3d 8b 82 41 bf
       -0.33002153 0.00497946 0.109998964 -0.7558982
000130 ef 12 8d be 87 04 4f be 3f 2a 03 3f d4 e8 8b be
       -0.27553508 -0.20216571 0.5123634 -0.2732607
000140 dc f4 1b 3e d7 ed 70 bf da 04 f0 bc 90 41 7c 3d
       0.15230125 -0.94112915 -0.029299188 0.061585963
000150 7f 47 a5 be 40 bf 52 be b2 23 35 3f 0b b1 aa bd
       -0.3228111 -0.20580769 0.7075759 -0.083345495
000160 bc c3 14 be 38 31 da 3e 7b 51 3a 3f a0 9d 05 bf
       -0.14527792 0.42615676 0.7278058 -0.5219364
000170 f3 0f 43 be fb 7e 66 bf de e5 0a 3f 1d 32 91 bd
       -0.19049053 -0.90037507 0.54257 -0.070896365
000180 f1 8c 2b bf 5f 07 5a bf c5 06 ff be 15 c1 b6 be
       -0.67011935 -0.851675 -0.49809852 -0.35694185
000190 0c f6 10 3f 83 64 c4 3e 84 9c 0d 3f 3f 45 ba 3e
       0.5662544 0.38357934 0.5531695 0.36380956
0001a0 22 c6 93 be 5a d0 0e bf 50 62 e9 3e 41 8f be be
       -0.288621 -0.5578667 0.4558282 -0.3721867
0001b0 9c 58 22 3f bc 97 d4 bd 6f 1a 08 be 10 94 ea bd
       0.6341646 -0.103805035 -0.13291334 -0.11454022
0001c0 93 0d e1 be dd 14 c7 3e 2a 68 74 be 01 b4 a0 bd
       -0.4395567 0.38883105 -0.2386786 -0.07846833
0001d0 8d 44 72 3f 8f cf 7b be 98 8b 13 bf d6 cc 91 3f
       0.9463585 -0.24590896 -0.5763488 1.1390636
0001e0 bb b3 59 be ce 3c c3 be 10 bc 86 be ee 92 87 3d
       -0.21259968 -0.38132328 -0.26315355 0.066198215
0001f0 f2 25 4f 3d d8 8b b8 3e 50 ba ac be 00 79 8d 3e
       0.050573297 0.36044192 -0.33735895 0.27631378
000200 14 14 2a 3f 61 9b 9a be 7e 6e 16 bf 9f e4 80 3e
       0.66436887 -0.3019667 -0.5876235 0.25174424
000210 08 56 6a 3e df 28 ef be 81 a8 1e 3f 4a a7 7e bd
       0.22884381 -0.4671087 0.61975867 -0.062171258
000220 7e 2f 09 3f f9 2d e6 be 62 81 00 bf db b7 10 bf
       0.5358809 -0.4495695 -0.5019742 -0.5653054
000230 bb 5b fe bd 18 d7 2e 3f cf 7a 5b be 33 2b a8 be
       -0.1241984 0.68296957 -0.21433567 -0.32845458
000240 fd 9f 42 3e da cc 16 bc 7f c6 a7 be 10 89 be 3e
       0.19006343 -0.009204114 -0.32768628 0.37213945
000250 45 68 d8 bd f3 0a a9 3e 60 36 b6 3d 2f cc 88 3f
       -0.10566763 0.33016166 0.0889709 1.0687312
000260 b0 19 86 be ee dd 78 3d df f0 e3 3e f6 57 a7 be
       -0.26191473 0.060758524 0.44519708 -0.32684296
000270 75 5e ef be 8d 78 29 be 5f 59 40 39 d8 2a 18 bf
       -0.46751752 -0.16549893 0.0001834384 -0.59440374
000280 78 62 12 bf 8c 1d ef 3e cc d8 ef bd 19 7f c2 3d
       -0.571815 0.4670223 -0.117112726 0.09496898
000290 a7 28 7a bf 6c 73 c5 3e 9d bb a1 3e 73 d3 98 bf
       -0.9771828 0.38564622 0.3158845 -1.1939529
0002a0 34 ec 56 3f 4e 77 a1 be 34 94 17 bf f1 d5 0c bc
       0.8395417 -0.31536335 -0.59210515 -0.0085959295
0002b0 90 c9 61 3e 0e 95 84 3e 14 05 d4 3d e6 4f a2 3e
       0.22049546 0.2589497 0.10352531 0.31701583
0002c0 b3 b7 38 3f 60 11 63 3f 46 2d 8d bd 11 52 32 3f
       0.721553 0.8869839 -0.06893401 0.69656473
0002d0 f3 d8 d8 be 74 21 74 bf f8 c9 41 3e 90 db b9 3c
       -0.4235302 -0.95363545 0.18924701 0.022687703
0002e0 55 03 42 bd 90 2e a8 3e 11 df 3a bf e4 2f 1c bc
       -0.04736646 0.32848024 -0.7299662 -0.009532902
0002f0 2d 0b aa be 12 ea c5 3e e3 94 6e 3e d9 1f ab be
       -0.3321165 0.38655144 0.23298983 -0.33422735
000300 21 fe a9 be 15 5d 1f 3f c5 a5 39 3f 86 20 81 be
       -0.33201697 0.62251407 0.7251857 -0.25220126
000310 f6 73 48 bf 90 9e 78 3d a9 79 1e 3e ea 9a 07 3e
       -0.7830194 0.060698092 0.15476097 0.13242689
000320 cd 95 c3 3d 86 db 34 3f 49 02 1b 3f 73 66 1b bf
       0.095500566 0.70647466 0.6055036 -0.607032
000330 99 b7 23 bf e3 87 bd bd f5 f5 08 bf 41 1f 30 bf
       -0.6395202 -0.09254434 -0.535003 -0.6879769
000340 aa 9f e4 bd b0 71 37 be 99 ad 95 be 4a 83 67 be
       -0.11163266 -0.17914462 -0.29234007 -0.22608677
000350 68 1b 48 3f c1 8b 29 be 9f f3 2b bf 42 af 61 3f
       0.7816682 -0.16557218 -0.6716861 0.8815805
000360 cb bd e9 bd 84 8d cb bd e1 f4 33 be be 4f 15 3f
       -0.11413153 -0.09939101 -0.17573883 0.583248
000370 34 fd 9d 3e c1 5e 26 be 65 47 34 bf cf 75 52 bf
       0.3085724 -0.16247083 -0.7042144 -0.8221101
000380 94 fc ac be e9 15 d7 3d d7 83 a9 be ca 52 91 3e
       -0.33786452 0.10502226 -0.33108398 0.28383476
000390 a5 ef fc be 22 ae 83 3f 36 ee 6b bd 97 4c 90 be
       -0.49401584 1.0287516 -0.057600223 -0.28183433
0003a0 f6 42 37 3e 8f fb 4e be ae b0 1c bf 33 04 9a be
       0.17896637 -0.2021315 -0.6120709 -0.3008133
0003b0 01 a5 81 bf f2 2c 02 bf b1 5f 8b bd 00 ca 39 3e
       -1.012848 -0.5084983 -0.06805361 0.18143463
0003c0 74 3f 06 3f 19 6d 06 be e1 12 66 3d fb 3e da be
       0.5244057 -0.13127555 0.056170348 -0.42626175
0003d0 b5 d0 05 3f 64 88 7e 3e cc 4f 4a bd 77 05 02 be
       0.52271587 0.24856716 -0.049392506 -0.12697397
0003e0 30 a5 46 3e 6e ff 43 bf 50 ee c5 3d 9e cc 61 be
       0.19398952 -0.7656163 0.09664595 -0.22050712
0003f0 2d 5d 07 3f 71 cd 5e be dd 0d c7 be eb c5 41 be
       0.5287655 -0.21758057 -0.38877764 -0.18923156

fc1.bias f4 [64]
000000 ec 4d a4 bf f7 15 a5 be ae 52 84 be 06 30 eb bd
       -1.283628 -0.3224332 -0.2584433 -0.11483769
000010 9f e6 cb be be da 59 bf 95 88 cb be d5 b5 98 bf
       -0.39824387 -0.850994 -0.3975264 -1.1930491
000020 79 7c 9f bf 15 10 92 bd 7b 2e 60 bf 4a b9 64 bf
       -1.2459861 -0.07131974 -0.87570924 -0.8934523
000030 d5 d1 8a be 0a 05 b7 be 9f 76 52 bf 2a c0 a0 bf
       -0.27113214 -0.35746032 -0.8221225 -1.2558644
000040 08 02 63 be 57 03 f8 be bd 13 72 bf 27 dc a3 bf
       -0.22168744 -0.48440048 -0.9456137 -1.280156
000050 f9 91 a1 bf 28 b4 31 bf 67 40 67 bf 34 a2 82 bf
       -1.2622672 -0.6941552 -0.90332645 -1.020575
000060 74 8c 6e bf 05 69 4d be 5c b8 13 bf 02 29 9a bf
       -0.93183064 -0.20059593 -0.57703185 -1.2043765
000070 c0 7b 35 3e a4 93 41 bf 52 d7 8a bf 54 96 91 bf
       0.17722988 -0.75615907 -1.084696 -1.1374002
000080 a1 36 41 bf e4 68 80 bf be d7 be bf 83 2b 6d bf
       -0.7547398 -1.003201 -1.4909589 -0.9264452
000090 47 a4 e5 be 9c 68 3e bf 9f 73 33 bf e6 01 29 bf
       -0.44851896 -0.7437837 -0.700983 -0.6601852
0000a0 f8 25 36 bf ec bd 62 be 7c 0c b8 be 0a be 93 bf
       -0.71151686 -0.22142762 -0.35947025 -1.154237
0000b0 ef 16 18 be 67 11 4d be 9e 52 d0 bf 8d e8 4a bf
       -0.14852498 -0.2002617 -1.6275213 -0.79261094
0000c0 8a 90 88 bf cb f7 c2 be b5 b9 57 bf 34 7a 97 3e
       -1.066911 -0.38079676 -0.8426774 0.2958542
0000d0 23 28 65 bf 40 8d 98 bf 18 dc 97 bf 9e 9f 3c bf
       -0.8951437 -1.1918106 -1.1864042 -0.73681056
0000e0 8b bf 0e bf 9c 31 dd be 8c 5a 9c bf bb d0 84 bf
       -0.5576102 -0.4320191 -1.2215133 -1.03762
0000f0 d8 37 cf bf c3 fb a3 be 13 44 2d bf 78 c9 4c bf
       -1.6188917 -0.32028016 -0.67682 -0.79994917

fc2.weight f4 [64, 64]
000000 7f 4b ef 3c 4d 86 39 3f fd 0b 90 bf 56 1f fd 3e
       0.029210804 0.7247055 -1.1253659 0.4943797
000010 7e 77 05 3e b2 2d 88 3e 5c d4 66 bf 0d ed 87 3d
       0.13033864 0.26597363 -0.90167785 0.06637011
000020 65 1b 99 bd 76 85 d8 bf 17 b9 56 bf 8e 13 19 3e
       -0.07475928 -1.6915729 -0.83876175 0.14948866
000030 92 75 04 bf ed 14 56 bd 97 c7 91 3d 11 5c be bc
       -0.517419 -0.05226605 0.07118147 -0.02323726
000040 cc ae 1d 3e 2a 89 16 bf 68 68 90 3e 50 f7 da bd
       0.15398711 -0.58803046 0.28204656 -0.10691702
000050 92 da 70 bf 0d ac 54 3e 5b 35 86 3e 88 27 b0 3e
       -0.9408351 0.20768757 0.26212582 0.3440516
000060 f1 bd 48 be 72 2c 1d bf 09 d8 11 bf 7f 68 b8 3d
       -0.19603707 -0.61395943 -0.5697027 0.09004306
000070 75 91 59 be 1e e9 a5 3d f3 d6 46 bf 90 49 dc 3e
       -0.21246894 0.08101104 -0.77671736 0.43024874
000080 e9 ec de be 57 db c6 3d 35 5d b4 3e 23 44 f2 bf
       -0.43540123 0.097098045 0.3522736 -1.8927044
000090 9e 23 29 3d 20 33 e2 be c6 3a 02 3f ca 38 90 3e
       0.041293733 -0.4417963 0.5087093 0.28168327
0000a0 1b 63 84 be 30 00 be 3d 3c 58 83 bf 12 38 01 3f
       -0.2585686 0.092773795 -1.0261302 0.5047618
0000b0 49 fc 91 be e8 41 81 bc b2 f2 97 be 61 c9 68 bf
       -0.2851279 -0.015778497 -0.2967735 -0.9093228
0000c0 16 9f 4b bf 6f ca 8f 3e 54 3f 7c 3d 9a aa 12 3e
       -0.7953962 0.28084132 0.061583832 0.14322892
0000d0 bc 97 b9 3e e2 6e 46 bf a8 d9 52 3f ba 40 5c 3e
       0.36248577 -0.77512944 0.8236337 0.21509066
0000e0 10 25 3c 3e e3 e1 b0 bd f4 51 ff bf aa 13 93 3e
       0.18373513 -0.086368345 -1.9946885 0.2872594
0000f0 76 b3 75 3e 78 62 61 be b0 38 fb 3d 21 71 e4 3e
       0.2399424 -0.22010219 0.12266672 0.4461756
000100 1d a7 be bf 87 0e c6 3e 95 16 0f 3d c4 5f f1 be
       -1.4894749 0.38682958 0.034933645 -0.47143376
000110 56 e1 a8 bf 33 b6 19 3f b0 e5 e6 be 78 c9 4d bf
       -1.3193767 0.6004364 -0.45097113 -0.8038554
000120 ac f9 09 3f 95 df aa 3d 7b 91 9d be 2f 03 73 3e
       0.53896594 0.08343426 -0.30775055 0.23731683
000130 43 8d 47 bf a3 73 c0 bd ab 02 8b be df b3 a9 3e
       -0.77949923 -0.09397056 -0.27150473 0.33145043
000140 62 86 fa be 95 44 9f 3e fe 23 86 bf f1 8c b0 bf
       -0.4893065 0.3110701 -1.0479734 -1.3793012
000150 f9 0e e0 be 2d 74 6f bf 42 d7 97 3a 53 1e 03 c0
       -0.43761423 -0.93536645 0.0011584538 -2.0487258
000160 ff 81 d1 bd 9c 07 fb be 9c f1 d8 3e cf 56 83 3d
       -0.10229873 -0.49029243 0.42371833 0.06413042
000170 2c ec 22 be a8 c3 06 bf 96 4e fa bf e5 57 04 bf
       -0.15910405 -0.526423 -1.9555233 -0.51696616
000180 53 dd 80 bf 7d 3e 26 3e 35 d0 d9 3e ab 9d c4 3e
       -1.0067543 0.16234775 0.42541662 0.3840154
000190 5c af e2 3e 52 e6 14 bf e7 75 18 3f 4b ad 0b c0
       0.44274414 -0.5816394 0.59554905 -2.182452
0001a0 17 fe e5 be bd 86 a9 be 3d 80 6e 3d 9e d8 36 bf
       -0.44920418 -0.3311061 0.058227766 -0.7142428
0001b0 5f 52 b3 bd 10 a3 eb 3e b2 ab 80 3f 60 90 aa bf
       -0.087559454 0.46022844 1.0052397 -1.332531
0001c0 25 0a d8 bf 92 b1 a5 3e 02 3c 8a 3e d4 18 9e bf
       -1.6878096 0.32362038 0.26998907 -1.2351327
0001d0 3f 84 3b 3f b2 01 67 3d 1c d9 22 3e 2b 16 79 bd
       0.73248667 0.0563981 0.15903133 -0.060812157
0001e0 5d 3b 00 bd 0d 31 8b 3e f7 d0 ab bd 7e 03 b2 3d
       -0.031306613 0.2718586 -0.08389466 0.08692072
0001f0 8b 1e 6e bf f0 5c ba bb c0 97 a0 bf 63 8a 18 3f
       -0.93015355 -0.0056873485 -1.254631 0.5958616
000200 a0 86 88 3f fa e4 d7 bd 49 ac 71 3e a9 cf 35 bf
       1.0666084 -0.10541721 0.23600878 -0.7101999
000210 40 70 fb bf 2f 4b 1a 3f cd 87 69 be 49 af fd bf
       -1.9643631 0.6027097 -0.2280571 -1.9819118
000220 93 19 a1 be fe 23 78 be d4 35 cb bf e0 b5 0c be
       -0.31464824 -0.2423248 -1.5875802 -0.13741255
000230 4c eb 67 be 1a 54 a4 bc 19 7a 04 bf 53 92 24 bf
       -0.22648352 -0.020059634 -0.51748806 -0.64285773
000240 f2 b4 5f bf 3e 71 6c bf c4 98 5e 3f 2a c2 0d 3f
       -0.87385476 -0.92360294 0.8695185 0.55374396
000250 17 26 ea bd 1a fb dc bf 4e 32 75 bf bd 5a 28 bd
       -0.11433046 -1.726413 -0.95779884 -0.04110216
000260 a9 dd a6 bc b9 76 4d 3f 0d 49 a6 bf 7d c8 54 3d
       -0.020369368 0.8025928 -1.2991043 0.051949013
000270 ed dd d1 be 7d 71 87 3d 67 c6 0d 3e c6 1a 2a 3e
       -0.40989628 0.06613443 0.13845216 0.16611776
000280 65 50 ce 3e 1c f5 89 bc cc b7 62 3f 23 5d 3a 3e
       0.4029571 -0.01684051 0.885617 0.18199591
000290 b3 52 8d bf d9 1e 7f be b0 32 d6 3e f4 32 8f bd
       -1.1040863 -0.24914111 0.41835546 -0.069921404
0002a0 94 9b 43 3e 5b df a3 3e ab 05 cd bd 41 e1 8c be
       0.19102317 0.32006344 -0.10010847 -0.27515605
0002b0 17 9b 37 bd 66 4a b1 bd 82 c4 b9 3e 3e 91 de bd
       -0.04482564 -0.086567685 0.36282736 -0.108675465
0002c0 fc a9 85 3c f8 df 8e be 4b 02 ee be c5 2c b8 3d
       0.016316406 -0.2790525 -0.46486124 0.08992914
0002d0 07 66 61 bf 92 c5 84 3e 09 82 5d 3e 49 da e5 bd
       -0.88046306 0.25931984 0.21631636 -0.11223275
0002e0 df 49 22 3e ff 35 2f bf 06 1c 9b bf 78 48 df bd
       0.15848492 -0.68441767 -1.2117927 -0.10902494
0002f0 84 a2 59 3e 41 70 e4 be 3d 28 14 be 41 0e d7 bd
       0.21253401 -0.44616893 -0.14468475 -0.105007656
000300 74 f5 2c bf c2 eb 06 bf bd fe 12 bf c7 32 ad 3e
       -0.6756203 -0.5270349 -0.5741995 0.33827803
000310 1c 8d 84 3e 54 ae 9c bd 22 7f 9a 3e 93 34 db 3e
       0.25888908 -0.07650438 0.3017512 0.42813548
000320 18 c3 17 bf e0 e6 4d 3f 49 8a 81 3d f5 32 ec be
       -0.59282064 0.8043041 0.06325204 -0.46132627
000330 d1 a8 2f be 5a ba 0c be b8 8c 3c bc cf 86 74 bc
       -0.17154242 -0.13742962 -0.011508159 -0.014924719
000340 b0 ef 11 bf fb 95 15 3f 7a 13 92 bf 3d ec a2 3e
       -0.5700636 0.5843198 -1.1412194 0.3182086
000350 29 24 8a be 93 f8 1b be 7c be 28 3f 2d ea 24 bf
       -0.26980713 -0.15231542 0.65915656 -0.64419824
000360 9d 96 53 be ac cc ab 3e 0a 34 f6 3e 91 86 cf be
       -0.20662923 0.3355459 0.48086578 -0.40532354
000370 5f 41 42 bf 73 61 9f bf 2a 14 93 3e 68 fc ea 3e
       -0.75881 -1.2451614 0.2872632 0.45895696
000380 4c f9 38 bd cb 56 3d be 1a a8 43 be 80 73 6c bf
       -0.045159623 -0.1849014 -0.19107094 -0.9236374
000390 03 6c a2 3d e6 e4 f5 3e 49 79 64 3e be 80 05 bf
       0.07930758 0.48026198 0.22311892 -0.5214957
0003a0 a0 41 19 3f 7c 2a 07 bf 72 8d 35 bf f1 ba 8c 3e
       0.5986576 -0.527992 -0.70918953 0.27486375
0003b0 37 96 71 bf 41 b5 2f be 31 ed 32 3c dd 90 f4 3e
       -0.94369835 -0.17158987 0.010920809 0.47766772
0003c0 3a 3a 0e 3f 23 17 81 3e cb e8 48 be 89 bf 11 bf
       0.55557597 0.25212964 -0.19620053 -0.56932884
0003d0 d5 2a 44 bd 37 90 e5 3e aa 12 f9 be dd 35 53 3e
       -0.04789241 0.4483659 -0.48647052 0.20626016
0003e0 3c fd ee 3c e6 b5 6c bf fe 0a 9b be 41 e8 6a 3e
       0.029173486 -0.92465055 -0.30281824 0.2294016
0003f0 e5 b4 05 3f 03 6f d3 bc 58 65 c1 bf 0e bb 49 be
       0.5222915 -0.02580977 -1.5109053 -0.19700262

fc2.bias f4 [64]
000000 b2 d8 1d bf 37 37 18 3d 91 02 a3 3b fd d7 71 3d
       -0.61658776 0.037162032 0.004974671 0.059043873
000010 ae 8e 8a be ad a0 02 bf 09 e4 99 3e 02 52 23 bf
       -0.2706198 -0.5102642 0.3005679 -0.6379701
000020 7b 36 91 bd 90 6a b3 bd 35 a9 cd 3e 73 d9 87 3e
       -0.070904694 -0.087605596 0.40168157 0.26533088
000030 2b 6b 09 be b6 2d c8 be b2 4d eb be 19 af f7 3d
       -0.13419788 -0.39097375 -0.45957714 0.12093944
000040 5b ab b5 3e 34 5b 6d be b7 14 a5 be 93 9d ca be
       0.35482296 -0.23179322 -0.32242367 -0.39573345
000050 b2 43 2c bf 58 b3 54 bf b1 b7 98 be 22 ce d4 3d
       -0.67290795 -0.83086157 -0.29827645 0.10390879
000060 7e bf a0 3e 96 27 bd 3d 58 c4 05 be 75 51 96 be
       0.31396097 0.09236066 -0.1306318 -0.29359022
000070 1f 9a 1c be e0 2d 2a bf 6f b3 ed 3e 9f cd d2 3d
       -0.15293168 -0.6647625 0.4642596 0.10293125
000080 a2 15 0b bf 14 9f c8 bd 1f 65 b1 3e 87 db 54 be
       -0.54329884 -0.09795967 0.34647462 -0.20786868
000090 9b 1f 44 3d 9b f7 cf 3d 77 35 34 be ba 28 73 bf
       0.047881704 0.10154649 -0.1759852 -0.9498402
0000a0 5a ba 07 bf a1 c7 5a 3e 22 a0 45 3f a9 66 b1 3e
       -0.53018725 0.21365215 0.7719747 0.34648636
0000b0 b7 06 d5 be 7d 2f 26 3f 12 e8 fb 3e fc fe 24 be
       -0.41606686 0.6491621 0.49200493 -0.16112894
0000c0 f9 28 36 bf 65 d6 51 bf d8 7d f7 be fa cf 93 be
       -0.7115627 -0.81967765 -0.483382 -0.2886961
0000d0 dd 7c 5c be 98 86 e2 be dc e8 8d bd 5c 0c c5 be
       -0.21532007 -0.44243312 -0.0692918 -0.38485992
0000e0 3e b2 0a bf 37 94 ad bd 72 5f a2 be f9 76 61 be
       -0.54178226 -0.08475535 -0.31713444 -0.2201804
0000f0 fb 93 85 bc e3 fc ca be 35 7e 6f bf bb 80 c7 bd
       -0.016305914 -0.39646062 -0.9355195 -0.0974135

fc3.weight f4 [1, 64]
000000 db da 19 bf 0b 0e 42 3f 5c 61 eb 3e 20 7f 9f be
       -0.6009957 0.7580268 0.45972717 -0.31151676
000010 d3 14 a2 3e c9 3a d0 be 98 9b de be e1 30 b0 3f
       0.31656513 -0.4066985 -0.43478084 1.3764917
000020 f7 93 b9 bc 88 52 6a 3e 42 d7 3c be 60 64 cc 3e
       -0.022653563 0.22883046 -0.1844149 0.3992033
000030 e4 a2 51 3e d9 e5 fc be fc 00 1f 3f f2 1f 77 3e
       0.20472294 -0.4939411 0.6211088 0.2413328
000040 b7 ad 5a 3f 34 e1 f3 3e a7 57 96 be 39 b7 e8 3e
       0.8542132 0.47632754 -0.29363748 0.45452288
000050 f0 61 cc be 06 fe df 3e ea 27 da be ae 3c 83 be
       -0.3991847 0.43748492 -0.42608577 -0.25632232
000060 70 9d ad 3e 75 9d 0e bf b4 dd 91 3c d9 ba 8a be
       0.33909178 -0.5570901 0.017805912 -0.27095678
000070 52 ce d7 be de f6 13 3f aa 26 2a 3f 32 a5 1c bf
       -0.42149597 0.57798564 0.66465247 -0.6118957
000080 37 24 44 bf 6b 3b d8 3e e0 fd 04 bf 55 16 8e bc
       -0.7661776 0.42232832 -0.5194988 -0.017344633
000090 6b b2 db 3e 89 29 ab 3e 75 41 56 3e cb ad 55 be
       0.4290956 0.33430126 0.20923407 -0.20867078
0000a0 6c 3e 79 3e 4e 8d 52 be 8b 54 2c be 63 a1 7d be
       0.24340218 -0.20561716 -0.16829126 -0.24768595
0000b0 fb 82 2a bf 2a 39 76 be 59 5b ef 3e 6e c9 cf bb
       -0.6660611 -0.24045244 0.4674938 -0.006341151
0000c0 5e 9a 64 3f 73 94 ba be a8 f6 55 3f a4 f7 87 be
       0.89298046 -0.36441383 0.8357949 -0.26556122
0000d0 9e 01 fa bc d1 a4 30 3e 74 78 7a 3e 91 7a d8 be
       -0.03051835 0.17250372 0.24460012 -0.4228101
0000e0 1f a7 a9 3e 41 de 14 3e 92 db 42 3e 00 1e 97 be
       0.33135316 0.14537908 0.19029072 -0.29515076
0000f0 04 11 91 be 0b df eb be 7d 5c 99 be e5 66 b4 be
       -0.28333294 -0.46068606 -0.29953375 -0.35234752
