trained_models_1L_4/connectivity_issue_model.pth (torch, 24479 bytes, 5 tensors)

fc1.weight f4 [64, 19]
00000000: ebbe 1a3f 76f6 bc3f 8654 e0bf 19c1 fd3e
00000010: 7ac1 b23e d6ce d93f 0d5e 84c0 ce23 523f
00000020: 59aa 553e f4ee b8bf 2517 7440 5141 32c0
00000030: 241a 51c0 0647 1dc0 8e21 383f 2920 d63f
00000040: 670b fc3f a03b 1a40 cba9 eebf bdbb e8bf
00000050: 7491 2dc0 295d b640 1546 92c0 d686 1bbf
00000060: f7b5 ee3f f95a d23f 92f1 3e40 4563 7abf
00000070: 2600 5d40 fc1a 47c0 1deb 15bf 854f 0540
00000080: 18f2 8540 9bad ca3d 4414 e3bf 17a5 0f40
00000090: 31c2 f1bf 9ff2 37bf bdff 0bbf 6f59 7b3d
000000a0: bfb2 eabc 65dc c03e c275 cf3e cb64 113f
000000b0: 57f0 033f 9ee5 d93e 070f 05bf 1c1a dfbd
000000c0: e24c 303f 021a a0bf 1abd 2b3f fc7f ff3d
000000d0: 52ff 923e a832 50bf 2463 9f3d d1e8 723f
000000e0: 3024 133e cab0 b3be e14b a4bf 689d 80bf
000000f0: 0b7c d73f bd81 19c0 3ae6 a13f 0a35 50c0
00000100: 2a61 49c0 28cb 99c0 80a0 0bc0 49e7 a040
00000110: f0bb f5bf c1fc aabe 2e7c c5bf 13bf 323f
00000120: a009 81bf 9866 2c40 796e b63f b571 79bf
00000130: b499 e7bf 4e14 1840 5693 b03f 24d9 d63f
00000140: 3ca8 403f 9645 2d40 f6b6 30c0 ce01 6b3d
00000150: 65b1 1c3f db45 dc3f 20b8 db3f 370c a2c0
00000160: 6169 3840 4321 8b3e 9f51 ffbf 9203 cfbf
00000170: 05d9 b3bf 5d6a b53f ab37 d63d 06a0 cd3e
00000180: e5d7 713f f491 21bf 1694 113f f35a 67bd
00000190: abef a23c 38bf ff3e fd62 a7bb 8ef7 42be
000001a0: 50c9 823e 116e 6c3e d9ef 12c0 cec2 d43e
000001b0: 28f2 53bf fdf5 98bf 607a 96bc 45d4 4dbe
000001c0: 392c 9e3e f875 c9bf 1df2 c840 49cb 7440
000001d0: fd14 7ec0 28c5 2140 bb1f 7dc0 cb02 0240
000001e0: 9208 3dbe da3c ccbf 4622 5bc0 98a8 cfbe
000001f0: 60ed d83e 3040 36c0 3bb9 99c0 5ef8 45bf
00000200: d0ed da3f 7bc2 f53f c0a1 32c0 1115 4640
00000210: 3efa d6bf 87f8 f23e 74b1 02bf baa6 54be
00000220: 7f9b 7ebf 5fd9 1e3e 36b7 293f 8d2b 52bf
00000230: 2f7b f2be b0a2 b1be 1dc3 15be aaff 523f
00000240: 19b4 1cc0 6801 81bf 3329 013f 2229 4ebf
00000250: 45cc 673f 0824 b9bf cde7 9abf 3da3 83be
00000260: 3f5b 7d40 c48f 4c40 6657 fd3f 5dce 833e
00000270: d9d6 c83f 5139 49c0 47cb 7e40 54f5 39bf
00000280: 8dcf 47be fbd6 e13f 5f59 3bc0 991f 4bc0
00000290: 19bd 363f 7ad0 f73f 1ee7 97c0 e578 99be
000002a0: 1561 753f 0a08 73be 7144 3040 7d36 423f
000002b0: 35cd 80bf 6d40 3fc0 d598 e23f 5fc0 5dbf
000002c0: 744a ab3f 747c 80bf 7130 30c0 8779 9abf
000002d0: 8f30 1540 fdf9 ed3f 03f9 2840 7cfa 28c0
000002e0: c5bf 7cc0 a414 9d3f 2888 a9bf 82a4 80bd
000002f0: d17d f63f fa9d 19c0 e917 bd3f 68e1 db3f
00000300: 3820 2fc0 2ca7 0640 7d92 92bf 04c9 dbbf
00000310: c0ed 7bbf 7079 6940 3420 3abe faf2 c73e
00000320: 0d34 68bf aa43 35c0 aed9 47c0 c51b 2bbf
00000330: f86a fbbe e215 6fbf 7851 81bf 01c6 d03f
00000340: c057 0640 d300 3b40 223b 35bd b81b b2bf
00000350: 6174 8c3e 7d69 afc0 fd70 8dbe b022 b1be
00000360: 8190 f73f ca3a d8be 09b9 4440 23ba 9d40
00000370: 9188 5b40 c536 3ac0 6c8a 92c0 def6 4440
00000380: c28c b1bd 52e9 5140 718d 3ebd eb5f f13e
00000390: d223 ddbd 8ab9 823d b7b7 38bf a3ac a73f
000003a0: d41b 63bf 93a3 9ebe c879 ddbf 2558 993f
000003b0: 4eb6 3e3c 019a b23f 6617 5d3d 2470 8bc0
000003c0: af38 583e 278a 333e 26b4 eabd 4ece fe3e
000003d0: 5517 09bf 8b74 163f cadc 22c0 26df 62c0
000003e0: d15f 65c0 d015 be3f d72b e93f 7434 5140
000003f0: 4d92 8040 3f73 58bf 9884 6bbf 36d8 ab3f
0.6044757 1.4762714 -1.7525795 0.49561384 0.34913236 1.7016246 -4.136481 0.82085884
0.20865764 -1.4447923 3.8139126 -2.7852366 -3.2672205 -2.45746 0.719262 1.6728565
1.969098 2.4098892 -1.8645567 -1.8182293 -2.7120028 5.698872 -4.571055 -0.6075262
1.8649281 1.6434013 2.9834943 -0.97807723 3.453134 -3.111022 -0.5856188 2.0829785
4.1858025 0.09896394 -1.774056 2.2444513 -1.8887388 -0.71854585 -0.546871 0.061364587
-0.028649686 0.37668148 0.4051953 0.5679442 0.51538604 0.42557997 -0.51976055 -0.10893652
0.68867314 -1.2507937 0.6708542 0.12475583 0.2871042 -0.81327295 0.077825814 0.948865
0.14369273 -0.35095817 -1.2835656 -1.0048037 1.683473 -2.3985436 1.2648385 -3.2532372
-3.1465554 -4.8060493 -2.1816711 5.028233 -1.9197979 -0.3339596 -1.5428522 0.69822806
-1.0081062 2.6937618 1.4252464 -0.9743913 -1.8093781 2.3762393 1.3794963 1.6785016
0.75256705 2.7073722 -2.761167 0.057374768 0.6120818 1.7208818 1.7165565 -5.063991
2.8814318 0.27173814 -1.9946784 -1.6172965 -1.4050604 1.4173084 0.104598366 0.4016115
0.94470054 -0.6311333 0.56866586 -0.05648322 0.019889673 0.49950576 -0.005108236 -0.19039747
0.25544214 0.23088862 -2.2958891 0.41554874 -0.82791376 -1.195007 -0.0183689 -0.20100506
0.30893114 -1.5739126 6.279555 3.8249075 -3.970031 2.5276585 -3.9550617 2.0314205
-0.184603 -1.595607 -3.423967 -0.40558314 0.42368603 -2.8476677 -4.803861 -0.77332103
1.7103825 1.9199976 -2.7911224 3.0950358 -1.6795118 0.47455236 -0.5105202 -0.20766726
-0.9945602 0.15512608 0.6629518 -0.82097703 -0.47359607 -0.34694433 -0.14625211 0.8242136
-2.4484923 -1.0078554 0.5045349 -0.80531514 0.90546066 -1.4464121 -1.210199 -0.25710478
3.9586942 3.1962748 1.9792297 0.2574338 1.5690566 -3.1441233 3.981157 -0.72639966
-0.19512768 1.7643732 -2.9273298 -3.1738036 0.7138229 1.9360497 -4.7469625 -0.29975048
0.9585126 -0.23733535 2.7541773 0.7586439 -1.0062624 -2.9883072 1.7702891 -0.8662166
1.3382096 -1.003798 -2.7529566 -1.2068337 2.3310888 1.8591915 2.6401985 -2.6402884
-3.9492047 1.2271924 -1.3244677 -0.062813774 1.9257146 -2.4002671 1.4772922 1.7178164
-2.7363415 2.1039534 -1.1450955 -1.717072 -0.9840965 3.648037 -0.18176347 0.39052564
-0.90704423 -2.832255 -3.122661 -0.6683925 -0.49105048 -0.93392766 -1.0102987 1.6310426
2.0991058 2.9219253 -0.044245847 -1.3914709 0.2743254 -5.481627 -0.27625266 -0.34596777
1.9340974 -0.42232352 3.0737936 4.928972 3.4302104 -2.9095929 -4.579397 3.0775676
-0.086694255 3.2798657 -0.046521608 0.47143492 -0.10797848 0.06383045 -0.72155327 1.309956
-0.8871434 -0.30984172 -1.730279 1.1980025 0.0116401445 1.3953248 0.053977393 -4.357439
0.21115373 0.1753317 -0.11460142 0.49766773 -0.53551227 0.5877158 -2.544726 -3.54487
-3.5839732 1.4850407 1.8216504 3.2688265 4.017859 -0.8455085 -0.91999197 1.3425357

fc1.bias f4 [64]
00000000: 7da1 e03f 9d6a 7a40 7f4f 2cc0 7a85 a6bf
00000010: 775b 8bc0 8b01 bdc0 866f 1440 13a7 50c0
00000020: 7e8e 8a3f c70e 1cbf 2dca 8ec0 4f4f 0b40
00000030: 2376 66c0 b94b da3f 92a0 63c0 f95d 50c0
00000040: e6d1 a3bf 1053 4dbf e23c 7640 9c4e edbf
00000050: a2ec 63c0 7038 9abf 891d 283e 6597 1640
00000060: 71e2 1ac0 f8fb bdbe 2e77 ad40 6976 d93f
00000070: 70e0 f13f beec 0840 e995 f03f 0bc5 05c0
00000080: a8b1 9a3e cc47 4340 f2ae 5c3f 6087 65c0
00000090: ac1e 43c0 a842 bdbf 0861 3bc0 aed9 2bc0
000000a0: 80b2 28bf 9c63 7d3f 3819 a4c0 8852 45c0
000000b0: d056 2ec0 ae6e 07c0 5a06 ecbf 4bca d3bd
000000c0: 3735 06c0 da84 f7bf 9ec6 fcbe b988 d73c
000000d0: ce57 bdbf 9c56 7dc0 f971 80be 254e 4bc0
000000e0: a5c2 0240 6dc3 00c0 3e18 b23f 00da 56c0
000000f0: e0e8 263f 085b 80c0 1c11 81c0 2337 44c0
1.7549282 3.9127572 -2.692352 -1.3009484 -4.354915 -5.9064384 2.3193069 -3.2601974
1.0824735 -0.6096005 -4.4621797 2.1767156 -3.6009605 1.7054359 -3.5566754 -3.2557356
-1.2798431 -0.8020487 3.847466 -1.8539615 -3.561318 -1.2048473 0.16417517 2.3529904
-2.420071 -0.371063 5.4207983 1.6989261 1.8896618 2.1394496 1.8795749 -2.0901515
0.30213666 3.0512571 0.86204445 -3.5863876 -3.048747 -1.4785967 -2.9277973 -2.685161
-0.6589737 0.98980117 -5.1280785 -3.0831623 -2.7240486 -2.1161304 -1.8439438 -0.10341319
-2.096998 -1.9337418 -0.49370283 0.026310312 -1.4792421 -3.9584112 -0.25086954 -3.1766446
2.0431302 -2.0119278 1.3913648 -3.3570557 0.6519909 -4.011112 -4.0333385 -3.0658653

fc2.weight f4 [64, 64]
00000000: 933b 7ebe 364b bbbe aa01 80be 6c20 40be
00000010: 4ca5 51be 328c 8dbe 0d0a d4be 516b c1be
00000020: 5210 58be 0ad3 343e ecb8 a9be 0f99 7ebe
00000030: c291 c6be 6687 75be 9752 6ebe 4724 68be
00000040: 9b8d 90be acd6 64be a9ae 5dbe e33c c4be
00000050: da5e b0be a076 b1be 2f59 60be 7620 97be
00000060: eaf5 bdbe eb27 d0be 0afa 98be c07b 86be
00000070: 5962 8fbe 0a9c 47be 9dfa cfbe 085e 5fbe
00000080: c20e afbe 12d0 82be b82c 8cbe 7112 7fbe
00000090: 22d9 c7be 7426 3dbe 9a91 c7be baaf 3cbe
000000a0: 5d64 8bbe 7b7f cebe 3e34 cabe f8cb 76be
000000b0: 6b6a 35be 4103 bcbe 0d7a a0be 0752 87be
000000c0: 8558 53be 57e9 50be 0c4e b6be 6087 86be
000000d0: e3ad 68be 8174 b5be fc05 4ebe d641 7dbe
000000e0: dad2 51be e36e 85be 9f1b c8be f597 83be
000000f0: 7c12 97be abaf 88be 7276 9fbe 5ab4 63be
00000100: 7a3e 13bf 8a04 273e 5b27 71bf ed68 42bf
00000110: 51d9 3cbf eb50 04bf 8e57 3dbf 5437 fabe
00000120: c696 39bf fa5d c2be ebbb 5cbe 5e5e bbbf
00000130: 4580 edbc 30d3 15bf b4f4 05bf 41ed 103f
00000140: d4d2 8abe 155b 0e3e 2b5e 58bf 5d8e a6be
00000150: 0521 2fbf ad27 8ebf f212 fdbe eac1 3ebf
00000160: fed0 5cbe 5217 6ebe 3e53 5ebf 9b58 19bf
00000170: db94 6bbf 299c 82bf be46 57bf cb12 85be
00000180: 96a1 89be 697b 05bf 0dad 08bf 13bf 05bf
00000190: 2eda 2abf 4c59 f4be f4cb 2bbf 3910 90bf
000001a0: b4b8 22bf c17f aebe 922c 01bf eff1 6cbd
000001b0: 8270 3ebf 50f1 1dbf beea bcbf a167 6bbf
000001c0: 1ef9 cd3d 6895 84bf 961f 20bf 857a dbbe
000001d0: 8b03 15bf 0565 a1bf 06d9 d1be efb1 8bbe
000001e0: aa7c e6be 5832 21bf 05d9 d6be 42cc dcbe
000001f0: 4b8f 08bf 0914 0bbe 3fc9 56bf 9154 86be
00000200: ed59 9cbe 42bc 51be 948d 2bbd f0d5 49be
00000210: 6435 89bd 0c22 f8bd 9006 edbc c895 b6bd
00000220: 7a53 c9bd 5406 5cbe a014 3d3c 0074 34ba
00000230: 8de0 61be d00a 933d 7ae8 81bd fe6c e03d
00000240: cf00 73be 40c9 29bb 140b 7dbe 6898 d7be
00000250: 8ce8 02bd 1cd1 babd 84c9 af3d 48e5 943c
00000260: b831 a5bd b445 a5be 7071 f83c 53a2 64be
00000270: f4e4 7dbe 7d38 9cbe 705c 2a3d 6c50 acbe
00000280: f08f dd3c 47a7 d6be ca72 973d 9a8f debd
00000290: 00c4 c5be 9402 a6bd a845 73bd 601b fe3c
000002a0: 4de8 a4be 97fe 55be 0a2a dbbd c095 8dbc
000002b0: f08a 95bd a483 b3bd 5e69 853d 70f3 b73c
000002c0: 3418 6ebd 08b2 49bd c1c6 a3be b6cb 86be
000002d0: a3c6 88be e8f6 483d 1954 a0be e1f1 ccbe
000002e0: 3a01 93be de29 99bd c43d b5bd aca9 c6be
000002f0: 004f b7bc 8068 cbbc ac82 d0be d823 013d
00000300: fd5b 13c0 570d 08c0 3bac 00bf 9323 943f
00000310: b605 3dbf 7b45 abbe af29 2bc0 9194 5cbe
00000320: 12b0 06c0 fc99 95be f09a 93bf ec66 37bf
00000330: f8f2 93bf 00c7 8dbf 7c04 19bf 8e9a b2be
00000340: d726 40bf c15a 02c0 de70 eebf 6bae 65bf
00000350: 3b8f f2bf cf94 153f 0185 d1bf 7503 2ec0
00000360: 7850 de3e 51fe 1f3f d975 e5bf 4f95 e2bf
00000370: a43c 00c0 9739 2dbc 7471 60bf 8081 95be
00000380: 2f2f e9bf ad7b 37c0 3281 943d 6b87 74be
00000390: de2f d0bf 3082 4dbd 5748 913f 1f9e d6bf
000003a0: 48ee 10c0 3306 14c0 d735 aabd 2121 0cc0
000003b0: 977b a7bf 5e19 1bc0 54d7 58bd 6cd9 07c0
000003c0: 219b 15c0 8931 e9bf a6fc e3bf 78fb f1bf
000003d0: 94ab c0bf ab88 9e3f 40b3 b3bf 0c65 8fbf
000003e0: 0181 07c0 15ee 7abf 3104 2e3f 2e29 9bbf
000003f0: 2fe4 7c3e faee 14bf 48c3 26c0 76d9 83be
-0.24827413 -0.3658082 -0.2500127 -0.18762368 -0.20473212 -0.27646023 -0.41413918 -0.37777188
-0.21099976 0.1765863 -0.33148897 -0.24863075 -0.3878308 -0.23977432 -0.23273693 -0.22670089
-0.28233036 -0.22347516 -0.21648659 -0.38327703 -0.34447366 -0.34660816 -0.21909021 -0.29516953
-0.3710168 -0.40655455 -0.29878265 -0.2626629 -0.2800472 -0.19493118 -0.4062089 -0.21813214
-0.34190947 -0.2554937 -0.27377868 -0.24909379 -0.39032847 -0.184717 -0.38978273 -0.1842641
-0.2722501 -0.40331635 -0.39492983 -0.24101245 -0.17716376 -0.36721233 -0.31343117 -0.2642977
-0.20639236 -0.20401512 -0.3560642 -0.26275158 -0.22722583 -0.35440448 -0.2011947 -0.24732146
-0.2049059 -0.26061162 -0.39083573 -0.25701872 -0.2950629 -0.26696524 -0.31145054 -0.22236767
-0.57517207 0.16310325 -0.94200677 -0.75941354 -0.737691 -0.5168597 -0.7396172 -0.48870337
-0.72495687 -0.37962323 -0.2155606 -1.4638174 -0.028991828 -0.5852537 -0.5232651 0.5661202
-0.27113974 0.13901933 -0.8451869 -0.3253049 -0.6840976 -1.1105858 -0.49428517 -0.7451464
-0.21564099 -0.23251083 -0.8684577 -0.59900826 -0.9202401 -1.0203906 -0.8409232 -0.259909
-0.26881093 -0.52141434 -0.53389055 -0.5224468 -0.66739166 -0.47724378 -0.6710808 -1.1254951
-0.63563085 -0.34081843 -0.50458634 -0.057847913 -0.74390423 -0.6169634 -1.4759138 -0.91955
0.10057281 -1.0358095 -0.62548196 -0.42866912 -0.5820853 -1.2608954 -0.40985888 -0.2728419
-0.45016986 -0.62967443 -0.41962448 -0.43124586 -0.5334365 -0.13581862 -0.8390083 -0.26236394
-0.30537358 -0.20481971 -0.041883066 -0.19710517 -0.066996366 -0.12115869 -0.028933793 -0.08915287
-0.09830375 -0.21486789 0.011540562 -0.00068837404 -0.22058316 0.07179797 -0.063431695 0.109582886
-0.23730777 -0.0025907308 -0.24711257 -0.42108464 -0.031960055 -0.09121916 0.08583358 0.018175736
-0.08066124 -0.32279742 0.030327529 -0.22327547 -0.2479437 -0.30511847 0.04159206 -0.33655107
0.027046174 -0.41924497 0.07394941 -0.108672336 -0.386261 -0.081059605 -0.0593926 0.031018913
-0.3220848 -0.208979 -0.10701378 -0.01728332 -0.07301891 -0.08765343 0.06514238 0.022454947
-0.05812855 -0.04924205 -0.31987575 -0.26327294 -0.26714048 0.049063593 -0.3131416 -0.4002829
-0.28711873 -0.07478689 -0.088496715 -0.38801324 -0.022376537 -0.024830103 -0.40724695 0.031528324
-2.3024895 -2.1258142 -0.502628 1.1573356 -0.7383684 -0.33451447 -2.6744192 -0.21541049
-2.1044965 -0.29219043 -1.1531658 -0.7164142 -1.1558523 -1.1076355 -0.5977247 -0.3488354
-0.75059265 -2.0367892 -1.8628194 -0.89719266 -1.894996 0.5843019 -1.6368715 -2.718961
0.43420768 0.6249743 -1.7926589 -1.7701815 -2.0037012 -0.0105728125 -0.87673116 -0.29200363
-1.8217524 -2.8669236 0.072512046 -0.23879783 -1.6264608 -0.050172985 1.1350201 -1.6767005
-2.2645435 -2.3128784 -0.083110504 -2.189522 -1.3084592 -2.4234233 -0.052939728 -2.1226454
-2.3375933 -1.8218242 -1.7811477 -1.8904867 -1.5052361 1.2385458 -1.4039078 -1.1202712
-2.1172488 -0.98019534 0.67975146 -1.2121942 0.2469642 -0.5817715 -2.605669 -0.25751847

fc2.bias f4 [64]
00000000: 5c38 c8be e8ed 89bf 2f89 d9be e87b 0ac0
00000010: 5e4e d3be 096c c4be ce1b 09bf 03db 3bc0
00000020: e78d 2ebf 4cff d1be aec0 81c0 1172 97bd
00000030: ccc5 f3bf faef a2be bcc6 bf3f d49e 97be
00000040: 35fc a2be 1a34 86bf 4edf 17bf ce06 9ebe
00000050: b72f 2cbf 4697 11c0 43df b4be 6bc8 a1be
00000060: fc6e 10c0 8f8e 67be b184 93bf 1401 9cc0
00000070: 01bc 0bc0 8a98 03bf c25b cfbf 1582 87be
00000080: c687 95bf a25e a7be 77fa 4dbe e4b4 1abf
00000090: 1ccc 05bf b1eb 5abe 66c4 9cbf a110 91be
000000a0: 16e8 2ebf 4371 5ac0 0727 94c0 f562 f0bf
000000b0: 361b 9abe 43d2 0cc0 032d 68c0 0a2a 16bf
000000c0: ed5b 13bf b5af a1be a750 5cbe 9bf7 b5bf
000000d0: 5ad6 2ac0 c6e7 30be f2d9 98bf b3f0 b6be
000000e0: bf5c b3bf 1d28 88bf 6a4b 23bf ff36 d1bf
000000f0: a4b7 08bf cfa8 a4bf 8c76 1dbf 8cd6 42c0
-0.391055 -1.0775728 -0.42487475 -2.1638126 -0.41270727 -0.38363674 -0.5355805 -2.9352424
-0.68185276 -0.4101509 -4.0547705 -0.07394803 -1.9044738 -0.31823713 1.4982524 -0.29613364
-0.31833044 -1.048465 -0.5932511 -0.30864567 -0.6726031 -2.274858 -0.35326585 -0.3159822
-2.256774 -0.22612976 -1.1524869 -4.8751316 -2.1833498 -0.5140463 -1.6199877 -0.26466432
-1.168206 -0.32689387 -0.20115076 -0.6043227 -0.5226457 -0.21378972 -1.2247436 -0.28333
-0.68322885 -3.413163 -4.629764 -1.8780199 -0.30098885 -2.2003334 -3.6277473 -0.58657897
-0.5756214 -0.31579366 -0.21515141 -1.4216188 -2.669333 -0.17275915 -1.1941512 -0.35730514
-1.4012679 -1.0637242 -0.6378695 -1.6344908 -0.53405213 -1.2864016 -0.61509013 -3.044345

fc3.weight f4 [1, 64]
00000000: e265 43be a321 303e 71f8 67be d2f7 263f
00000010: d537 a03f f8f3 7fbe 15cd d6bd 7f2a a63f
00000020: 4fa2 043e 4fa2 13be fde3 0cbf 3e68 ac3d
00000030: a240 e43e 9941 863e 1daf 233f cbaa 6cbe
00000040: 5a3c 583e d9d5 7d3e 9dbe cd3d 30dd 443e
00000050: 71ab 2bbf 4f4e b03e f069 d03d 3097 173e
00000060: 4d1a c6bf ea4d 673e 3a31 a93e 3ac9 233f
00000070: ca99 1ebf 0949 953e be79 d7bd e805 413e
00000080: 9e97 403e f964 513e 188a 823e 2abd 623d
00000090: 05a9 373e 0a58 713d 933f ed3e d7cb 3abe
000000a0: e134 7abc 7dac 2c3e b824 043e 3cf4 393f
000000b0: ee71 b23e 85ba 183d 8ede 3d3f 0e10 203e
000000c0: bfad ef3d faa0 72be d118 213e 3526 223f
000000d0: ef5b 1d3f 6075 5ebd 5ee7 bf3d 1e27 38be
000000e0: 9ab7 c03e 5ffd 09bf ace8 04bf 1b23 843e
000000f0: ef2a c3bd fa2c 89bd 34a8 493e 7ccb 0a3f
-0.19081834 0.17200331 -0.22653367 0.65221894 1.2517039 -0.2499541 -0.10488335 1.2981719
0.12952541 -0.14417385 -0.5503538 0.0841832 0.4458056 0.26221922 0.63939077 -0.23112027
0.21116772 0.24788608 0.10046122 0.19225001 -0.67058474 0.34434745 0.10176456 0.14803767
-1.5476776 0.22588316 0.3304537 0.6397892 -0.61953413 0.29157284 -0.10521267 0.1884991
0.18807837 0.20448674 0.25495982 0.055356182 0.1793557 0.05892185 0.46337566 -0.18241821
-0.015271396 0.16862674 0.12904632 0.726383 0.34852546 0.037287254 0.74167717 0.15631124
0.11703061 -0.2369422 0.15732123 0.6333955 0.61468405 -0.054311156 0.09370302 -0.17983672
0.37640077 -0.5390224 -0.5191753 0.25808033 -0.09529673 -0.06698032 0.1969307 0.5421674
