trained_models_1L_4/firmware_update_model.pth (torch, 24391 bytes, 5 tensors)

fc1.weight f4 [64, 19]
0	0xbf0a16b3	-0.53940886
1	0xc01887a8	-2.3832798
2	0xbef053c3	-0.46938905
3	0xc00c683b	-2.1938617
4	0x3f985006	1.1899421
5	0x3ff88534	1.941565
6	0xbf9f58c2	-1.2448962
7	0xbfa536e0	-1.2907372
8	0x3fbd4d9b	1.4789308
9	0x3f66aa91	0.90104014
10	0xbdaaf0f6	-0.08346741
11	0x3e4621f1	0.19348885
12	0x3feafbc2	1.835808
13	0x3ea14205	0.3149568
14	0xc08f1943	-4.4718337
15	0x3d29536e	0.04133933
16	0xbf729589	-0.9475942
17	0xbfa81de4	-1.3134122
18	0xc00caedc	-2.1981726
19	0xbf27906b	-0.6545474
20	0xbf7945a4	-0.9737189
21	0xbf12e771	-0.573844
22	0xbf3a368f	-0.727395
23	0x3faf44a1	1.3692819
24	0x400b547a	2.177031
25	0xbfb128fa	-1.384063
26	0xbe8675b4	-0.26261675
27	0x3f871c7e	1.055557
28	0x4012fa87	2.296541
29	0xbfe3548b	-1.7760175
30	0x402c263f	2.6898344
31	0x3f094ca2	0.5363256
32	0x3f47bbc3	0.78020877
33	0xc02e6ed1	-2.7255137
34	0xbf795c52	-0.97406495
35	0xc057d080	-3.3721008
36	0x3f2d3596	0.6765989
37	0x3e76e8a2	0.2411218
38	0x40377dc7	2.8670518
39	0x3e78ca1c	0.24295849
40	0x3efa4983	0.4888421
41	0xbf377fdf	-0.7167949
42	0xbfaea221	-1.3643228
43	0xbfe6cf09	-1.8031932
44	0xbc8f1edd	-0.017470771
45	0x3f83ad7a	1.0287316
46	0xbfe112c7	-1.7583855
47	0xc00ac48b	-2.168246
48	0x3f85193e	1.0398328
49	0xbf61c3a7	-0.88189167
50	0xbf097735	-0.5369752
51	0x3d906934	0.07051316
52	0xbfa00c56	-1.2503765
53	0x3e8fc7a4	0.28082
54	0x3fa0c3f3	1.2559799
55	0x3eb55aec	0.3542093
56	0x3e1e7c72	0.1547716
57	0x4025deac	2.5917158
58	0x4060c038	3.511732
59	0xbe8291ba	-0.25501806
60	0x3f788c3a	0.9708897
61	0x3df15db2	0.11785449
62	0x3f716ff1	0.94311434
63	0xbfc4976f	-1.5358714
64	0x3e0ab32f	0.13544916
65	0xbfdd5f19	-1.7294647
66	0xc008ae9e	-2.1356578
67	0x404a56c2	3.1615453
68	0xbfef8923	-1.8713726
69	0x3f2aacf8	0.6667018
70	0xc01e6545	-2.474931
71	0xbe627730	-0.22115779
72	0x3f4d26b2	0.8013717
73	0xbf649896	-0.8929533
74	0x3e1c8407	0.1528474
75	0xbe346ef1	-0.17620446
76	0xc0899f8d	-4.3007264
77	0xc01374f7	-2.304014
78	0x3f8648cb	1.0490965
79	0xc08cb6ce	-4.397315
80	0x3fd7642d	1.6827446
81	0xbf265b22	-0.6498281
82	0x3e8e644b	0.27810892
83	0x401406f8	2.3129253
84	0x3f3aeefc	0.7302091
85	0x407f22e5	3.9865048
86	0xc0380a05	-2.8756115
87	0xbf75b613	-0.9598095
88	0xbe20beeb	-0.1569783
89	0x3e85db86	0.26144046
90	0xc082b2a4	-4.0843067
91	0xbff2dff5	-1.8974596
92	0xbfb4de88	-1.4130411
93	0xc07b1403	-3.9230964
94	0x3f5f4f79	0.8723064
95	0x3fa6c76a	1.3029606
96	0xc01f7316	-2.4913993
97	0x3f4f7ba9	0.81048065
98	0x40417bb3	3.023175
99	0x3d411931	0.047143165
100	0x3f8b781f	1.0896033
101	0xbe95e320	-0.29274845
102	0xbf8488ac	-1.0354209
103	0x3f35ff9a	0.7109314
104	0x3eb13f37	0.34618542
105	0x3f8e7952	1.1130774
106	0x40238ca6	2.5554595
107	0x3e7c296b	0.24625175
108	0x3fc96313	1.573336
109	0xbdec6b04	-0.11543849
110	0xbfe0a30a	-1.7549756
111	0xbfd2652c	-1.6437125
112	0xbf80506f	-1.0024546
113	0x3e372367	0.17884599
114	0x3fa7386f	1.3064097
115	0xbe9e978f	-0.30975005
116	0x3e44334a	0.1916019
117	0x3edcb0f5	0.43103758
118	0xc00c9127	-2.1963594
119	0xbedb3f84	-0.42821896
120	0x3ebfbaff	0.37447354
121	0xbf29b093	-0.66285056
122	0x3dde4ddd	0.10854695
123	0xbf876c4f	-1.0579928
124	0x3f7b7d3d	0.98237973
125	0x3f3ff8a5	0.74988776
126	0x3fba15db	1.453792
127	0xbe909dd5	-0.28245416
128	0x407aa07d	3.9160454
129	0xbf9bb9ee	-1.2166116
130	0xbf87884d	-1.0588471
131	0x3e46e95e	0.1942496
132	0xbfb054e9	-1.3775913
133	0xbfd82ac3	-1.688805
134	0xbf0a0e4d	-0.5392807
135	0xbfb15f89	-1.385728
136	0x3fb9fbca	1.4529965
137	0x3eccb296	0.3998
138	0x404147b8	3.0200024
139	0xbf8839c0	-1.0642624
140	0x403c3e26	2.9412932
141	0x3fc6db3d	1.5535656
142	0x3e5ad2a4	0.21369416
143	0x3f2c882b	0.67395276
144	0x4047f0b3	3.124066
145	0x3e8dae7e	0.2767219
146	0x3fece14a	1.8506253
147	0xbff8a158	-1.9424238
148	0xbfaf260e	-1.3683488
149	0x4000b982	2.0113225
150	0xbf10cf51	-0.5656634
151	0xc01f761e	-2.4915843
152	0x3f8eaf97	1.1147336
153	0x3f7d03a9	0.9883371
154	0xbf21253f	-0.6294746
155	0x3e6d4e18	0.23174322
156	0xbf5a3fef	-0.85253805
157	0xbee1532e	-0.44008774
158	0xbfea7013	-1.8315452
159	0x3fd475c4	1.6598439
160	0x3f3fc1d2	0.7490512
161	0xbfe72cf3	-1.8060592
162	0x3f182641	0.5943337
163	0xbee367ef	-0.44415233
164	0x3ff7da10	1.9363422
165	0xc0296a4a	-2.6471124
166	0x3f863168	1.0483828
167	0x3f99d2c6	1.2017448
168	0xbe83808a	-0.25684005
169	0xbe1ff038	-0.1561898
170	0x3e7a1d1e	0.2442517
171	0x3fa0a6bc	1.2550883
172	0x3ea92eee	0.33043617
173	0x3ff67b23	1.9256328
174	0x3ca9f06f	0.02074453
175	0x3ebdad13	0.37046108
176	0xbf875b1f	-1.0574683
177	0xc01574b7	-2.3352487
178	0x3f47a814	0.7799084
179	0x3fe16579	1.7609092
180	0xbfaceb61	-1.3509332
181	0x3f9018b1	1.1257535
182	0x3f532876	0.82483613
183	0x3fdcd3ec	1.7252173
184	0x3f3dec7b	0.74188966
185	0xbfaac293	-1.3340629
186	0xc02cc2df	-2.699394
187	0x3fc6a984	1.5520482
188	0xbf957add	-1.167812
189	0xc02355c8	-2.5521107
190	0x3ed7e050	0.42163324
191	0x3ff06da2	1.8783457
192	0xbfed8196	-1.8555171
193	0x3f6a4dc8	0.91524935
194	0x3f5db294	0.86600614
195	0x3f33eace	0.7028016
196	0xbeba2ed6	-0.36363858
197	0x3f8fef18	1.1244841
198	0x3e7751ee	0.24152347
199	0xbfad4eee	-1.3539712
200	0x3ff16816	1.885989
201	0xbf3af6b3	-0.73032683
202	0xbe19e909	-0.15030302
203	0xbfdedce7	-1.7411164
204	0x403342fb	2.8009632
205	0x3fdd7b24	1.7303205
206	0x3f2beb70	0.67156124
207	0x3e85239c	0.2600373
208	0x3f766938	0.962543
209	0x3f670922	0.9024831
210	0x3ebd639f	0.36990067
211	0xbe26b0ba	-0.16278353
212	0xbe69761e	-0.22798964
213	0xbf11ae1f	-0.5690631
214	0x3f12845d	0.5723322
215	0x3ed8e1ae	0.4235968
216	0xbed97476	-0.42471665
217	0xbe1efbf4	-0.155258
218	0xbf9433d6	-1.1578319
219	0x3f1a9e30	0.60397625
220	0xbebe4bdb	-0.37167248
221	0x3fc64950	1.5491123
222	0xbf8bffa1	-1.0937387
223	0x407e46f0	3.9730797
224	0xbf54980b	-0.830445
225	0xbc8ba521	-0.017046513
226	0xbe587239	-0.21137322
227	0xbf88f33d	-1.069923
228	0xbf200a31	-0.6251555
229	0x3f996b37	1.1985844
230	0xbf39876b	-0.72472256
231	0xc0041d0c	-2.0642729
232	0x3e9bd928	0.30439115
233	0x3f4a3f4d	0.7900284
234	0x3ebf5cc1	0.37375453
235	0x4017f02b	2.3740337
236	0xbf8f22f6	-1.1182544
237	0x3f8baf0e	1.0912797
238	0x3fcdb359	1.6070358
239	0xc04070d8	-3.0068874
240	0xc01d9b3e	-2.4626002
241	0xbee04ba4	-0.4380771
242	0xc02ab567	-2.667322
243	0x3dd39511	0.103311665
244	0x400e2a89	2.2213461
245	0x3eb9cfb8	0.3629129
246	0x3e16c6fc	0.14724344
247	0x3f8bd063	1.092297
248	0xbed0985d	-0.40741244
249	0x4012fb22	2.296578
250	0x4003ed8c	2.0613737
251	0x3e2ebaf2	0.17063501
252	0xbfb2ddab	-1.3973898
253	0x3fdae283	1.7100376
254	0x3e14b85e	0.14523456
255	0x3d9359f5	0.07194892

fc1.bias f4 [64]
0	0x3d99716f	0.07492339
1	0xbf939068	-1.1528444
2	0xbfe7642b	-1.8077444
3	0x3dab35c2	0.08359863
4	0x4061f025	3.5302823
5	0x3f2af9e1	0.66787535
6	0xc019c884	-2.4028635
7	0x3ee10fd1	0.4395738
8	0xbf9f9b75	-1.2469317
9	0x3f27aa8c	0.6549461
10	0xc06856ff	-3.6303098
11	0xc05ccdcc	-3.4500608
12	0x3ef5e898	0.48029017
13	0xbff8a8e8	-1.9426546
14	0xbf6601bf	-0.89846414
15	0xc0658c1b	-3.5866764
16	0xc076ac96	-3.8542838
17	0x3ece7fb0	0.40331793
18	0x3fbc7f22	1.4726298
19	0xc0015051	-2.0205271
20	0x3fa7eb00	1.3118591
21	0xbe168c85	-0.14702041
22	0xbf23c452	-0.63971436
23	0xc003bd56	-2.0584311
24	0xc09f1fe2	-4.972642
25	0xc06de40d	-3.717044
26	0x3e85f9ab	0.26167044
27	0x3f6bded0	0.9213686
28	0x4006bc56	2.105245
29	0x3f8811a1	1.063038
30	0x3fd1e8f5	1.6399218
31	0x405adf52	3.4198804
32	0xbfb8f16f	-1.444868
33	0x404b1860	3.1733627
34	0xbf137d73	-0.57613295
35	0xc07a8347	-3.9142625
36	0xbf0833d2	-0.5320407
37	0xbf72c440	-0.94830704
38	0xbe84c497	-0.25931236
39	0x3fdb9c93	1.7157158
40	0x3e427096	0.1898826
41	0xbd5aae1f	-0.05338871
42	0x3d9f2351	0.07770408
43	0x406b3f1b	3.6757267
44	0x3e09801a	0.13427773
45	0x3e730862	0.23733667
46	0xc0471c0a	-3.1110864
47	0xbe85a95e	-0.2610578
48	0xc057c1a9	-3.371195
49	0x407fd44e	3.997333
50	0x3fac10c2	1.3442614
51	0xbf71ece4	-0.9450209
52	0xc004c6bb	-2.0746295
53	0x3f2944ce	0.6612061
54	0xc0426d9d	-3.0379403
55	0xbfa0bfcc	-1.2558532
56	0xbfbc0ae1	-1.469082
57	0x3fb01a39	1.3758003
58	0x3f874ed9	1.0570937
59	0x3f2ca50f	0.6743936
60	0xbe034097	-0.12817608
61	0x3f243a2e	0.64151275
62	0x3f9f7929	1.245885
63	0xbf18e4cc	-0.59724116

fc2.weight f4 [64, 64]
0	0xbe837ef6	-0.256828
1	0xbc25e7a8	-0.010126032
2	0xbe921592	-0.28532082
3	0x3db04a30	0.086079
4	0xbec5f044	-0.3865987
5	0xbf68da68	-0.9095826
6	0xbe3e3cf5	-0.18577941
7	0xbea0dfd4	-0.31420767
8	0xbec4c29b	-0.38429722
9	0xbe538806	-0.20657358
10	0xbf1a2b27	-0.60222095
11	0xba62d054	-0.0008652259
12	0x3f00df76	0.50340974
13	0xbeaa67bd	-0.3328227
14	0xbe70c229	-0.23511566
15	0x3cbc7f69	0.023009973
16	0xbebcdca6	-0.3688709
17	0xbd9e8764	-0.077406675
18	0x3da1dbf3	0.0790328
19	0xbd3274cc	-0.043568417
20	0xbd636e10	-0.055524886
21	0xbe022403	-0.1270905
22	0x3ec30f4a	0.38097602
23	0xbdc7a159	-0.097475715
24	0xbe9440e4	-0.28955758
25	0xbf2d9877	-0.6781077
26	0xbeef2758	-0.46709704
27	0x3dc8a22d	0.097965576
28	0xbe6ddde1	-0.23229171
29	0xbe0d035b	-0.13770811
30	0xbef1988a	-0.4718669
31	0xbf7993f3	-0.9749138
32	0x3e829bcd	0.25509492
33	0xbe0a5bd3	-0.1351159
34	0xbe1e386c	-0.1545121
35	0xbddde7c1	-0.10835219
36	0xbf390f23	-0.7228872
37	0xbe9f03ac	-0.3105749
38	0xbf849d60	-1.0360527
39	0xbe65e8da	-0.22452107
40	0xbf0be185	-0.5464099
41	0xbed91a97	-0.424031
42	0xbf78d188	-0.9719472
43	0xbedf492a	-0.43610507
44	0xbe5f25d1	-0.2179177
45	0x3e9c381e	0.30511564
46	0xbed62be3	-0.41830358
47	0xbf2b92da	-0.6702095
48	0xbebe4214	-0.3715979
49	0xbf298783	-0.662224
50	0xbec7c6dc	-0.39018905
51	0xbf0f5d30	-0.5600157
52	0xbe4f35a0	-0.202353
53	0xbe974de0	-0.295516
54	0xbecb6c0a	-0.39730865
55	0xbeede17a	-0.46461087
56	0xbe77a89c	-0.24185413
57	0xbed194f8	-0.40933967
58	0xbdd31522	-0.10306765
59	0xbdc37829	-0.09544403
60	0xbed87749	-0.42278507
61	0xbdbf9df5	-0.093563
62	0xbf051bf6	-0.5199579
63	0xbed67f67	-0.41894075
64	0xbea66e04	-0.3250581
65	0xbe6e2804	-0.23257452
66	0xbdc03a92	-0.093861714
67	0xbf03a646	-0.5142559
68	0xbee2f7fa	-0.44329816
69	0x3c693c68	0.014235593
70	0xbeca19c0	-0.3947277
71	0xbe3aab9a	-0.18229523
72	0xbe5d1345	-0.21589382
73	0xbe9fc172	-0.31202275
74	0xbea59120	-0.32337284
75	0xbe5cc707	-0.21560298
76	0x3de9cc3e	0.11415909
77	0x3e5d549e	0.2161431
78	0xbef99cc9	-0.4875243
79	0xbec06f06	-0.37584704
80	0x3c7d0854	0.01544388
81	0xbe8b374c	-0.27190626
82	0xbeb396c4	-0.35075963
83	0xbeabceb2	-0.33556134
84	0xbebfb5c2	-0.37443358
85	0xbecd9b97	-0.40157768
86	0xbee7e89b	-0.4529465
87	0xbea74562	-0.32670122
88	0xbe995fec	-0.29955995
89	0x3e5f5019	0.21807899
90	0xbef253c9	-0.47329548
91	0xbea881d3	-0.32911548
92	0xbe8f84f0	-0.2803111
93	0xbebdebf1	-0.37094072
94	0x3e804ab2	0.25056988
95	0xbee86cdb	-0.4539555
96	0xbdaaef4c	-0.083464235
97	0x3e13b1e0	0.14423323
98	0xbe6f3518	-0.23360097
99	0x3d43778b	0.047721427
100	0xbe9f1df2	-0.31077534
101	0xbec4ecc5	-0.3846189
102	0xbe8a56e7	-0.27019426
103	0xbebe284a	-0.37140113
104	0x3e0e4198	0.1389221
105	0x3e52fc80	0.20604134
106	0xbf50a8cb	-0.8150756
107	0x3cb6ee4e	0.02233043
108	0xbe1529ea	-0.1456677
109	0xbecf3529	-0.40470245
110	0x3bd493e5	0.006487357
111	0xbea95277	-0.33070728
112	0x3dd4e904	0.10396007
113	0xbe5a7c86	-0.21336564
114	0xbf0fdcda	-0.5619637
115	0xbdce0f8d	-0.1006156
116	0xbdfab7ac	-0.12242064
117	0xbf116491	-0.5679408
118	0x3d25d953	0.04049046
119	0xbe9d6512	-0.30741173
120	0xbed0d531	-0.40787652
121	0x3cd7350d	0.026270414
122	0xbea64bab	-0.32479605
123	0xbe029e87	-0.12755786
124	0xbf1fc97d	-0.6241682
125	0xbecea5f2	-0.4036098
126	0xbef1c6c0	-0.47221947
127	0xbed38e17	-0.41319343
128	0xbe6cb2d6	-0.23115095
129	0xbe82db8c	-0.25558126
130	0xbcfd6e84	-0.030936487
131	0xbf167041	-0.58765036
132	0xbee66298	-0.44997096
133	0xbdebe2d3	-0.11517873
134	0xbea849a3	-0.3286868
135	0xbe2ac6c4	-0.16677386
136	0xbeb1f6e0	-0.34758663
137	0xbe499bcb	-0.19688337
138	0xbd053820	-0.032524228
139	0xbe3af9e5	-0.1825939
140	0xbdb17daf	-0.0866655
141	0xbc98d0f1	-0.018654319
142	0xbe5921a0	-0.21204233
143	0xbe8bc709	-0.2730029
144	0x3b6fdb51	0.0036599229
145	0xbf010ccd	-0.5041016
146	0xbe718cc2	-0.23588851
147	0xbf2c2546	-0.67244375
148	0xbeb0cf2c	-0.3453306
149	0xbd957ff7	-0.07299798
150	0xbed77f4f	-0.42089316
151	0xbecd2576	-0.40067643
152	0xbec95224	-0.3932048
153	0x3c863145	0.016380915
154	0xbef63bc3	-0.4809247
155	0xbf1d6ac3	-0.6149103
156	0xbe952801	-0.29132083
157	0xbeb62666	-0.3557617
158	0xbe6acd1c	-0.22929806
159	0xbee60202	-0.44923407
160	0xbe480f58	-0.19537103
161	0xbedfe23f	-0.437273
162	0xbe364a4e	-0.17801782
163	0xbe19edb0	-0.15032077
164	0xbedb1cea	-0.42795497
165	0xbefca117	-0.49341652
166	0xbef8ce2d	-0.485948
167	0xbe671ebd	-0.2257032
168	0xbe0b6199	-0.1361145
169	0x3d30f25f	0.043199893
170	0xbe7053eb	-0.23469512
171	0xbed1c497	-0.409703
172	0xbdfa265f	-0.1221435
173	0xbed40d56	-0.41416425
174	0xbe1a2af4	-0.15055448
175	0xbe2bff3e	-0.16796586
176	0xbe2b574b	-0.16732518
177	0xbe605761	-0.21908332
178	0xbf097d68	-0.5370698
179	0xbe175f46	-0.14782438
180	0xbe0e9f7d	-0.13928027
181	0xbde68388	-0.11255556
182	0xbe3f0e9f	-0.18657921
183	0xbe0051c8	-0.12531197
184	0xbe56e3b9	-0.20985307
185	0xbd5273b7	-0.051379886
186	0xbe84e5d2	-0.2595659
187	0xbef1a8f4	-0.47199214
188	0xbf2e8cbe	-0.68183506
189	0xbeba5f0f	-0.3640065
190	0xbef02d30	-0.46909475
191	0xbefb376f	-0.4906573
192	0xbe3af125	-0.18256052
193	0xbe441066	-0.1914688
194	0xbe0c24ba	-0.13685885
195	0xbe583aa1	-0.21116115
196	0xbdfeb81a	-0.12437458
197	0xbe960b21	-0.29305366
198	0x3c920ec9	0.017829316
199	0xbecc3ce4	-0.39890206
200	0xbd7d3f59	-0.06182799
201	0xbe90d90d	-0.28290597
202	0xbed111a7	-0.4083378
203	0x3d36695f	0.044534083
204	0xbe974864	-0.29547417
205	0xbd845f5f	-0.06463503
206	0xbe4f91be	-0.2027044
207	0xbd9df7b5	-0.07713262
208	0xbeabd002	-0.33557135
209	0xbeab50f3	-0.33460197
210	0xbe8a4f34	-0.27013552
211	0xbe04eda5	-0.12981279
212	0xbda99fa1	-0.082824
213	0xbd35f3dc	-0.044422016
214	0xbea29f70	-0.31762266
215	0xbe2f2c95	-0.1710685
216	0xbdee2a4c	-0.11629161
217	0xbd2b9138	-0.04188654
218	0xbea82287	-0.32838842
219	0xbf0f77b1	-0.5604201
220	0xbe0ae859	-0.13565196
221	0xbd71bff0	-0.059020936
222	0xbe73fd79	-0.23827161
223	0xbeae8b5f	-0.34090707
224	0xbc87fa38	-0.016598806
225	0xbe5c611a	-0.21521416
226	0xbee2845b	-0.44241604
227	0xbe33e77a	-0.1756877
228	0xbdd115e9	-0.10209257
229	0xbdbc785c	-0.09202644
230	0xbde9097b	-0.113787614
231	0xbe097f7a	-0.13427535
232	0xbe6acb15	-0.22929032
233	0xbeaf26e3	-0.34209356
234	0xbe891fdb	-0.26782116
235	0xbe1630bd	-0.1466703
236	0xbe557e40	-0.20848942
237	0xbee22ed3	-0.4417635
238	0x3db17766	0.086653516
239	0xbe9082ac	-0.28224695
240	0xbdb55251	-0.08853591
241	0xbea3b0e5	-0.31970897
242	0xbe436b3f	-0.1908388
243	0xbe959898	-0.29217982
244	0xbead8769	-0.33892372
245	0xbe8a2df5	-0.26988187
246	0x3dfa1e51	0.12212814
247	0xbde29d82	-0.110651985
248	0xbe1943ae	-0.14967224
249	0xbdf68971	-0.120379336
250	0xbd9f5b55	-0.07781092
251	0xbdaa3e5b	-0.083126746
252	0xbde63ce2	-0.11242081
253	0xbeb62760	-0.35576916
254	0xbe70c0a0	-0.2351098
255	0xbea84b9d	-0.32870188

fc2.bias f4 [64]
0	0xbe30f8bc	-0.17282385
1	0xbedc3f5f	-0.43017098
2	0xbeb662f7	-0.3562238
3	0xbe45a7cb	-0.19302289
4	0xbe82da1f	-0.25557038
5	0xbe89a8e2	-0.2688666
6	0xbf52de42	-0.8237039
7	0xbe901ce2	-0.28147036
8	0xc03dbda3	-2.9646995
9	0xbe9560a9	-0.29175308
10	0xbefa2dcc	-0.48863065
11	0xbe331e7b	-0.17492096
12	0xbf42c248	-0.760777
13	0xbea48e0e	-0.3213963
14	0xbe24be02	-0.16088107
15	0xbe5a0c0f	-0.21293662
16	0xbfc95da9	-1.5731708
17	0xbde69132	-0.112581626
18	0xbf4742dc	-0.77836394
19	0xbed411ad	-0.41419736
20	0xbf1f0856	-0.62122095
21	0xbef5ad79	-0.47983912
22	0xbfcb0e57	-1.5863751
23	0xbe2eb82d	-0.17062445
24	0xbe464738	-0.19363105
25	0xbeaa1be8	-0.33224416
26	0xbecacd47	-0.3960974
27	0xbf08a64a	-0.53378737
28	0xbed9b6f0	-0.42522383
29	0xbfdad5b9	-1.7096473
30	0xbe882c23	-0.26596174
31	0xbe59fd22	-0.21287969
32	0xbe7761a0	-0.24158335
33	0xbe616d24	-0.2201429
34	0xbf3cc60e	-0.7373971
35	0xbee6af83	-0.4505578
36	0xbea97cc8	-0.33103013
37	0xbea12801	-0.31475833
38	0xbeb1014c	-0.34571302
39	0xbe38f07c	-0.18060488
40	0xbf4f4883	-0.8097002
41	0xc0395424	-2.8957605
42	0xbef84b8a	-0.48495132
43	0xbef45ab1	-0.47725442
44	0xbe581e13	-0.21105222
45	0xbec734f3	-0.38907585
46	0xbea92092	-0.33032662
47	0xbeefe905	-0.46857467
48	0xbefc826a	-0.49318248
49	0xbe9e7a33	-0.30952606
50	0xbed06c71	-0.40707734
51	0xbf847121	-1.0347024
52	0xbf3e6818	-0.74377584
53	0xbf9ed918	-1.2410002
54	0xbf53f0e5	-0.8278945
55	0xbeb49301	-0.35268405
56	0xbe7a66e9	-0.2445332
57	0xbec59618	-0.38591075
58	0xbfcb581c	-1.5886264
59	0xbe82044a	-0.25393897
60	0xbfaeca8d	-1.3655564
61	0xbeb3c598	-0.3511169
62	0xbf00eeaa	-0.5036417
63	0xbf5a4a1c	-0.8526933

fc3.weight f4 [1, 64]
0	0xbd522065	-0.051300425
1	0x3e06999e	0.13144538
2	0x3e167c3a	0.14695826
3	0x3e612c3b	0.21989529
4	0x3d889aa4	0.0667012
5	0x3d08aab1	0.03336591
6	0xbedb2171	-0.4279895
7	0x3e82c3e5	0.2554008
8	0xbede2aa2	-0.433919
9	0xbe6a55f3	-0.2288435
10	0x3e8169a5	0.25275913
11	0xbe14fe26	-0.14550075
12	0xbbc64d91	-0.006051727
13	0x3e410e77	0.18853174
14	0x3e6a7ea0	0.22899866
15	0x3db7d3c9	0.08975942
16	0x3f8c1df7	1.0946645
17	0xbd51ae50	-0.051191628
18	0xbdcfdf54	-0.10150018
19	0xbe582e32	-0.21111372
20	0x3e838f4f	0.25695273
21	0x3d8b2139	0.06793446
22	0xbf7043e2	-0.9385358
23	0xbe28ccab	-0.16484325
24	0x3e444902	0.19168475
25	0xbd9db86e	-0.07701193
26	0x3df8b58d	0.12144003
27	0xbe1a8e79	-0.15093412
28	0x3dccbeeb	0.09997352
29	0x3e8484c3	0.2588254
30	0xbe1ce4c3	-0.1532164
31	0xbe42c83a	-0.19021693
32	0x3e29b969	0.16574635
33	0xbdd7d61f	-0.10538887
34	0xbf0b9c4c	-0.54535365
35	0x3dfc6d46	0.1232553
36	0x3e2f24df	0.17103909
37	0x3e459e89	0.19298758
38	0xbdcca63a	-0.09992643
39	0xbdf8ef2d	-0.12154994
40	0xbee7a2c6	-0.45241374
41	0xbec2eb98	-0.3807037
42	0x3e00c53e	0.12575242
43	0x3d408f3f	0.04701161
44	0x3e9aec9f	0.30258653
45	0x3e525b5d	0.20542665
46	0x3e76a609	0.24086775
47	0x3e2bd80e	0.16781637
48	0x3dae1999	0.08500976
49	0xbe507d39	-0.20360269
50	0xbdc841a7	-0.09778147
51	0xbe8113b0	-0.25210333
52	0xbd742686	-0.05960705
53	0xbe5f77bc	-0.21823019
54	0xbebcd17b	-0.3687857
55	0xbe420498	-0.18947065
56	0xbe3f05ab	-0.18654506
57	0xbe573a72	-0.21018389
58	0x3f0a8fef	0.54125875
59	0x3cfc70a7	0.030815436
60	0xbd035529	-0.032063637
61	0xbe90086e	-0.2813143
62	0xbddea0b5	-0.10870496
63	0xbeb190cc	-0.34680784
