trained_models_1L_4/led_failure_model.pth (torch, 24359 bytes, 5 tensors)

fc1.weight f4 [64, 19]
000000 7e 71 11 c0 61 62 69 3f 6b bf 51 be 5b bc 59 3f
       -2.272552 0.9116574 -0.20483176 0.8505303
000010 a5 37 91 3f bc d5 49 bf d0 50 f0 bf a7 c3 3a 40
       1.1345106 -0.7884176 -1.8774662 2.9181917
000020 aa 6d a7 3f 4c 8e 90 3f cc 9e 14 be b8 65 a7 bf
       1.3080342 1.1293426 -0.14513701 -1.3077917
000030 e8 88 23 41 b5 ea 62 3d 7e a1 b4 3f 47 02 88 3e
       10.220924 0.055399615 1.4111784 0.26564237
000040 8e 90 f3 3f 0b e7 a7 3e 1a 19 05 3f a3 84 d4 bd
       1.902849 0.3279346 0.51991427 -0.10376861
000050 72 2c 92 40 13 87 76 bf af 32 f3 3f ac 1e bb 3f
       4.5679255 -0.96299857 1.8999842 1.4618735
000060 e8 44 85 bf 27 6b 5c 3c 7a 93 66 40 22 e9 4f 3f
       -1.0411654 0.0134532815 3.6027513 0.8121511
000070 fb 81 10 40 75 47 af be 15 06 f9 3e c0 cf 7c 41
       2.2579334 -0.34234205 0.48637453 15.80072
000080 4f 32 98 bf 5e d1 73 be 64 33 11 40 8d e2 56 c0
       -1.1890353 -0.23810336 2.2687616 -3.3575776
000090 06 4b 3a 40 e6 ee 3f c0 41 5c 8e 3f c6 0c 3b c0
       2.910829 -2.9989562 1.1121904 -2.9226546
0000a0 75 ba 5b 3f 61 27 28 3f d1 21 41 bf 50 a2 82 bf
       0.85831386 0.6568509 -0.75442225 -1.0205784
0000b0 df cd 97 bf ac 8d e7 3f b9 95 1b bf 21 2a 49 40
       -1.1859702 1.809011 -0.60775334 3.1431963
0000c0 78 01 76 bf 9e 07 90 3f e5 a0 28 3f 52 00 c7 be
       -0.9609599 1.1252325 0.65870506 -0.38867432
0000d0 89 24 a5 be 6f c6 96 bb 9d 4a 0a 40 3c bc c4 3e
       -0.32254437 -0.004601292 2.160804 0.3842486
0000e0 88 3f d1 3f 8a de 80 bf 81 93 73 3e 95 33 ab be
       1.6347513 -1.0067914 0.23786737 -0.3343779
0000f0 f6 22 9c 3e 0f e5 2e bf 68 67 f1 be 79 ac 90 bf
       0.30495423 -0.68318266 -0.47149205 -1.1302634
000100 be 19 c8 3e fb 55 2e 3e ac af c6 be 43 74 08 be
       0.3908214 0.17024986 -0.38805902 -0.133256
000110 33 54 65 3e 52 c2 36 40 c4 fc 56 3d 8f f3 79 3e
       0.223954 2.8556104 0.05248715 0.24409316
000120 44 d5 0a bf b0 1f bf 3d 94 76 1c 3f c8 30 cb bf
       -0.5423167 0.09332216 0.61118436 -1.5874262
000130 9c 2d 19 3f 0e 3b af 3f c2 15 07 3f 5c 1c 1d 3f
       0.5983522 1.3689897 0.52767575 0.613714
000140 c0 84 e8 be a2 85 82 3e 80 47 81 bf 6a f0 30 3f
       -0.4541378 0.2549258 -1.0099945 0.6911684
000150 1d de bf 3e d8 da 21 3e e8 c2 9d bf 49 f3 e7 3e
       0.37474146 0.15806139 -1.2325106 0.453028
000160 b5 cc e7 3f f4 38 bf be 98 9d 34 3e 7b 3a 54 bd
       1.8109347 -0.3734814 0.17638242 -0.051813584
000170 72 63 9b 3f 91 67 c5 bf 5b a6 b1 3e a2 1e f9 3f
       1.2139723 -1.5422231 0.34697232 1.9462473
000180 49 8b 51 3f ad 97 cc be 81 50 9f be a9 99 98 3f
       0.8185316 -0.3995947 -0.31116107 1.1921893
000190 f0 90 21 bf 77 2c 99 3d 9b 6c bd 3f 23 ab 03 40
       -0.6311178 0.07479184 1.4798769 2.0573204
0001a0 ba 2e 79 c0 09 69 d5 3f 8c 65 a6 3f b2 e5 0a 41
       -3.893477 1.6672679 1.299974 8.681078
0001b0 72 6c f3 bf f9 9b 2a c0 bd 81 d3 3e 36 ad c9 3f
       -1.901747 -2.6657698 0.4130992 1.5755985
0001c0 dc 1b 11 40 22 67 72 3f 8b 2a 89 3e 7b 2b 26 3f
       2.2673254 0.9468862 0.2679027 0.64910096
0001d0 02 c0 51 be 8f 17 db bb 53 68 9d 3c 59 b0 69 be
       -0.20483401 -0.006686158 0.019214785 -0.22821178
0001e0 a3 d1 85 3e 49 bd 6a 3e 1e 41 fa bd 73 b2 0b 3f
       0.26136503 0.22923769 -0.12219451 0.54569167
0001f0 f0 b8 15 3f 03 20 cb bd f1 3e 61 3f 30 ca 44 3e
       0.5848532 -0.09918215 0.87986666 0.19217753
000200 41 e3 95 be 31 a2 fc bd d9 4e 96 bd f4 83 0e bf
       -0.29274943 -0.12335623 -0.07339258 -0.55670094
000210 2f c7 b2 3e 65 6c ef be 84 bc 80 3e 01 fe 03 bf
       0.3491759 -0.46762386 0.25143826 -0.51559454
000220 eb e9 81 be d5 7b a0 3d 11 f4 45 bf 21 0c 54 bf
       -0.25373778 0.07836119 -0.7732554 -0.8283101
000230 fa 95 b1 3d ef ee 12 bf de 1a 07 bf 87 29 d3 be
       0.08671184 -0.57395834 -0.5277537 -0.4124262
000240 80 37 20 3e e7 85 4b 3f 09 61 61 be 1b f2 43 bd
       0.15646172 0.79501194 -0.22009672 -0.04783831
000250 0b 1e 8f 3d 3d ca be be f9 1d be be 8a a1 2e 3e
       0.06988152 -0.3726367 -0.37132242 0.1705381
000260 db cf d6 be 5b 3b 8a 3e 10 50 77 3e ec 7a 5a be
       -0.41955456 0.2699841 0.24151635 -0.21335953
000270 af 8f d2 3d 13 22 9c 3e 57 cd 3f 3d ee d3 da bd
       0.10281312 0.30494747 0.046826687 -0.10684954
000280 2a 9f 08 3e 2d 1b 7e be e2 c3 03 be 6c 25 0e 3f
       0.13341966 -0.24815054 -0.12867692 0.5552585
000290 ad b5 c0 3e 20 6f f7 bd a6 8b 00 bf b9 20 46 bd
       0.37638608 -0.12081742 -0.50213087 -0.04837105
0002a0 c6 a4 98 be fa e5 2d bf 94 37 6a be 55 3e e8 3d
       -0.29813212 -0.6792904 -0.22872764 0.11340014
0002b0 31 0f d2 3c d3 b2 89 3d 88 8b 0d bf 0a 35 56 3e
       0.02564201 0.06723561 -0.5529103 0.2091867
0002c0 0c b4 0f be b4 57 51 3e 26 ca 96 3d 31 83 66 3e
       -0.14033526 0.20443612 0.073627755 0.22510983
0002d0 67 87 ae 3e 22 9c c9 be 10 f9 36 bf 78 cb b3 3f
       0.3408768 -0.39376932 -0.7147379 1.4046469
0002e0 38 d9 5c 3e 3e 9c 08 3e b7 99 07 bf 4d 7e 37 3e
       0.21567237 0.13340852 -0.52968925 0.17919274
0002f0 60 35 6d bf 6c 7a b6 bd 39 63 31 bf 03 bf 5d be
       -0.9265957 -0.08910069 -0.69292027 -0.21654896
000300 e7 97 31 be 09 b5 74 3f 2f 62 a4 be a6 4a bb bf
       -0.17343102 0.9558874 -0.32106158 -1.4632156
000310 88 94 24 3e 30 cc c5 3f 65 c0 91 3f c5 a1 ae bf
       0.16072285 1.5452938 1.1386839 -1.3643118
000320 9d 97 14 c0 23 b4 dc 3e 51 c7 5e 40 83 b8 20 3e
       -2.3217537 0.43106183 3.4809153 0.15695386
000330 26 f1 f5 3e 88 aa 85 3f 45 87 9a 3d 70 17 6e 3f
       0.48035544 1.0442667 0.07545332 0.9300451
000340 e3 05 e0 3e e0 45 00 be 5b a7 13 bd 67 e8 8d 3c
       0.4375449 -0.12526655 -0.036048274 0.017322732
000350 86 dd 55 bd 65 32 a0 3d d9 5b d7 3b b3 10 94 bd
       -0.052213214 0.07822112 0.0065722284 -0.072297476
000360 fd 00 2c 3d 7a d8 c2 3c 36 b8 3e bd 94 ef 13 3e
       0.04199313 0.023784865 -0.046562396 0.1444686
000370 f7 f9 09 bd c4 14 4b be 72 67 a4 3d 21 fe 8f bd
       -0.03368565 -0.1983214 0.08027543 -0.07030893
000380 d8 f4 9f be 1f ca 8b bc 40 87 b7 bd 5d 24 30 bb
       -0.31241488 -0.017064152 -0.08961344 -0.0026877143
000390 29 c8 58 3e 2e 0d 28 bf 12 33 34 3f 0c 35 22 be
       0.21170105 -0.6564511 0.7039043 -0.15840548
0003a0 a3 9e ab bf cf f3 43 3f 78 8f 0e bf 77 8e 4b bf
       -1.3407787 0.765439 -0.55687666 -0.7951426
0003b0 01 e6 24 bf 8e 2e 77 3f 2f aa 4c bf 42 f4 74 bf
       -0.6441346 0.9655541 -0.7994718 -0.9568521
0003c0 a9 75 eb 40 4b 62 28 3b 4b eb fa 3e 4f 57 73 be
       7.358113 0.0025693353 0.4900764 -0.23763774
0003d0 49 be 33 be 75 fa 7a 3e f1 76 51 bf d3 9f ad bd
       -0.17553057 0.24509604 -0.81822115 -0.0847775
0003e0 d4 cb a6 3e 56 7e 29 bf 04 05 d6 bf 5c a0 38 be
       0.32577384 -0.662084 -1.6720281 -0.18029922
0003f0 3c e1 17 3e f7 ad e8 be 17 6b ff bf ec e8 25 bf
       0.14832014 -0.45445225 -1.9954556 -0.64808536

fc1.bias f4 [64]
000000 16 58 0a c2 fa d9 4c c2 8d 7e be c1 24 b7 47 c1
       -34.58602 -51.212868 -23.811792 -12.482212
000010 54 e0 86 c1 24 2a 12 c2 a9 d5 d3 c0 67 e2 0a c1
       -16.859535 -36.541153 -6.6198316 -8.680274
000020 82 4b ab c0 b7 4a ed c0 a6 65 a3 c1 52 23 11 c0
       -5.3529673 -7.4153705 -20.424633 -2.2677808
000030 67 1f a4 c1 58 0f 79 c1 c1 da b3 c0 7c 71 19 c1
       -20.515333 -15.566246 -5.6204534 -9.590206
000040 98 74 ba c1 ec 0b 5e c1 a2 cc 6a c1 da b4 72 c1
       -23.30693 -13.877911 -14.674959 -15.169153
000050 93 73 9c c1 11 be dc c1 cb 82 8a c1 b7 53 98 c0
       -19.556433 -27.592806 -17.313864 -4.760219
000060 e4 81 cc c1 7f 0d 3b c1 c9 d6 21 c1 de 86 14 c2
       -25.563423 -11.690795 -10.114938 -37.131706
000070 ff e5 d0 c1 f8 45 82 c1 6d 03 a7 c1 e6 ce 29 c1
       -26.112303 -16.284164 -20.876673 -10.613012
000080 3b 61 66 c1 d6 81 92 c1 76 4e 1f c1 fc 2c 47 c0
       -14.398738 -18.313396 -9.9566555 -3.1121206
000090 61 51 0a c1 b0 4f 0c c2 7c 94 9f c0 88 2d 4c c1
       -8.644868 -35.07782 -4.9868755 -12.761116
0000a0 88 f3 e3 c1 dd ca 7a c2 6c 86 87 c1 62 99 9f c2
       -28.493912 -62.69811 -16.940636 -79.799576
0000b0 d3 7b 25 c2 55 d4 64 c0 21 cc 82 c0 70 40 e7 c2
       -41.370922 -3.5754597 -4.087418 -115.625854
0000c0 ec a7 e8 c1 28 63 b3 c0 c4 1b c7 c0 57 18 38 c1
       -29.081993 -5.605854 -6.2221394 -11.505942
0000d0 56 93 53 c3 77 d9 40 40 9e 3b 0f c1 9c 2e 50 c1
       -211.57553 3.013273 -8.952055 -13.011379
0000e0 bf 0e 9f c1 26 95 92 c1 9e 59 05 c1 a5 22 5c c0
       -19.8822 -18.322826 -8.334379 -3.4396145
0000f0 00 96 e6 c0 07 82 68 c0 a2 f6 2b c2 87 08 a9 c0
       -7.2058105 -3.6329362 -42.990852 -5.282291

fc2.weight f4 [64, 64]
000000 14 b2 0e be 62 bd 81 bd 9a de f3 bd f4 bf 9e bd
       -0.13935119 -0.0633495 -0.11907692 -0.07751456
000010 48 59 8c be f2 92 df bf 58 cb a6 bd 18 a3 d8 bd
       -0.27411866 -1.7466719 -0.081442535 -0.10577983
000020 4a 5e 91 be fe 87 68 be 2d 1b 25 be dc 05 49 be
       -0.2839225 -0.22708127 -0.16123648 -0.19631141
000030 e1 c9 bc bf 48 72 bd bf ec c7 bd 3d e8 58 aa be
       -1.4749109 -1.4800501 0.09266648 -0.33270955
000040 0b 6f aa bf 30 dd 05 bd dc 2a b9 bf d0 51 9b bd
       -1.3315138 -0.032681644 -1.4466205 -0.07583964
000050 68 28 c6 bc 30 eb 6c bd 97 ed b7 bf 97 3c cb be
       -0.02418919 -0.05784148 -1.4369382 -0.39694664
000060 78 f7 35 3d a7 86 93 be 5a de 2b be 38 a2 69 bf
       0.044425458 -0.2881367 -0.16784039 -0.9126315
000070 d4 fa c4 bd d5 10 bb be 40 14 5f bc 1e e8 94 be
       -0.09618154 -0.3653628 -0.013615668 -0.2908334
000080 8b 3b a6 be 40 51 e6 3d f6 d8 f7 bd a0 9c bd bc
       -0.32467303 0.11245966 -0.12101929 -0.023145974
000090 89 e2 50 be 0f d5 a9 bf 4a 05 c0 be f0 bc 6d bd
       -0.20398916 -1.3268145 -0.37504035 -0.058041513
0000a0 5b 35 8e be a0 78 cb bf 14 d8 84 be ff 8d 4a be
       -0.27775082 -1.5896187 -0.25946105 -0.1978073
0000b0 8f 45 91 bf 7b ef 9b be 24 fb 57 3d e9 95 33 c0
       -1.1349353 -0.30456147 0.05272974 -2.8060248
0000c0 99 a6 dd 3c 10 e7 f4 bd 4b b4 40 be fe 9e 86 be
       0.027056979 -0.11958134 -0.18818776 -0.26293176
0000d0 78 ca f3 bf 33 6a c3 bf 44 2e f2 bd 82 26 ac bd
       -1.9046164 -1.5266784 -0.11825231 -0.08405782
0000e0 1f 03 b4 bf b3 91 c5 be 98 be 8b bc d9 84 88 be
       -1.4063452 -0.38587722 -0.017058656 -0.26663855
0000f0 a1 9a 80 be 70 7a f2 bc 2c 06 8a bd 00 e0 5c b9
       -0.25117972 -0.029599398 -0.067394584 -0.00021064281
000100 7e 6b 91 3d 91 f8 8e bf 28 9a 75 3f 73 41 14 be
       0.07100581 -1.1169606 0.9593835 -0.14478092
000110 88 15 b2 3e fc c5 69 3b d1 93 3b 3d 57 fe f7 bb
       0.34782052 0.0035670986 0.045795266 -0.0075681615
000120 60 d8 84 be c2 8f 01 3f 25 76 70 3f 79 e9 6d bc
       -0.2594633 0.5060998 0.93930274 -0.014520996
000130 84 30 aa 3e d0 50 a9 bd 25 be a4 bd 25 a6 88 3c
       0.3324014 -0.08267367 -0.0804408 0.016680786
000140 8e 50 7b be 2d e7 15 3f ab 7e 4c be e5 f4 e6 be
       -0.24542448 0.5855587 -0.19970195 -0.45108715
000150 88 44 34 3e dc ce a1 3e 54 18 b9 3c 40 9a a0 bd
       0.17604268 0.31603134 0.022594608 -0.07841921
000160 3f ed 71 bb 38 9e c4 bd bb de b3 be 12 8e 1e bf
       -0.0036915091 -0.0960049 -0.35130867 -0.6193553
000170 a9 b7 b4 3e 51 6b d2 3e 08 04 db be e5 b4 48 3e
       0.35296372 0.410975 -0.42776513 0.19600256
000180 fd 13 18 3f b5 9f 01 bc b0 08 41 3e 67 c4 f2 bd
       0.594055 -0.007911612 0.1885097 -0.11853867
000190 27 bb c2 be 7b 3b 53 bf 27 90 ac bd 5d 10 ef 3e
       -0.3803341 -0.82512635 -0.084259324 0.46692172
0001a0 c0 72 d6 3e 70 17 5c bf a8 e0 75 bf 24 e4 ac bf
       0.41884422 -0.8597326 -0.96045923 -1.3507123
0001b0 a5 f0 8f bf c5 e1 88 bb c9 33 03 3e 15 9b cf bf
       -1.1245314 -0.0041773045 0.12812723 -1.6219202
0001c0 8c c2 74 3f d3 f1 b8 3d 44 d9 7c 3d 50 64 1d 3f
       0.95609355 0.09030499 0.06173064 0.6148119
0001d0 da 52 12 c0 97 e8 a9 3e 84 c7 bf bd cf 37 08 3e
       -2.2863069 0.33185264 -0.093642265 0.1330254
0001e0 99 df 6c 3e 89 3d d9 3e 35 e9 be bd 6a c9 3c be
       0.2313217 0.4242976 -0.093218245 -0.18436208
0001f0 28 a2 b7 3d b7 de 76 3d f0 2c 93 3f 6e c1 f2 bd
       0.08966476 0.06027099 1.1498089 -0.118533
000200 3c c6 f0 be 02 1b 00 c0 22 8e 6f be da ee d1 be
       -0.4702624 -2.0016484 -0.23394063 -0.41002542
000210 6b 93 b6 bf c5 3b f2 be 20 26 ce be 47 18 12 bf
       -1.4263738 -0.47311226 -0.40263462 -0.57068294
000220 f6 a3 81 be 6a 9f 84 3c 51 9c 12 bf 08 01 57 bd
       -0.25320405 0.016189296 -0.5726977 -0.052491218
000230 90 a0 ba be 48 ba 08 bf ed 0a 10 be bf 0a 61 be
       -0.36450624 -0.5340924 -0.14066668 -0.21976756
000240 b8 b3 f6 be d9 f5 5a bc 52 83 17 bf 7c 68 ae bc
       -0.4818399 -0.013364279 -0.59184754 -0.021290056
000250 10 ba eb be 40 af b4 be c5 9c 10 be c8 da b0 bd
       -0.46040392 -0.35289955 -0.14122303 -0.08635479
000260 b4 da ed be e6 f0 06 be bd 24 8d bc a9 7c c6 be
       -0.4645592 -0.13177833 -0.017229432 -0.38766983
000270 44 22 d2 be f0 b3 b0 bc 49 19 70 bd b7 a0 16 be
       -0.41041768 -0.021570176 -0.058617864 -0.14709745
000280 d8 f5 9d 3e 28 20 9a be 6e c8 21 bf f6 41 2d bd
       0.30851626 -0.30102658 -0.63196456 -0.042299233
000290 84 49 2e bd d6 86 fe be 3f f8 56 be f9 ba c4 be
       -0.04255058 -0.49712247 -0.20993136 -0.384239
0002a0 01 0d d8 bf 5a 84 03 be 33 88 f0 3d a4 69 d0 be
       -1.6878968 -0.12843457 0.11744728 -0.40705597
0002b0 73 27 1b 3a 39 23 e9 bd 8a 78 9b bc 84 aa 76 be
       0.0005918659 -0.11383671 -0.018978376 -0.24088484
0002c0 f9 bb d5 bd 87 ed 1b bd 60 a0 5a be 16 1f 87 be
       -0.104362436 -0.03806832 -0.2135024 -0.26390904
0002d0 57 9c b3 be 9b 2a 8b be c5 40 b1 bf 65 8f 0d bf
       -0.35080215 -0.27180943 -1.3847891 -0.5529693
0002e0 c6 34 e5 bf e0 f3 9f be 50 4c 07 bf 22 a3 02 be
       -1.790673 -0.3124075 -0.5285082 -0.12757543
0002f0 93 c0 5f be ab 67 94 be 0e 7f 4a be 7b 99 ee be
       -0.21850805 -0.28985342 -0.1977503 -0.4660147
000300 5c dd 38 c0 da 33 c9 bf df e0 5c be 1b df a7 be
       -2.8885107 -1.5718949 -0.21570157 -0.32787403
000310 dc 86 bb be be d6 28 c0 12 a8 e2 be c5 d1 4b be
       -0.36626327 -2.6381068 -0.44268852 -0.1990424
000320 98 0a 31 bd e3 f3 58 be 63 af 49 bd 88 ea a3 be
       -0.043222994 -0.21186785 -0.049239527 -0.3201487
000330 1d 64 a9 bf 62 90 fe bd ad dc 29 bc 7d 88 75 bf
       -1.3233677 -0.124298826 -0.010367555 -0.9591139
000340 ce 57 30 bf 29 cb 91 be 57 35 8a be 80 d1 3b bf
       -0.6888398 -0.2847531 -0.2699382 -0.73366547
000350 3b fb fe 3c 56 55 2f bf b8 d5 47 be fa b4 c7 be
       0.031125655 -0.6848959 -0.19515121 -0.39005262
000360 18 f1 83 bb 40 ad cb bd 57 96 79 bf e9 ae 8c be
       -0.0040265433 -0.09945154 -0.97495025 -0.27477196
000370 f9 80 28 bf 12 ae 82 bd bf b5 99 be de e0 0e be
       -0.65821797 -0.063808575 -0.30021474 -0.13952968
000380 33 d6 6b be 7b a8 82 be 85 88 1a bf 5b 2c 15 bf
       -0.2303093 -0.25519165 -0.6036456 -0.58270806
000390 0b 09 c1 be ef 50 97 3c a2 97 bf 3d b8 18 73 be
       -0.37702212 0.01847121 0.093550935 -0.23739898
0003a0 1a 37 ef be 4d b9 3c bf 33 9e ee be ca fd df bf
       -0.46721727 -0.73720247 -0.4660507 -1.7499325
0003b0 11 1a 27 c0 ff 8d b8 3e de d4 8a 3e c4 c9 7d bf
       -2.610966 0.36045834 0.2711553 -0.99135995
0003c0 b4 49 6a bf 70 62 0c bf 27 88 e8 be a2 5a 15 bf
       -0.9151871 -0.54837704 -0.45416376 -0.5834142
0003d0 5a ea 4d be 6d f9 06 c0 0d dd c8 be 78 26 6f be
       -0.2010893 -2.1089737 -0.39231148 -0.23354518
0003e0 22 9c 08 be 24 ce 6d be 8b 5b 23 bf 62 94 37 be
       -0.1334081 -0.23223168 -0.6381156 -0.17927697
0003f0 2a 76 d4 be 5c 27 22 be 07 15 bb be 18 f7 31 be
       -0.41496402 -0.15835327 -0.3653948 -0.17379415

fc2.bias f4 [64]
000000 6b 3d 8f c0 70 de fe 3f 5d 4c 00 c0 74 1f b0 c0
       -4.4762473 1.9911633 -2.0046608 -5.5038395
000010 e6 75 2a c0 2e ef 89 c0 98 77 f9 c0 de 20 a9 bf
       -2.663446 -4.3104467 -7.795849 -1.3213155
000020 a4 e3 63 c0 fc 1f 89 c0 f2 c8 6c c0 83 e4 33 c1
       -3.560769 -4.2851543 -3.6997647 -11.243289
000030 4a bf 3e c0 c0 d3 a9 c0 85 c9 3d c0 d4 71 28 c0
       -2.9804254 -5.3070984 -2.9654248 -2.6319475
000040 b8 4e 16 c1 60 78 e7 bf ad 08 d2 c0 11 39 e0 bf
       -9.394218 -1.808361 -6.563559 -1.7517415
000050 3f 45 12 c1 8c ed 1d c0 7d 94 b3 c0 99 fd 68 bf
       -9.141906 -2.4676237 -5.611876 -0.9101196
000060 25 2f e1 bf 01 a9 2b c1 c3 e4 81 c0 b7 62 8d be
       -1.7592512 -10.728761 -4.059175 -0.27614376
000070 39 ee 0d c0 d1 f4 14 c1 a9 07 2d c0 7b 49 3e c1
       -2.217665 -9.30977 -2.7035925 -11.89294
000080 d0 57 5d c0 03 1c 17 c0 7e 76 21 c1 26 1b 84 c0
       -3.4584846 -2.3610847 -10.091429 -4.128314
000090 d7 17 74 c0 8e 69 45 c0 58 b4 51 c0 2d d7 1c c1
       -3.813955 -3.0845675 -3.2766323 -9.802533
0000a0 d2 3a a8 be d3 cd 97 bf 13 74 29 be 9a 90 e0 be
       -0.32857376 -1.1859688 -0.16548185 -0.43860322
0000b0 34 60 a7 c0 c3 5a 35 c0 65 66 4a c0 31 46 54 c0
       -5.2304935 -2.8336647 -3.1624997 -3.3167841
0000c0 7e fd 1f bf 49 72 65 c0 7f de 24 c1 ed 8b 3b c0
       -0.62496173 -3.5851004 -10.30432 -2.9304154
0000d0 cf 87 e3 bf 76 d2 00 c1 ff cd af c0 9f 62 fa bf
       -1.777582 -8.051382 -5.493896 -1.9561347
0000e0 ad 0c 82 c0 06 e1 da c0 e4 5f ca c0 a1 75 16 be
       -4.0640473 -6.8399687 -6.3242054 -0.1469331
0000f0 86 a6 62 be ee 2c 56 c0 48 b2 94 c0 62 63 10 c0
       -0.22133836 -3.3464923 -4.646763 -2.2560658

fc3.weight f4 [1, 64]
000000 c8 02 c6 be 46 2c f8 be 36 9d 5e bf b4 ac 2d bf
       -0.38673997 -0.48471278 -0.86958635 -0.6784165
000010 c7 92 ad 3f e5 91 31 3f 4d df c1 bf 13 84 05 bf
       1.3560418 0.6936324 -1.5146271 -0.52154654
000020 96 f7 7f 3e 0e 8f 8d bf eb 0b a8 3e c9 e7 06 3f
       0.2499679 -1.1059282 0.32821593 0.52697426
000030 9b 13 47 bf f8 86 9e 3f 26 a2 60 3f f1 d1 0a bf
       -0.7776429 1.2384939 0.8774742 -0.54226595
000040 46 97 aa be f8 e3 b7 3f 17 61 6f 3e d0 58 d3 bf
       -0.33318537 1.4366446 0.2337688 -1.6511478
000050 11 e7 45 3f cd 9c d3 be e0 7c ed 3e 47 a4 1a be
       0.77305704 -0.41330567 0.46384335 -0.1510173
000060 67 13 5e be 5d b6 90 3f 42 22 3a bf 66 20 ea bc
       -0.21687089 1.1305653 -0.72708523 -0.028579902
000070 54 cf c3 bf a7 81 bc bf bc 8a 05 3e 30 e6 f1 be
       -1.5297647 -1.4727067 0.13041204 -0.47245932
000080 0a 32 7b 3f 13 68 54 be 81 c6 4c be ac 74 be bd
       0.9812323 -0.20742826 -0.19997598 -0.09299597
000090 9f f7 15 3f e8 98 a7 bf d1 08 13 bf 8b 87 86 be
       0.58580965 -1.3093538 -0.5743533 -0.26275286
0000a0 ba 9b 3f be 7e 71 51 bd 9f 31 49 be 15 00 c2 bd
       -0.18711749 -0.051133625 -0.19647835 -0.09472672
0000b0 59 d7 16 3f 79 18 a8 3f 69 f6 09 3f 91 88 93 3f
       0.58922344 1.3132468 0.5389162 1.1526052
0000c0 19 b0 35 be 6a 14 4f be 79 79 a6 3f 4d 1b 99 bf
       -0.17742957 -0.20222631 1.300582 -1.1961457
0000d0 87 42 bd bd 91 71 4b bf fe 86 10 bf 96 83 c2 bf
       -0.09241205 -0.79470164 -0.5645598 -1.5196407
0000e0 97 d8 b8 3f 44 29 38 3e 10 2d a1 bf cd ec 46 bc
       1.4441098 0.17984492 -1.2591877 -0.012141419
0000f0 4f 13 d1 3d 29 a3 31 bf ed 21 e0 3c 24 a0 a7 bf
       0.10208761 -0.6938959 0.027359927 -1.3095746
