trained_models_1L_4/power_issue_model.pth (torch, 24359 bytes, 5 tensors)

fc1.weight f4 [64, 19]
000000 77 79 c8 be 1d 64 20 bf 1e 33 85 3e bd 15 06 3f
       -0.3915517 -0.6265276 0.26015562 0.5237692
000010 d7 a1 7d be 80 32 62 3e 4f 69 b2 be 03 fb 59 3e
       -0.24768768 0.22089577 -0.3484597 0.2128716
000020 1a e5 07 3f 01 93 82 be 3b 95 32 be 9a a0 68 be
       0.53083956 -0.2550278 -0.1743974 -0.22717515
000030 5b 69 81 3e d7 41 ea 3e 92 f2 56 3d af 05 15 be
       0.25275692 0.45753357 0.052477427 -0.1455295
000040 e1 a7 80 3f b5 d4 b8 be bc 82 01 3f ab cb 01 bf
       1.0051233 -0.36099783 0.5059011 -0.507014
000050 18 b5 25 3f a0 ff d5 3d 25 4b 4c bf 4c f9 f0 be
       0.6472945 0.10449147 -0.7980216 -0.47065198
000060 b8 f4 64 3d a9 c3 80 3f 38 a9 41 bf 84 ad 2e be
       0.055897444 1.0059711 -0.7564883 -0.17058378
000070 9b cf 62 be 00 0b d8 c2 0a 7f 7f 40 66 f3 d7 3d
       -0.22149508 -108.021484 3.9921288 0.105444714
000080 5c f2 98 be ab 19 20 3f 73 2d 2d 3f 07 e3 cf 3f
       -0.29872406 0.62539166 0.67647475 1.6241158
000090 b7 7e 74 3f 34 9c 5f 3f a5 45 c5 bf ee 93 2b bf
       0.9550585 0.8734772 -1.5411879 -0.670226
0000a0 6e 17 45 be 81 eb 0b 3f 83 45 89 3e b5 7c 1a 3f
       -0.19247219 0.54656225 0.26810846 0.6034654
0000b0 24 1b 60 bf bd 4f f2 3d 56 65 cf 3d d7 30 ef bf
       -0.87541413 0.11831615 0.1012675 -1.868678
0000c0 3e ea 9f bf 76 19 89 be 8e 71 c2 3f 9f 75 73 3e
       -1.249336 -0.26777238 1.5190904 0.23775338
0000d0 27 cb aa 3e 30 60 36 be fb 57 c5 3f 85 37 32 bf
       0.33358118 -0.1781013 1.5417475 -0.69615966
0000e0 3f ac a5 be cc b2 7a 3f 2c ba 95 bf ef 7c c0 3e
       -0.32357976 0.9792907 -1.169744 0.37595317
0000f0 80 39 ea be 30 5b af 3e 7d 0b 48 3f 86 4a e1 3f
       -0.45746994 0.34249258 0.7814253 1.7600868
000100 ae b2 ec be d2 6c 6a be 43 70 26 3f 84 5f ab 40
       -0.46230072 -0.22893074 0.6501505 5.3554096
000110 c9 f2 83 3d 92 5d eb 3e 39 8b 52 be 13 c8 0d bf
       0.06442792 0.45969826 -0.20560922 -0.55383414
000120 c0 7b 06 bf 23 96 b6 3e 0c 1e 04 3f 8f 30 20 3f
       -0.5253258 0.3566142 0.5160835 0.62574095
000130 a2 a2 ba bd e3 24 55 bf 47 01 1d 3e ae 33 09 be
       -0.09113051 -0.8325941 0.15332519 -0.1339862
000140 f1 e6 10 be 8f 29 6c bf 37 45 50 be 5b 70 3a bf
       -0.14150597 -0.92250913 -0.20338903 -0.7282769
000150 eb 36 d4 bd e7 d8 18 3f f3 44 88 3e 72 d9 7f bc
       -0.10362037 0.59705967 0.26615104 -0.015615808
000160 c2 4d e2 3e 1d 09 a7 be 32 5c 89 3e 94 ae 11 3f
       0.4419995 -0.3262414 0.26828152 0.5690701
000170 5e f6 18 3f c1 60 6f 3e 53 29 97 3f a0 05 34 40
       0.59750926 0.23376752 1.1809486 2.8128433
000180 8a 68 d3 3e 1a e3 d6 be c7 9d 0d 3f 6a ad d0 be
       0.41290694 -0.4197014 0.55318874 -0.40757304
000190 4b 49 0b 3f 7b 35 ee 3e c4 a2 ff be 5a 4c 72 3f
       0.5440871 0.46525177 -0.49928868 0.94647753
0001a0 d7 c2 de be 76 67 22 3e 1e 83 d6 3e d2 f2 4a 3e
       -0.43508026 0.1585978 0.4189691 0.19819191
0001b0 59 7f 14 3f 18 72 7e 3e 11 18 8e be e2 1c 3d bf
       0.5800682 0.24848211 -0.27752736 -0.73872197
0001c0 1c 67 c4 3d 78 c2 ad bf 94 d3 e1 bb e0 8d 79 bf
       0.09589979 -1.3574972 -0.006891677 -0.9748211
0001d0 1b 07 d0 3e 07 38 54 3e bc 11 f0 bf 6f d3 be be
       0.4063042 0.20724498 -1.8755412 -0.37270686
0001e0 3b 0a 2f 3f c4 d7 8f 3e c2 fe c1 3e e8 2d 61 3f
       0.68374985 0.28094304 0.37889677 0.8796067
0001f0 f3 29 9d c0 c7 e8 19 c0 42 21 7d bf d9 3f e0 bf
       -4.9113708 -2.4048326 -0.9887887 -1.7519485
000200 d1 4c 9c be 42 2a 9f 3e b5 97 c4 bf 0e 10 a4 3f
       -0.30527356 0.31086928 -1.5358797 1.28174
000210 4a 6b 45 40 d1 88 33 bf 43 1e ff 3e a2 8a 12 bf
       3.0846734 -0.7013064 0.49827775 -0.57242787
000220 8a 3b 23 3e b7 ad ba 3e db 99 2d be 17 e8 75 3f
       0.15940681 0.3646066 -0.16953222 0.96057266
000230 b0 8b 4d 3f f8 d3 9d 3b 93 80 2d be 0a 65 19 40
       0.8029127 0.0048165284 -0.16943578 2.396792
000240 7a fc 72 bf 45 82 6e be 02 f6 12 be 77 e1 fc bf
       -0.949165 -0.23291881 -0.14351657 -1.9756306
000250 aa 8d ce 3f 1a ce 3d 3f 3b ce 64 bd a8 4e b0 3e
       1.6136982 0.7414261 -0.05586074 0.3443501
000260 c8 64 b5 3d dc f4 69 be 83 ff d3 be 10 07 58 3d
       0.08857113 -0.22847313 -0.41405877 0.05274111
000270 63 84 bd bd 79 71 c0 bd e6 49 b7 bd e8 32 1e 3f
       -0.092537664 -0.09396643 -0.08949642 0.61796427
000280 00 24 1d be 8e ec 14 3c 2f 64 83 3e f6 98 91 bd
       -0.15345764 0.009089602 0.25662372 -0.07109253
000290 fd d0 c8 bd 4e ac 62 3d be ab 3a 3e e3 e3 6b be
       -0.09805486 0.055340104 0.18229577 -0.2303615
0002a0 53 17 50 3e 73 1e 08 bd 83 d0 3b 3f 3d 30 36 be
       0.20321397 -0.033232164 0.7336504 -0.17791839
0002b0 fb a5 25 40 b9 44 9c 3e 4b 40 8e bd e2 60 e1 3d
       2.5882556 0.3052118 -0.06945857 0.11004807
0002c0 e1 de 02 3f b7 3c 7c 3e 83 41 93 be ce a2 ab be
       0.51121336 0.24632536 -0.2876092 -0.33522648
0002d0 0c cf d9 be 76 83 af 3f 62 11 90 3e d0 62 db 3f
       -0.42540777 1.3711994 0.28138262 1.713953
0002e0 2c 71 78 be 0c 7a 6c bf 4d f7 08 bf fe bb 2b bf
       -0.24261922 -0.9237373 -0.5350235 -0.6708373
0002f0 84 60 3d 3e 50 fe ee 3e 90 9a 06 bf 63 c8 1c 40
       0.18493849 0.466784 -0.52579594 2.4497306
000300 2d 18 54 3f 96 a1 24 c0 93 2f 2a c0 9a 6f 77 bf
       0.8284939 -2.5723624 -2.6591537 -0.96654665
000310 81 1f 27 3f ce 62 d0 be 83 c9 11 3f 30 6c ba 3f
       0.65282446 -0.40700382 0.5694811 1.4564266
000320 3c db cc be 2d 28 04 40 76 8e 73 3e f8 75 a0 bf
       -0.40011013 2.0649521 0.23784813 -1.2536001
000330 aa fc 2f 3f 9d 7a 04 bf ab 59 5a 40 f1 93 8a 3f
       0.6874491 -0.51749593 3.411723 1.0826398
000340 bf 30 c2 3f ec 66 bb 3e d9 30 78 be 00 c0 01 3f
       1.5171126 0.3660196 -0.24237384 0.50683594
000350 0b f2 92 be 6d dc 03 bf 01 24 99 bf 68 19 d0 be
       -0.2870029 -0.5150822 -1.1964113 -0.40644383
000360 e9 96 6f 3f 90 b5 e3 3c 2b 47 48 3f 3c e3 d5 42
       0.93589646 0.027796537 0.78233594 106.94382
000370 16 77 47 40 c6 f6 41 bf c9 f5 03 bf d1 48 67 3f
       3.1166434 -0.7576717 -0.51546913 0.90345484
000380 13 ac 81 3f cd 60 22 3f 90 d8 bc 3e e8 da 70 3f
       1.0130638 0.63428956 0.36883974 0.94084024
000390 d7 66 ac bf 17 f7 a6 3e 42 4d 70 bf 30 9a 43 3f
       -1.3468884 0.3261039 -0.93867886 0.76407146
0003a0 35 65 06 be 73 9c ad 3d 60 df 8e bf c8 0e 51 3f
       -0.13124545 0.08477106 -1.1161919 0.8166318
0003b0 48 9c 6f bf de 53 6b 3e 4f 80 98 3f 6a a0 93 bf
       -0.9359784 0.22981212 1.1914157 -1.153333
0003c0 45 2b 4e bf f0 e3 2e bf 5e 5f 8a bf 8f 12 29 3f
       -0.80534774 -0.68316555 -1.0810354 0.66043943
0003d0 96 7e a7 3f 6e f3 35 3e 2f 35 f0 be 30 20 cd bd
       1.3085506 0.17768642 -0.46915576 -0.10015905
0003e0 e6 c9 a5 bd 43 09 b7 3d 79 0d 25 bf f7 ff a5 3f
       -0.0809515 0.089373134 -0.6447368 1.2968739
0003f0 e1 f9 89 bf 81 49 9e 3f bb f1 2e 3f cc 9b 40 3f
       -1.0779382 1.2366182 0.683376 0.7523773

fc1.bias f4 [64]
000000 2b ac 04 c1 0a a6 30 c2 2a cd 89 c1 4e de cc c1
       -8.292033 -44.162148 -17.225178 -25.608547
000010 30 07 6a c1 0a e1 9f c1 11 87 f0 c1 77 f6 80 c1
       -14.626755 -19.984882 -30.06595 -16.120344
000020 86 f2 99 c0 71 91 8d c1 12 59 06 c2 f6 85 3b c2
       -4.810855 -17.696016 -33.586983 -46.88082
000030 6d 66 68 c1 78 e5 a0 c1 e1 f6 2b c1 b1 2e 9a c1
       -14.525006 -20.112045 -10.747773 -19.272799
000040 fc e5 73 c0 f7 e9 4a c1 30 f3 c9 c0 bc ea 34 c1
       -3.8109121 -12.68212 -6.310936 -11.307308
000050 ae df ae c1 a1 68 d7 c0 d5 60 b2 c0 d4 21 af c1
       -21.859219 -6.731522 -5.5743203 -21.891518
000060 12 bd 4d c1 fb db 18 c2 f4 62 97 c0 32 82 c3 c0
       -12.85866 -38.214825 -4.7308292 -6.109643
000070 ee 52 9c c0 c9 15 49 c1 69 60 db c0 9f 49 d6 c1
       -4.8851233 -12.567819 -6.855519 -26.785948
000080 44 20 6c c1 00 d9 2d c1 5c 2f ad c0 84 b8 59 c1
       -14.757877 -10.8654785 -5.412031 -13.607548
000090 3c 88 9d c1 36 8b 21 c1 6f d0 3f c1 85 97 6e c1
       -19.69152 -10.096487 -11.988387 -14.911992
0000a0 8c 6e d4 c1 40 05 1a c1 10 62 97 c1 1e 7c 51 c1
       -26.553978 -9.626282 -18.922882 -13.092802
0000b0 78 f0 92 c1 2f 17 2b c1 e9 e9 65 c1 97 26 ab c1
       -18.367416 -10.69316 -14.369607 -21.393843
0000c0 8c bf a0 c1 31 eb 97 c1 62 4c 49 c1 88 e3 c7 c0
       -20.093529 -18.98984 -12.581148 -6.246525
0000d0 fb 53 48 c1 62 c1 05 c1 ea f4 04 c1 d7 37 3e c1
       -12.520503 -8.359713 -8.309793 -11.888633
0000e0 c9 3f 8e c1 4f a1 42 c1 fd 14 06 c1 82 ae b8 c1
       -17.781145 -12.164382 -8.380124 -23.085209
0000f0 9c 47 dd c0 0a 11 d3 c1 bc 90 c4 c1 34 68 22 c1
       -6.9149914 -26.38332 -24.570671 -10.15044

fc2.weight f4 [64, 64]
000000 f5 67 a1 be 0c 72 39 bf 8c 08 b2 be 10 2c 48 bf
       -0.31524625 -0.72439647 -0.34772146 -0.78192234
000010 26 6b 97 be 8d 0b c5 bf e3 b3 95 3b a3 5f df be
       -0.29573935 -1.539415 0.0045685633 -0.43627653
000020 a8 09 da be 6c ee 35 bf c1 64 f5 be 33 19 e1 bf
       -0.42585492 -0.7106693 -0.47928432 -1.7585815
000030 db 9d 7c be 03 9d 6b be 56 60 e1 be ce 3c e5 be
       -0.24669592 -0.23009114 -0.4401881 -0.44772953
000040 f6 7b 97 be 0a 89 bf bf 12 08 42 be 54 8f b0 be
       -0.29586762 -1.4963696 -0.18948391 -0.3448435
000050 eb 9c b7 3d 3a 46 b7 be 35 95 b9 be 4d 20 cc be
       0.089654766 -0.35795766 -0.36246648 -0.39868394
000060 99 39 e4 be f0 ff 00 bf a4 f8 15 be bc 82 93 bf
       -0.44575194 -0.5039053 -0.1464563 -1.1524272
000070 c1 5c 7c 3f 53 7a d0 be 2d 08 06 bf 36 66 9d be
       0.9857903 -0.40718326 -0.52356225 -0.30742043
000080 52 c0 89 be 1b 95 cb be af c2 ee be 4a bd dd bf
       -0.2690454 -0.39762196 -0.46632907 -1.7323391
000090 38 ed 7b be 48 09 8d be 8b ec db be c9 49 5d 3e
       -0.2460221 -0.27546144 -0.42953905 0.21610178
0000a0 23 f8 a3 bf e2 07 a6 be 1d 0c c7 bf f5 1a 87 be
       -1.28101 -0.3242789 -1.5550572 -0.26387754
0000b0 11 bc 91 bd f6 99 91 be 73 c3 91 bf 75 1f b6 be
       -0.07115949 -0.28437775 -1.1387771 -0.35570875
0000c0 97 b5 e7 be 6e d9 aa be d5 89 89 be 40 7d ec be
       -0.4525573 -0.3336901 -0.2686297 -0.46189308
0000d0 01 90 d5 bf 13 c6 e4 be 3c bf df bf d3 74 f5 bf
       -1.6684572 -0.4468237 -1.7480235 -1.9176277
0000e0 50 71 e0 bf 44 6a 9e bf 5f 55 de be 40 73 07 bf
       -1.753458 -1.237618 -0.43424508 -0.5291023
0000f0 f9 7a 9e be bf 26 f2 bf d6 9d e2 bf 31 83 a2 bf
       -0.30953196 -1.8918074 -1.7704418 -1.2696286
000100 3e 1a 86 bf 11 26 17 c0 1c b4 6f be b8 5b 72 bf
       -1.0476758 -2.3616984 -0.2340855 -0.946712
000110 0e fa 0c bf 9f 39 87 be c1 dc 9b be 6d 9e a9 be
       -0.55069053 -0.2641115 -0.3044186 -0.33128682
000120 ea 82 da be d6 2d fd bf de 63 d9 bf 7b 1c da bf
       -0.42678005 -1.9779613 -1.6983602 -1.7039942
000130 39 6e bc be 51 a8 1a c0 1a da b1 be da 3f 27 c0
       -0.36802843 -2.4165232 -0.3473671 -2.6132722
000140 a3 38 eb be 0f a0 79 3d bb f2 b0 3d 77 82 2d be
       -0.45941648 0.06094366 0.08640047 -0.169443
000150 0b 7a 7f bf 23 a2 be bf 05 ab ef bf ab 56 03 bf
       -0.997956 -1.489323 -1.8724066 -0.5130412
000160 ec 3d 8c bf 6f 49 11 bf 4c 67 d0 3d 65 eb e2 bd
       -1.0956397 -0.56752676 0.10175952 -0.11080054
000170 30 a9 fe be f4 d7 de be 2c 98 a2 bf 14 a6 e3 bf
       -0.49738455 -0.43524134 -1.2702689 -1.7785058
000180 c7 3d 05 bf 04 09 5f be 32 93 c1 be 9c 40 0e bf
       -0.5204739 -0.21780783 -0.37807614 -0.55567336
000190 8e 21 db be 49 9b b9 be 63 8b ab be 0b 70 52 be
       -0.42799038 -0.36251286 -0.3350478 -0.20550554
0001a0 fb 3a 0e bf bb 8a 40 be 06 c1 1e be 35 f8 2e be
       -0.5555875 -0.18802921 -0.1550332 -0.17086871
0001b0 3b 2b bf be df 84 b9 be f6 2c b2 be 0f 07 ff be
       -0.3733767 -0.36234185 -0.34799927 -0.49810073
0001c0 67 5c ed bf 99 14 14 be d7 af 84 be 1c 56 91 be
       -1.8543824 -0.14460982 -0.25915405 -0.2838601
0001d0 68 38 09 c0 6d a3 cc bf 61 c3 02 bf 90 9f 47 be
       -2.1440678 -1.5987374 -0.51079375 -0.19494462
0001e0 88 7e 8f be 5b 1f c1 bf 69 c2 90 be 8b 36 93 bf
       -0.28026223 -1.5087694 -0.28273323 -1.150102
0001f0 b5 7e cc be 2d a4 f0 bf 10 a7 d0 bf 66 53 65 be
       -0.3994042 -1.8800102 -1.6300983 -0.22395095
000200 43 0b fc 3e 6d df 12 c1 c1 e1 35 3e 86 be c3 3e
       0.49227342 -9.179547 0.177619 0.38231295
000210 ec da cd be 9f 83 a9 3f ac 5b 89 40 f2 1e d2 be
       -0.40206087 1.3243293 4.2924404 -0.41039234
000220 70 75 4c 3d b3 03 7f bf ff b9 2a c0 d5 56 13 3f
       0.049916685 -0.9961502 -2.6676023 0.5755437
000230 51 06 d6 bd a9 32 cf be 3f 8a af 3e 2e 99 21 3e
       -0.104504235 -0.40468338 0.3428516 0.1578109
000240 ab f5 c5 bc 21 d6 2a bf 76 a4 05 bc 0a 83 54 bd
       -0.024164995 -0.66732985 -0.008156886 -0.05188278
000250 f8 f0 ae bf 46 00 ac bd 2d 79 3b 3e b8 c3 29 3f
       -1.3667288 -0.0839849 0.18307944 0.6631427
000260 d9 3a dd be a6 b5 e1 bf f2 5d 29 be ea e4 9f 3e
       -0.4320896 -1.763356 -0.16539744 0.31229335
000270 eb 53 1b be cd 8b 99 bd cc 4a a0 be 2c 29 83 bd
       -0.15168731 -0.07497368 -0.31307065 -0.06404337
000280 bc 11 45 bc cd 80 0c bd ee b7 86 be d0 e5 e8 be
       -0.012028154 -0.03430252 -0.26312202 -0.45487833
000290 d6 7b 11 3f 4a e1 69 bf 7f b5 d1 be a1 f9 03 40
       0.56829584 -0.9135939 -0.40958783 2.0621111
0002a0 2b fd 95 40 e3 0d b0 be 3c 1e cc bf 31 a1 6b bf
       4.6871543 -0.34385595 -1.5946727 -0.92042834
0002b0 b3 46 8c bf 36 06 23 be e5 0c 84 be d9 34 48 3e
       -1.0959076 -0.15920338 -0.25791088 0.1955141
0002c0 6f 85 2f bf 2c f5 82 bf 9a 6f 53 bf 6b ce 4b be
       -0.6856298 -1.023107 -0.82592165 -0.19902961
0002d0 b5 89 32 be 69 4c 8d be 52 1d c1 3e 98 d4 85 3e
       -0.17435344 -0.2759736 0.37717682 0.2613876
0002e0 5c 03 73 3e b0 46 81 be 6c 1a 0f bf b7 87 97 3e
       0.2373175 -0.25249243 -0.5589969 0.2959573
0002f0 1e 6a eb 3e 8a 1b 5c 3e 9f 49 08 bf ba bc 9b bd
       0.45979398 0.2149488 -0.53237337 -0.07604356
000300 2d 6c be bf e1 b7 8e c0 f4 86 ae bd 5f ba 0b c0
       -1.4876763 -4.459946 -0.08521834 -2.1832502
000310 13 c4 eb bb d1 dc 47 bf d0 d7 73 be f0 e7 c8 be
       -0.0071950047 -0.78071314 -0.23812795 -0.39239454
000320 22 fb 93 be da 15 ec be fe bf 9c be b1 6a 04 c0
       -0.28902537 -0.4611042 -0.30615228 -2.069012
000330 ea e4 19 3e 34 78 fe bf d9 0d 28 3e 36 24 9e bf
       0.1502873 -1.9880433 0.16411532 -1.2354801
000340 c5 22 5a be e4 60 dd bf f3 a4 a4 bf 0a 73 92 be
       -0.21302326 -1.7295194 -1.2862839 -0.28603393
000350 55 e8 a4 bf 7d fa 81 bf 90 d1 7a be 40 2e a1 bf
       -1.2883402 -1.0154568 -0.24494004 -1.2592239
000360 f1 99 f9 be 63 9f 55 c0 b6 1c 6f be ac 10 b8 bf
       -0.4875026 -3.3378532 -0.23350796 -1.4380088
000370 26 f5 87 bf 01 4d 44 be e5 95 87 bf 3d 97 30 c0
       -1.0621688 -0.1917 -1.0592619 -2.7592309
000380 45 e1 10 bf cb e7 ce bf 9b aa a4 be 8c 62 9c be
       -0.56593734 -1.6164488 -0.32161412 -0.30543935
000390 bb 36 25 bf de 27 10 bf ba 07 99 bf b2 07 b8 be
       -0.6453664 -0.5631083 -1.1955483 -0.3594337
0003a0 83 51 59 be 8e 2e fd bf c3 04 04 bf ba 2a 1e be
       -0.212225 -1.9779832 -0.51569766 -0.15445986
0003b0 fd 23 54 bf ca 94 d3 be 2e 88 bf bf 0a f9 5d bf
       -0.82867414 -0.41324455 -1.4963434 -0.8670813
0003c0 e7 e6 65 bd 12 d5 e2 be dd 0d 33 bf 46 1b a0 be
       -0.05612841 -0.44303185 -0.6994303 -0.31270808
0003d0 6f ac b7 be a1 38 d3 bf fd 15 bc be 4f 70 c3 bf
       -0.35873744 -1.6501657 -0.36735526 -1.5268649
0003e0 52 b6 7d bf 51 f2 90 bc 73 b9 b8 be 3b 8b 00 bc
       -0.99106324 -0.01769367 -0.36078987 -0.007845695
0003f0 83 4e b7 3d eb 7e ed be 90 50 d8 bf 8f a8 9e be
       0.08950522 -0.46385893 -1.6899586 -0.30987975

fc2.bias f4 [64]
000000 93 5f 3a c0 d0 4e 43 c0 32 ea 03 c1 55 fe 7e c0
       -2.9120834 -3.0516853 -8.244677 -3.9842732
000010 41 26 bd c0 65 7c a3 c0 cc c3 84 c0 34 b4 13 c1
       -5.9109197 -5.108935 -4.148901 -9.231495
000020 9a 1f b4 bf 33 cc 58 be 6b cc a5 c0 d0 c8 c3 bf
       -1.4072144 -0.21171646 -5.1812034 -1.5295658
000030 5f ba 19 be 20 4a a8 c0 94 bf 9a be b2 40 f6 bf
       -0.15012501 -5.2590485 -0.30224288 -1.9238493
000040 b5 c4 ed bf f3 12 95 c0 d2 1b d3 c0 39 de 07 c1
       -1.8575655 -4.658563 -6.597146 -8.491754
000050 a6 59 59 c0 df f6 40 c0 de 8e 52 c0 e3 7f 95 c0
       -3.3960967 -3.0150678 -3.28997 -4.671861
000060 13 92 14 c0 a1 03 38 c0 f7 34 1a c0 88 7d 9c bf
       -2.3214157 -2.8752215 -2.4094827 -1.2225809
000070 7c 15 20 c0 91 71 21 bf 7a db f5 bf ac 94 c8 bf
       -2.5013113 -0.63063914 -1.9207604 -1.5670371
000080 aa 39 cd c0 84 e5 d0 c0 1d 7a 24 c0 4f 35 a4 c0
       -6.413289 -6.528017 -2.5699532 -5.1315074
000090 7f 01 9a bf 37 1e e7 be 89 cb a9 bf 84 8d c2 c0
       -1.2031707 -0.4514024 -1.3265239 -6.079775
0000a0 4f ba 05 bf ac 7a 94 c0 96 ab 2b c0 97 28 92 be
       -0.5223741 -4.6399746 -2.6823478 -0.28546593
0000b0 ff de a7 be 42 f9 f8 c0 59 9d f9 c0 d6 d1 3f be
       -0.3278732 -7.780427 -7.8004575 -0.1873239
0000c0 6e 25 94 c0 18 a8 83 c0 d9 b5 a6 c0 9b a0 13 c0
       -4.629569 -4.1142693 -5.209698 -2.3066776
0000d0 dd 71 6e c0 e6 7f db bf 66 bf 95 bf 0d b7 d6 c0
       -3.7256997 -1.7148407 -1.1699035 -6.709845
0000e0 dc bc ec bf 94 41 a9 c0 d4 6e 32 c0 87 9c 3a bf
       -1.8495135 -5.289255 -2.7880144 -0.7289509
0000f0 c0 77 ff 3f f0 a7 78 c0 a9 51 a8 be f2 68 1d c1
       1.995842 -3.88525 -0.32874802 -9.838121

fc3.weight f4 [1, 64]
000000 8d 34 d7 be 38 8f df 3d 7c 88 bf 3e 56 13 22 be
       -0.4203228 0.10915989 0.37408817 -0.15827689
000010 89 a3 93 bf f4 4f b4 bf 67 a1 c8 be 79 91 ba 3e
       -1.1534282 -1.40869 -0.3918564 0.36439112
000020 50 b4 4c 3f 0c ed 54 3e 10 8c a4 bf 0f 71 97 be
       0.79962635 0.20793551 -1.2855244 -0.29578444
000030 a5 89 35 3d 81 40 c4 bf 07 83 ce 3d d5 8f 05 3f
       0.04432072 -1.5332185 0.10083585 0.52172595
000040 48 77 5a bf ee a3 81 3f eb 74 19 3f 45 6e 4e 3f
       -0.8533826 1.0128152 0.5994403 0.8063701
000050 f7 c0 18 3e ad 0c 9b be 79 81 22 bf a6 9f a8 bf
       0.1491736 -0.30283108 -0.6347881 -1.3173721
000060 8c b2 8c 3d 72 a2 09 3f 46 c0 b3 be 75 23 0f 3e
       0.068699926 0.53763497 -0.3510763 0.1397837
000070 f2 97 17 3f 70 cc 64 3e fd 88 a3 bf a8 87 2c 3f
       0.59216225 0.22343612 -1.277618 0.67394495
000080 3d d1 c2 3f 18 ca 1b bf 5a 7a 1c bf e9 a4 08 bf
       1.5220104 -0.60855246 -0.61124194 -0.5337663
000090 c7 36 5b 3d 0b ea 3a bf e0 fc 82 3e 9a c0 da be
       0.053519037 -0.7301337 0.25583553 -0.42725068
0000a0 99 41 e6 3c 18 03 47 be 63 4d f0 3d 71 77 de 3d
       0.028107451 -0.19434774 0.1173351 0.108626254
0000b0 7e ac a5 3d 10 cc 10 bf 96 07 5e bd a2 be 46 3e
       0.08089541 -0.56561375 -0.054206453 0.19408658
0000c0 f7 34 ef 3e 58 39 e5 3e 6e e3 0c be 71 18 be 3f
       0.46720096 0.44770312 -0.13758633 1.4851209
0000d0 89 89 a7 bf 32 70 5c bf 3d 65 2b 3d 3a 59 a8 bf
       -1.3088847 -0.86108696 0.041844595 -1.315223
0000e0 03 91 f2 be b1 05 55 3e 8b aa d4 bd 1b 88 30 3e
       -0.4737626 0.20802952 -0.10384091 0.1723942
0000f0 a7 a0 a3 bf 73 77 13 bf 07 b2 1c 3e df 25 3b bf
       -1.2783402 -0.5760414 0.15302287 -0.7310466
