trained_models_1L_4/sensor_malfunction_model.pth (torch, 24479 bytes, 5 tensors)

fc1.weight f4 [64, 19]
0	0xbdd6621c	-0.10467932
1	0xbfa3d4c7	-1.279931
2	0x4076e505	3.8577282
3	0x41911055	18.132975
4	0x406c8f73	3.6962554
5	0xbf895170	-1.0727978
6	0x3ef279af	0.47358462
7	0x405c0656	3.4378867
8	0xbfb0829f	-1.3789862
9	0xc033f4fe	-2.8118281
10	0xbf716459	-0.94293743
11	0xc0478efc	-3.118102
12	0xbe5e3315	-0.21699174
13	0x3f8eb7a8	1.1149797
14	0x40829dfc	4.081785
15	0x3cbc3df0	0.022978753
16	0x40800008	4.000004
17	0x3fcda5ed	1.6066262
18	0x3fd985f3	1.6994003
19	0x4107c357	8.48519
20	0x3fd843d7	1.6895703
21	0x408fe7a2	4.4970255
22	0x4267f67e	57.990715
23	0xbfd25ee5	-1.643521
24	0xc0ec8ca1	-7.3921666
25	0x41099ead	8.601239
26	0x3ec53476	0.38516587
27	0x41442505	12.259038
28	0xbefed3bb	-0.49770913
29	0x40c69b3a	6.2064486
30	0xc0856c7b	-4.1694922
31	0x413eda55	11.928304
32	0x4146895b	12.408534
33	0x41721f9a	15.132715
34	0x4067d170	3.622158
35	0xc16051a8	-14.019936
36	0x4183fbd6	16.497967
37	0xc05d5b07	-3.4586809
38	0x3ea1ba2d	0.31587353
39	0x4050391c	3.2534857
40	0x40dd8e18	6.9235954
41	0x41d95a5a	27.169117
42	0xc08761b3	-4.230676
43	0x40b8a63a	5.7702913
44	0x4023fa81	2.5621645
45	0x4011251e	2.2678905
46	0xc03a78a3	-2.913613
47	0xc03f8b56	-2.9928794
48	0x3f619a5f	0.88126177
49	0xbfed50cb	-1.8540281
50	0x3de70627	0.1128047
51	0xbf119327	-0.5686516
52	0x408c3236	4.3811293
53	0x3fb6e40b	1.4288343
54	0xbfbb8b00	-1.4651794
55	0x405b7a2d	3.429332
56	0x3ed310b0	0.4122367
57	0xc0133b50	-2.3004951
58	0x3fb17933	1.3865112
59	0xbefcf349	-0.49404362
60	0x41a4292a	20.5201
61	0xbecb4fbd	-0.39709273
62	0xbf62e434	-0.8862946
63	0xbff48a80	-1.9104767
64	0x3e472a72	0.19449785
65	0xbf2c1a3d	-0.67227536
66	0x3fd8955d	1.6920582
67	0xbbc9fed2	-0.00616441
68	0xc060012c	-3.5000715
69	0x3ffdd573	1.9830765
70	0xbf60cc7b	-0.8781201
71	0x3fbf75ed	1.4957863
72	0xbebcd463	-0.36880788
73	0xc07db876	-3.9643836
74	0x4087a3f4	4.238764
75	0x3fe7e5f0	1.8117046
76	0x3dace3e7	0.084419064
77	0xbdba4912	-0.09095968
78	0xbe82a52c	-0.2551664
79	0xbeba0a9f	-0.36336228
80	0xbe8f02f1	-0.27931932
81	0xbcc03424	-0.023462363
82	0x3e1f085a	0.1553053
83	0x3d44ace6	0.04801645
84	0xbe449754	-0.19198352
85	0xbddf36b9	-0.108991094
86	0xbc84c412	-0.016206775
87	0xbea4aa02	-0.32160956
88	0x3ec13e30	0.37742758
89	0x3ece0863	0.40240774
90	0xbdd0fba3	-0.10204246
91	0x3d07d57c	0.03316258
92	0x3ea244d0	0.31693125
93	0xbea36c42	-0.31918532
94	0x3e23bdbe	0.1599035
95	0x3ff7e072	1.936537
96	0xbf85e157	-1.0459393
97	0x40b7d7f0	5.7451096
98	0x41e77c38	28.935654
99	0xbf140bae	-0.5783032
100	0xc00ce39f	-2.201393
101	0xc014323f	-2.3155668
102	0xbfef1a8b	-1.8679975
103	0xbfb2dad3	-1.397303
104	0xc02e8910	-2.7271156
105	0x40008e52	2.0086865
106	0x3e261b76	0.16221413
107	0xbf743e5d	-0.9540766
108	0x3f9f8f29	1.2465564
109	0x3fe5dec8	1.7958612
110	0x402a62f8	2.6622906
111	0xc05e3cbe	-3.4724574
112	0x3fd1e65d	1.6398426
113	0xbdb6f487	-0.08933359
114	0xc018abff	-2.3854978
115	0x3f8a7478	1.0816793
116	0x40bc7a95	5.8899636
117	0x42221f27	40.530422
118	0xbfb1245f	-1.3839225
119	0xc043c6cf	-3.0590093
120	0x40312155	2.7676594
121	0xbf71ce35	-0.9445527
122	0x40559d8a	3.3377404
123	0x3f8cf499	1.1012145
124	0x4021ebb2	2.5300107
125	0x40570431	3.3596308
126	0x3fa88f30	1.3168697
127	0xbedca303	-0.43093118
128	0x40425d4e	3.0369449
129	0xbe9a03bc	-0.30080974
130	0xbfe464b7	-1.7843236
131	0x40708999	3.7583983
132	0x405600c7	3.3437974
133	0x3fb991bd	1.4497601
134	0x40511c44	3.2673502
135	0x410b8699	8.720361
136	0x42673bc7	57.808376
137	0xc09270c2	-4.5762644
138	0x3f981e7d	1.1884304
139	0x40a396c6	5.112155
140	0xbf3ffb9f	-0.7499332
141	0xc0562fcf	-3.346668
142	0xc089c4aa	-4.305257
143	0x40082754	2.1274004
144	0xc0d4f553	-6.654947
145	0x4084557f	4.1354365
146	0x408c4a6e	4.3840857
147	0x394982f1	0.00019217633
148	0x4063c1b6	3.5586982
149	0xbf2de8eb	-0.6793353
150	0x40f896e6	7.76842
151	0x40bc1655	5.877726
152	0x3fd0bc0f	1.6307391
153	0xbf91b46f	-1.1383189
154	0x4013f3df	2.3117597
155	0x41cadbc7	25.357313
156	0xbf146206	-0.5796207
157	0xc02bfeb6	-2.6874213
158	0x40033088	2.049837
159	0x3e9a0ffc	0.3009032
160	0x3f241697	0.6409697
161	0xbfa23336	-1.2671878
162	0xbe072d65	-0.1320091
163	0xbe357e23	-0.17723899
164	0x40243a94	2.5660753
165	0xbf34e46f	-0.7066106
166	0x3fde569b	1.737018
167	0x4069ffef	3.656246
168	0x3f7d5c02	0.9896852
169	0x40a2e2a0	5.090164
170	0x3e221a7a	0.15830413
171	0x402db43c	2.7141256
172	0x40e165c4	7.0436726
173	0x40e21d5b	7.0660834
174	0x4218b224	38.173965
175	0xbfeee6bb	-1.8664163
176	0xc06a4e0c	-3.6610136
177	0x3ff8d4d1	1.9439946
178	0xc0c14ee0	-6.0408783
179	0xc0a8edc7	-5.2790256
180	0xc0528b4c	-3.289752
181	0x40103ca7	2.253702
182	0x3eea14f6	0.45719117
183	0xc07fec5b	-3.998801
184	0x40222dc8	2.5340443
185	0x410300f2	8.187731
186	0xbfd2df7b	-1.6474451
187	0x3fa2975d	1.2702442
188	0x4054e2e2	3.3263478
189	0xc08c32d7	-4.381206
190	0xbfbe6ef0	-1.4877605
191	0xc095cb23	-4.681047
192	0x413f1b37	11.944144
193	0x42758c96	61.38729
194	0xc0950ba1	-4.6576695
195	0x40a0ce1c	5.02516
196	0x40034217	2.0509088
197	0xc0254830	-2.582531
198	0xbff81f12	-1.9384482
199	0xc0c1d136	-6.0567884
200	0x408b3a86	4.350894
201	0xc1187698	-9.528954
202	0x400ff66a	2.249415
203	0x3faed456	1.365855
204	0x3f580501	0.84382635
205	0x3fa35f59	1.2763473
206	0xc03d69f7	-2.9595926
207	0x410bd034	8.738331
208	0x3fda8abd	1.707359
209	0x40511a29	3.2672217
210	0x3fb707a5	1.4299208
211	0x3e8e7618	0.27824473
212	0x41a98bd0	21.193268
213	0xbe9b1d79	-0.30295923
214	0xbf14e23b	-0.581577
215	0x407ab6cd	3.9174073
216	0x40af3e0c	5.476324
217	0xbf16a68d	-0.58847886
218	0x3ef1118b	0.47083697
219	0xbf4e1b2e	-0.8051022
220	0x400c94cd	2.196582
221	0x3f640507	0.8907017
222	0xbf74bb28	-0.9559808
223	0x40334d2d	2.8015854
224	0x4084e284	4.152651
225	0xc0545d03	-3.318177
226	0x40a9ca65	5.3059564
227	0x40831892	4.0967493
228	0xbfa179e3	-1.2615322
229	0xbe55dfe9	-0.20886196
230	0xbe8fc52c	-0.28080118
231	0x41b1fa01	22.247072
232	0x3feba242	1.8408892
233	0xbfb87ccd	-1.4413086
234	0x3fb38618	1.4025297
235	0x3d43714e	0.047715478
236	0x3f18d0b7	0.59693474
237	0x3e2a981a	0.16659585
238	0x409b2bb1	4.8490834
239	0xbdba543d	-0.090980984
240	0xbf4fb677	-0.81137794
241	0xc0018a47	-2.0240648
242	0xc05993ae	-3.3996387
243	0x3ff1d09a	1.8891785
244	0x3f9322b8	1.149497
245	0x40384db9	2.8797438
246	0xc091369c	-4.537916
247	0x3fed3ce7	1.8534211
248	0x403027f4	2.7524385
249	0x4096f08b	4.716863
250	0x41b71b01	22.888186
251	0x3e158c54	0.14604312
252	0x3e4f5150	0.20245862
253	0xbef27fdd	-0.47363177
254	0xbde812da	-0.11331721
255	0xbfbe7816	-1.4880397

fc1.bias f4 [64]
0	0xc239d4a2	-46.45765
1	0xc28f0f4d	-71.529884
2	0xc25c19f6	-55.025352
3	0xc24cbc42	-51.183846
4	0xc05f7bd2	-3.4919324
5	0xc23931bb	-46.298565
6	0xc288b351	-68.35023
7	0xc2a98b26	-84.771774
8	0xc266c6af	-57.694027
9	0xc2886cba	-68.21236
10	0xc2ade34e	-86.943954
11	0xc25858bf	-54.086666
12	0xc25c44a5	-55.067036
13	0xc22e9197	-43.642178
14	0xc27e2170	-63.532654
15	0xc2909880	-72.29785
16	0xc22ba495	-42.910725
17	0xc2428559	-48.630222
18	0xc2c66086	-99.18852
19	0xc28b5fd1	-69.68714
20	0xc26bb8c0	-58.93042
21	0xc2b481ba	-90.25337
22	0xc04e7358	-3.22579
23	0xc2bcd075	-94.40714
24	0xc271f928	-60.493317
25	0xc043ea00	-3.0611572
26	0xc28561ab	-66.69076
27	0xc28cbfdb	-70.37472
28	0xc2897d7c	-68.74509
29	0xc2450361	-49.2533
30	0xc280e1ce	-64.441025
31	0xc2892745	-68.5767
32	0xc29586ee	-74.763535
33	0xc29725ad	-75.573586
34	0xc2697588	-58.364777
35	0xc2cf4ef9	-103.65424
36	0xc282c3e4	-65.3826
37	0xc28f09a0	-71.5188
38	0xc288b4cf	-68.35314
39	0xc0e119d1	-7.0344014
40	0xc24850ec	-50.079025
41	0xc28ea236	-71.31682
42	0xc28f4b99	-71.64765
43	0xc2837409	-65.72663
44	0xc29c1311	-78.03724
45	0xc2c06dac	-96.2142
46	0xc2480c59	-50.01206
47	0xc22dbe90	-43.436096
48	0xc2a0b10e	-80.34581
49	0xc28e5262	-71.160904
50	0xc07a1e9d	-3.9081185
51	0xc29a7f31	-77.24842
52	0xc29beeef	-77.96667
53	0xc2b506f2	-90.513565
54	0xc28e7d39	-71.244576
55	0xc253507b	-52.828594
56	0xc2161eeb	-37.530193
57	0xc295977f	-74.79589
58	0xc2992a95	-76.58317
59	0xc2756bcc	-61.35527
60	0xc23af196	-46.735924
61	0xc21a7724	-38.61635
62	0xc2b0cdf9	-88.40229
63	0xc24f7254	-51.86165

fc2.weight f4 [64, 64]
0	0xbfa8f733	-1.3200439
1	0xbf946993	-1.1594719
2	0xbfb92c13	-1.4466575
3	0xbe47a91b	-0.19498102
4	0x3d257238	0.04039213
5	0xbf6a5ef5	-0.9155114
6	0xbfa66837	-1.3000554
7	0xc0410657	-3.016012
8	0xc00e8626	-2.2269378
9	0xc0246b96	-2.5690665
10	0xbfb4711c	-1.4097018
11	0xbe677b06	-0.22605523
12	0xbee47771	-0.44622377
13	0xbf0364ba	-0.5132557
14	0xbea21b45	-0.3166143
15	0xbed78e92	-0.4210096
16	0xbed51182	-0.4161492
17	0xbef7cf14	-0.48400176
18	0xc0984ee1	-4.759629
19	0xbf1bb4ef	-0.6082296
20	0xbfd9c46b	-1.7013067
21	0xc037004f	-2.8593938
22	0xbdacb895	-0.08433644
23	0xc06ddd15	-3.7166188
24	0xc02cb858	-2.6987514
25	0x3e42d4fd	0.19026561
26	0xbe59de64	-0.21276242
27	0xbf9bdb62	-1.2176325
28	0xc0ce79e3	-6.4523787
29	0xbfc542b3	-1.541098
30	0x3d3315fb	0.043722134
31	0xbfe369bb	-1.7766641
32	0xbebf129a	-0.3731888
33	0xc05e4180	-3.4727478
34	0xbf91b48a	-1.1383221
35	0xbfe50e8d	-1.7895066
36	0xbff9b6f2	-1.9508955
37	0xbf95ccd7	-1.1703137
38	0xbfda4ce8	-1.705472
39	0xbe232ebd	-0.15935798
40	0xbfe4ddcb	-1.7880186
41	0xbfe71b7a	-1.805526
42	0xbf206226	-0.6264976
43	0xc02c8f9e	-2.6962657
44	0xc0074bd7	-2.114004
45	0xc0879d15	-4.237925
46	0xbe8e9516	-0.2784812
47	0xbf642339	-0.89116246
48	0xc0822376	-4.0668287
49	0x3dbe4796	0.09290998
50	0x3d80e265	0.06293181
51	0xc005dfbb	-2.0917804
52	0xc06704be	-3.6096644
53	0xc0775b6d	-3.8649552
54	0xbf6fc66d	-0.9366215
55	0xc0012bf2	-2.0183072
56	0xbeafd575	-0.34342542
57	0xbf878807	-1.0588387
58	0xc00f838f	-2.2424047
59	0xc0206fa7	-2.5068147
60	0xbfe4bc4c	-1.7869964
61	0xc0473e1c	-3.1131659
62	0xbe702f6d	-0.23455591
63	0xc00910b8	-2.1416454
64	0x3e347061	0.17620994
65	0xbf9df990	-1.2341785
66	0x3bd8a0c4	0.0066109616
67	0xbf602793	-0.87560385
68	0x3e83efcd	0.2576889
69	0xbfac3044	-1.345223
70	0xbe083e36	-0.13304982
71	0xc00c700c	-2.1943388
72	0xbf8e902d	-1.1137749
73	0xbed6e2ca	-0.419699
74	0xc0226350	-2.5373116
75	0xbfcc44e1	-1.595852
76	0xbf0a3159	-0.5398155
77	0xc0075ce7	-2.1150453
78	0xbfe14b05	-1.7601019
79	0xbfb2464e	-1.3927705
80	0xbf47d6e8	-0.78062296
81	0xbeb840e1	-0.35987
82	0xbfd4b108	-1.6616526
83	0xbfc842dc	-1.5645404
84	0xbd9985de	-0.07496236
85	0xbfcc4730	-1.5959225
86	0xbe8ae3d9	-0.2712696
87	0xbfc321d7	-1.5244702
88	0xbff9e321	-1.9522439
89	0xbdda2f0f	-0.10653507
90	0xbf898f28	-1.0746813
91	0xbfb7deb7	-1.4364842
92	0xbf3fa909	-0.748673
93	0xbf256625	-0.64608985
94	0xbfd0b716	-1.6305873
95	0xbe4f1ee1	-0.20226623
96	0xbfb292c4	-1.3951039
97	0xbffb2370	-1.962019
98	0xbfe86a76	-1.8157489
99	0xbcc5c0cf	-0.02413979
100	0xc041299c	-3.0181646
101	0xbfa1feff	-1.2655944
102	0xbf8def6a	-1.1088688
103	0xbf8b9ab3	-1.0906585
104	0xbd569021	-0.052383546
105	0xbf16456b	-0.58699673
106	0xbfb7c155	-1.4355875
107	0xbeed05c0	-0.4629345
108	0xbfcbdf37	-1.5927495
109	0xbf352b53	-0.7076923
110	0xbe724132	-0.23657683
111	0x3d27c562	0.040959723
112	0xbfe08530	-1.7540646
113	0x3dd9904f	0.10623228
114	0x3c5e2bc7	0.013560242
115	0xbf9ab677	-1.2086934
116	0xbfcf6699	-1.6203185
117	0xbfe68c52	-1.8011572
118	0xbf1b2697	-0.6060576
119	0xbe3743d5	-0.1789697
120	0xbe19754b	-0.1498615
121	0xbf0ffb17	-0.5624251
122	0xbf910778	-1.1330404
123	0xbfab92fe	-1.3404233
124	0xbfbd16ac	-1.4772544
125	0xbf834a8d	-1.0257126
126	0xbf528a71	-0.82242495
127	0xbf18eebf	-0.597393
128	0xbdaabc3a	-0.083366826
129	0xbff2fc0c	-1.8983169
130	0xc05423a0	-3.3146744
131	0xbe95486a	-0.2915681
132	0xbe647d7c	-0.22313493
133	0xbe943d9c	-0.28953254
134	0xbfbbda9c	-1.4676089
135	0xc07a4726	-3.9105926
136	0xc03f16c6	-2.985765
137	0xbe63d95f	-0.22250889
138	0xbfd3b69a	-1.65401
139	0x3d983843	0.07432606
140	0xbfb7adc5	-1.4349905
141	0xbfe8593c	-1.8152232
142	0xbe608fe5	-0.21929891
143	0x3e01a035	0.1265877
144	0xbebe37a8	-0.37151837
145	0xbee29721	-0.44255927
146	0xbf1c95e9	-0.61166245
147	0xbe0ba30d	-0.13636418
148	0x3f06efda	0.52709734
149	0xbf345f12	-0.70457566
150	0xbf05abc3	-0.5221521
151	0xbf631a36	-0.8871187
152	0xbf0d9700	-0.5530853
153	0xbe3f5f00	-0.18688583
154	0xbca2402f	-0.019805996
155	0xbf3d42dc	-0.73930144
156	0xc0dadb01	-6.839234
157	0xbf8dcb16	-1.1077602
158	0xbffcda9f	-1.9754218
159	0xbef4d0ab	-0.4781545
160	0xbe0d052e	-0.13771507
161	0xbfef61f2	-1.8701766
162	0xc0037161	-2.053795
163	0xbf057325	-0.5212882
164	0xbf1dcd33	-0.61641234
165	0xbf5c6301	-0.8608857
166	0xbff564c1	-1.9171373
167	0xbf3d8f98	-0.7404723
168	0xbebf71bb	-0.37391457
169	0xbf1163d6	-0.5679296
170	0xbe73eee4	-0.23821598
171	0xbdf5ef66	-0.12008552
172	0xc051210c	-3.267642
173	0xc09600e9	-4.687611
174	0xbeb4e5d4	-0.35331595
175	0xbe868063	-0.26269826
176	0xc03bcc22	-2.9343343
177	0xbed1076c	-0.40825975
178	0xbeedbad0	-0.4643159
179	0xbfffa063	-1.9970821
180	0xbee45d21	-0.44602302
181	0xbfdf0622	-1.7423747
182	0xbfd1364e	-1.6344697
183	0xbf0e5adf	-0.5560741
184	0xbd77e583	-0.060521614
185	0xbe91648f	-0.28397033
186	0xbe9132da	-0.2835911
187	0xbfcbff3b	-1.5937265
188	0xbd91bea1	-0.07116438
189	0xbf0738c8	-0.52821016
190	0xbf5e8ac1	-0.8693047
191	0xbd987cd5	-0.07445685
192	0xbd60f30b	-0.054919284
193	0xc066b8ba	-3.6050248
194	0xbe112c1c	-0.14176983
195	0xbedda6b3	-0.43291244
196	0xbec10f51	-0.37706998
197	0xbeb0048c	-0.3437847
198	0xbf9edb92	-1.2410758
199	0xbf224f28	-0.6340203
200	0xbe3fdc5d	-0.18736406
201	0xbe333f56	-0.1750463
202	0xc00788df	-2.117729
203	0x3c55a787	0.01304043
204	0xbea8053f	-0.32816502
205	0xbe137925	-0.14401682
206	0xbeb9e66e	-0.36308616
207	0xbfd23a1d	-1.6423985
208	0x3c1a4e32	0.009418057
209	0xbed051cb	-0.40687403
210	0xc08f3855	-4.4756265
211	0xc031e2e0	-2.7794724
212	0x3cf4aa25	0.029866287
213	0xbf353886	-0.7078937
214	0xbe25430b	-0.16138856
215	0xbff33ac9	-1.9002315
216	0xbe8d895c	-0.2764386
217	0xbf30b45c	-0.69025207
218	0xbdf2f77e	-0.11863612
219	0xbf969b59	-1.1766158
220	0xc03f45be	-2.9886317
221	0xbfb09253	-1.3794655
222	0xbf3286ed	-0.6973713
223	0xbdcad6ce	-0.09904252
224	0xbfdd98bb	-1.7312235
225	0xc06976e4	-3.6478815
226	0xbe98cc8b	-0.29843554
227	0xbeaf152c	-0.3419584
228	0xc040daec	-3.013362
229	0xbe464baf	-0.19364808
230	0xbe327f53	-0.17431383
231	0x3d71af31	0.059004966
232	0xbf2d207b	-0.67627686
233	0xbf30fdf2	-0.6913749
234	0xbe25a1df	-0.1617503
235	0xbe00a361	-0.12562324
236	0xc0625377	-3.5363443
237	0xc05e118c	-3.469821
238	0xbff6136c	-1.9224677
239	0xbf2dab46	-0.6783947
240	0xbfc014cc	-1.5006347
241	0xbe9478c8	-0.289984
242	0xbefa44cb	-0.4888061
243	0xbfe039c4	-1.7517629
244	0xbfffea0b	-1.9993299
245	0xbffbcd67	-1.9672059
246	0xbf0b42db	-0.5439889
247	0xbf4b450c	-0.7940223
248	0xbf00c060	-0.5029354
249	0xbf255bb7	-0.6459307
250	0x3ccb67f8	0.02482985
251	0xbf110867	-0.56653446
252	0xbe9dcd33	-0.30820617
253	0xbef0dfde	-0.47045797
254	0xc057ec7e	-3.3738093
255	0xbfcbe5f0	-1.5929546

fc2.bias f4 [64]
0	0xc1733346	-15.200018
1	0xc0da5fe6	-6.8242064
2	0xc18c7c58	-17.560715
3	0xc185bead	-16.718103
4	0xc08c0313	-4.3753753
5	0xc167d0e6	-14.488501
6	0xc02c5c47	-2.6931322
7	0xc08502f7	-4.156612
8	0xc1091369	-8.567239
9	0xc1ff6043	-31.922003
10	0xc04098c1	-3.0093234
11	0xc1a7d8be	-20.980831
12	0xc16c84a1	-14.78238
13	0xc18a7475	-17.306864
14	0xc0c550c3	-6.1661086
15	0xc20c649c	-35.09825
16	0xc15982d4	-13.59444
17	0xc1e2656d	-28.299524
18	0xc18420de	-16.516048
19	0xc132857a	-11.157587
20	0xc0927a97	-4.5774646
21	0xc111d76e	-9.115095
22	0xc1ef2fa9	-29.898272
23	0xc16b03ea	-14.688456
24	0xc0ce4530	-6.4459457
25	0xc13c536e	-11.770369
26	0xc18f9e99	-17.95244
27	0xc11ce1b4	-9.805103
28	0xc1992cce	-19.146877
29	0xbeba0d56	-0.363383
30	0xc150997c	-13.037472
31	0xc0d87beb	-6.7651267
32	0xc00acc59	-2.1687224
33	0xc0b60dc3	-5.68918
34	0xc1a4df63	-20.609076
35	0xc122703b	-10.1524
36	0xc09b7ca5	-4.8589654
37	0xc0d15e72	-6.542779
38	0xc20b23bd	-34.7849
39	0xc18e84be	-17.814816
40	0xc1225ad2	-10.147173
41	0xc0807406	-4.014163
42	0x3fa0aa34	1.2551942
43	0xbea6fe9c	-0.32616127
44	0xc0d73f1c	-6.726454
45	0xc126c991	-10.424211
46	0xc1181204	-9.504398
47	0xc082bbbe	-4.0854177
48	0xc1018aa3	-8.096347
49	0xc152e0d8	-13.1798935
50	0xc09eac40	-4.9585266
51	0xc144c4f8	-12.298088
52	0xc0aceec5	-5.4041467
53	0xc18b6359	-17.42351
54	0xc118722a	-9.527872
55	0xc07281c6	-3.7891707
56	0xc1113175	-9.074574
57	0xc18a2fce	-17.273342
58	0xc1064f7f	-8.394408
59	0xc194b909	-18.59035
60	0xc0d67253	-6.7014556
61	0xc100e2cc	-8.05537
62	0xc0924c25	-4.571795
63	0xc184b7f3	-16.589819

fc3.weight f4 [1, 64]
0	0xbfd179c0	-1.636528
1	0xbfb186bd	-1.3869244
2	0xbf6afe3a	-0.9179417
3	0xbfb08380	-1.3790131
4	0xbf131145	-0.57448226
5	0x3e46cde3	0.19414477
6	0xbf70d20f	-0.94070524
7	0xbfac6a1b	-1.3469881
8	0x3f2f766d	0.6854008
9	0xbe16f742	-0.14742759
10	0x3f931784	1.1491551
11	0x3f4f9d0e	0.8109902
12	0x3fb911f6	1.4458606
13	0xbf46d74d	-0.7767227
14	0xbf6a82d8	-0.916059
15	0x3d5daf89	0.05412248
16	0xbfb04a7c	-1.3772731
17	0xbf846108	-1.0342112
18	0x3f18aaab	0.5963542
19	0xbeb4a73d	-0.35283843
20	0xbf1bd811	-0.60876566
21	0xbe112fd8	-0.14178407
22	0x3ea855e0	0.32878017
23	0xbfb512fe	-1.4146421
24	0xbfc02d5c	-1.5013843
25	0xbf988046	-1.1914146
26	0xbf864f46	-1.0492942
27	0x3fb1eb8c	1.3900008
28	0xbf29b71c	-0.6629503
29	0xbe7dd94d	-0.24789925
30	0xbea913f6	-0.3302304
31	0xbe2c4652	-0.168237
32	0xbf7be35b	-0.9839379
33	0xbfb9f37a	-1.4527428
34	0xbf3b1bef	-0.730895
35	0x3f3a7090	0.72828007
36	0xc0190f88	-2.391573
37	0xbe0e2e99	-0.13884963
38	0x3f813d1b	1.0096773
39	0x3f0c845c	0.54889464
40	0x3f6549dc	0.89565825
41	0xbe89b944	-0.2689916
42	0xbf615715	-0.880235
43	0xbe5ee3aa	-0.21766534
44	0xbf46f317	-0.77714676
45	0x3e4bb31d	0.19892545
46	0xbf5cbf33	-0.86229247
47	0x3e07a025	0.13244684
48	0x3fa88347	1.3165063
49	0x3f836ac2	1.0266955
50	0xbf322def	-0.6960134
51	0xbf22bf96	-0.63573587
52	0xbf1e4fcc	-0.6184051
53	0x3d390e7e	0.045179836
54	0xbc8860cd	-0.01664772
55	0x3ec5de2c	0.38646066
56	0xbdb54825	-0.08851651
57	0x4020fc3e	2.5153956
58	0x3cd71ca2	0.02625877
59	0xbebfbbaf	-0.3744788
60	0xbfc31569	-1.5240909
61	0xbfc565ac	-1.5421653
62	0xbec63068	-0.38708806
63	0xbf26ee84	-0.65207696
