trained_models_1L_4/vandalism_model.pth (torch, 24343 bytes, 5 tensors)

fc1.weight f4 [64, 19]
0	0xbe731d7f	-0.2374172
1	0xbf4f44fc	-0.80964637
2	0xc0435316	-3.0519462
3	0x3fedde2a	1.8583424
4	0xc045c464	-3.0901117
5	0xc0226a32	-2.5377316
6	0xbefd5e98	-0.49486232
7	0xc047fefa	-3.1249375
8	0x4002461c	2.0355291
9	0xbffe238b	-1.9854597
10	0x40310de4	2.7664728
11	0x3f2e599b	0.6810548
12	0xbf91a926	-1.1379745
13	0xbee15f8d	-0.44018212
14	0x3fb8bc2b	1.4432424
15	0xbf7c747f	-0.9861526
16	0x3fa47ff9	1.2851554
17	0x4005c7e1	2.0903246
18	0x40055629	2.0833838
19	0x3f0c1d9a	0.5473267
20	0x3ec6dca9	0.38840225
21	0xbf52c7a4	-0.8233588
22	0xc04c3f7e	-3.1913753
23	0xbe5a537b	-0.21320908
24	0x3f8a0d31	1.0785276
25	0x3f2ac85b	0.6671197
26	0x3f657524	0.8963187
27	0x3f841aaa	1.0320637
28	0x3f3b5408	0.73175097
29	0xc0142a5c	-2.3150854
30	0xbfb1d761	-1.3893853
31	0xbf9f31e3	-1.2437099
32	0x3f9f3e7f	1.2440947
33	0xbedea587	-0.43485662
34	0x3fdc678e	1.7219102
35	0x3f6cc08e	0.92481315
36	0xc01b0ec9	-2.4227774
37	0xbf633478	-0.88751936
38	0x3fa33024	1.2749066
39	0xbfc1fd7f	-1.5155486
40	0x3dda8b7b	0.10671135
41	0xc0483200	-3.1280518
42	0xbf5664a7	-0.83747333
43	0x4016fcb0	2.3591728
44	0xbf1a1e7b	-0.6020276
45	0xbf88748a	-1.0660565
46	0x3faead4e	1.3646638
47	0x402ad4fe	2.66925
48	0xbff71590	-1.9303455
49	0x3ec3a352	0.3821054
50	0xbac5fd0b	-0.001510532
51	0x403385e2	2.8050466
52	0xbeceeb10	-0.40413713
53	0xbf1a1882	-0.60193646
54	0x3fbb7ddc	1.4647784
55	0xc0192507	-2.392885
56	0xc003f289	-2.0616782
57	0xbe9da182	-0.30787283
58	0xbfb5e3a3	-1.4210094
59	0xbe89d910	-0.26923418
60	0xbfdf12c3	-1.7427601
61	0x3f6866e1	0.9078198
62	0x401cd1fa	2.450316
63	0x3fbe45bc	1.4865031
64	0xbfa85b3c	-1.3152843
65	0xbf111b90	-0.5668268
66	0x3faea18f	1.3643054
67	0xc0089c9f	-2.1345594
68	0xbfc6cecc	-1.5531859
69	0x3f174990	0.5909662
70	0x3e788f6d	0.24273463
71	0xbfa0f74c	-1.2575469
72	0xbf4a25b8	-0.78963804
73	0xbea440ab	-0.32080588
74	0xbf6fac54	-0.93622327
75	0x3e97b8f6	0.29633301
76	0xbe355a23	-0.17710166
77	0xbf1f333b	-0.62187546
78	0x3ff76306	1.9327095
79	0xbf1385f5	-0.5762628
80	0x3fa6450f	1.2989825
81	0xbee4d3c7	-0.44692823
82	0xbffea5ab	-1.9894308
83	0x3f58e4bd	0.84724027
84	0x3f4b2cea	0.7936541
85	0xbe512796	-0.20425257
86	0xbf3874d7	-0.72053283
87	0xbfc52b92	-1.5403922
88	0xbe2964b9	-0.16542329
89	0xbd08e33a	-0.033419825
90	0x3f85cd3a	1.0453255
91	0xbf263492	-0.64923966
92	0xbf4d4085	-0.80176574
93	0xbebe5c39	-0.37179735
94	0x3fa687d1	1.3010198
95	0xbe7828bf	-0.24234293
96	0xbedfff9e	-0.43749708
97	0xbf89b95c	-1.0759692
98	0x3f0f7612	0.56039536
99	0xbd3a622e	-0.045503788
100	0xbe0af268	-0.13569033
101	0x3e139216	0.14411196
102	0xbf85a0a7	-1.0439652
103	0x3fa18b16	1.2620571
104	0xc02ac483	-2.6682441
105	0x3e1e7b4c	0.15476722
106	0x3eb8d7f1	0.3610225
107	0xbcdc73a7	-0.026910616
108	0x3fac62d6	1.3467662
109	0xbfb3c8b1	-1.4045621
110	0x3ef30a75	0.47468916
111	0x400a06dd	2.156669
112	0xbe691930	-0.22763515
113	0xbeda7519	-0.42667463
114	0xbeaebbde	-0.34127706
115	0xbfe12593	-1.7589592
116	0x3e4e9060	0.20172262
117	0x400fd4fe	2.247375
118	0x3f5f412d	0.87208825
119	0x3e89ae75	0.26890913
120	0xc032591b	-2.7866886
121	0xc01a95cd	-2.415393
122	0x3f6f4675	0.93466884
123	0xbf9a3e8d	-1.2050339
124	0xbd8d1bcd	-0.06890068
125	0x400c435e	2.1916118
126	0x3f819cb4	1.0125947
127	0x3ea8e37a	0.3298605
128	0xbf40001f	-0.75000185
129	0xbf9b5f99	-1.2138549
130	0x3fe8cd78	1.8187704
131	0x3f50c615	0.8155225
132	0xbfab7cc6	-1.3397453
133	0x3f33bc75	0.7020944
134	0xbfdb6a73	-1.7141861
135	0xbf81757b	-1.0113977
136	0x3f56c7a5	0.83898383
137	0xbf503d8c	-0.81343913
138	0x3fa47274	1.2847428
139	0x3ea1f6e4	0.31633675
140	0xbe95e7dd	-0.2927846
141	0x3fdd9066	1.7309692
142	0x3f97cbca	1.1859066
143	0xbecdbdfa	-0.40184003
144	0x3fbb052f	1.4610957
145	0x3fb90c36	1.4456851
146	0x3fe12f15	1.7592493
147	0xbe66f929	-0.22555985
148	0xbe013877	-0.12619196
149	0x3f401b9d	0.75042135
150	0xbf4eea08	-0.80825853
151	0x3e65420c	0.22388476
152	0x4003f4e6	2.0618224
153	0x400815f0	2.126339
154	0xbf02de46	-0.5112041
155	0x3f6236c5	0.8836482
156	0x3f3e0942	0.74232876
157	0x3eaf5b93	0.34249553
158	0xbe8ff9d5	-0.28120294
159	0x3df2cb86	0.11855225
160	0x3f6b6fe5	0.9196761
161	0xbeab41f9	-0.3344877
162	0x3f934d8a	1.1508038
163	0xbefd7fd1	-0.4951158
164	0x3f903ac3	1.1267933
165	0xbfa99dd4	-1.325129
166	0x3f3d4349	0.73930794
167	0x3e49c1f0	0.19702888
168	0xbfd6db19	-1.6785613
169	0x4018a9a5	2.3853543
170	0xbf82f2d7	-1.0230359
171	0x3e883e96	0.2661025
172	0x3e9dd5a8	0.3082707
173	0xbf9560bc	-1.1670146
174	0x3f24c2a9	0.6435953
175	0xbf3c539c	-0.7356508
176	0x3e8d39d4	0.27583182
177	0xbe5f82fc	-0.2182731
178	0x3de05b94	0.10954967
179	0x3f29a1f1	0.6626273
180	0xbf147e35	-0.58005077
181	0xc0245a40	-2.5680084
182	0xbe5eead6	-0.2176927
183	0x3d1ec02e	0.038757496
184	0xbf377114	-0.7165692
185	0xbfd6d1ad	-1.6782738
186	0xbf9f3760	-1.2438774
187	0xbe76ba90	-0.24094605
188	0x3fa20f32	1.2660887
189	0xbe74df1e	-0.23913237
190	0x3f4ade2b	0.7924525
191	0x40510a29	3.2662451
192	0xbf5208f7	-0.8204493
193	0x3f117cdb	0.5683114
194	0xbece8081	-0.40332416
195	0xbf1b2c70	-0.6061468
196	0x3fa16311	1.2608358
197	0xbef8dd3d	-0.4860629
198	0x400fe9d6	2.2486472
199	0x3deb6562	0.114939466
200	0x3ec4b843	0.3842183
201	0x3e0376b1	0.12838246
202	0xc0536f8e	-3.3036838
203	0xbef56fbd	-0.47936812
204	0x3f5f1f5c	0.87157226
205	0x3df4b313	0.11948218
206	0x3e2a2fc3	0.16619782
207	0x3f62ff69	0.88670975
208	0xbe56ed05	-0.20988853
209	0x3dfe0225	0.12402753
210	0x3eb5e5fe	0.35527033
211	0x3e08745b	0.13325636
212	0x3e18528c	0.14875239
213	0xbdbac3ac	-0.09119353
214	0xbdc8a10a	-0.09796341
215	0xbde0d2c4	-0.109777
216	0x3ed7a792	0.42120034
217	0xbedd1d54	-0.43186438
218	0xbe93fd7d	-0.28904334
219	0xbf0e79c4	-0.5565455
220	0xbf025eb3	-0.5092575
221	0x3e285c17	0.1644138
222	0x3f3edc75	0.7455514
223	0xbe57a9a5	-0.21060808
224	0x3f99eb2e	1.2024896
225	0x3f2ff79d	0.687372
226	0x3f1a679c	0.60314345
227	0x3c0dbc95	0.0086509185
228	0xbf3e5683	-0.74350756
229	0xbf025aeb	-0.5091998
230	0x3f1508f7	0.58216804
231	0xbe4ee6ff	-0.20205306
232	0x3fad91da	1.3560135
233	0xbedbf44f	-0.4295983
234	0xbf3a3495	-0.72736484
235	0x3fd80fbb	1.68798
236	0xbf30e5e4	-0.69100785
237	0xbe159a66	-0.1460968
238	0x3ee9398e	0.45551723
239	0xbea7559a	-0.32682496
240	0x3f46cd12	0.7765666
241	0x3f0d16d6	0.5511297
242	0xbf3a4712	-0.72764695
243	0x3eebe122	0.460702
244	0x3f4485fd	0.7676695
245	0x3f006f62	0.50169957
246	0xc0111eca	-2.2675042
247	0x3f276ca1	0.6540013
248	0x3e07a8da	0.13248006
249	0x3f4b3808	0.7938237
250	0xbf846d16	-1.034579
251	0xbf180bac	-0.5939281
252	0x3f64725b	0.8923699
253	0xbed11257	-0.40834305
254	0xbee4c2eb	-0.4467996
255	0xbf3119a8	-0.69179773

fc1.bias f4 [64]
0	0x3fe5a42b	1.7940725
1	0x404b1c7a	3.173613
2	0x407e90d4	3.9775896
3	0x3f76a4a2	0.9634496
4	0xc04b6c46	-3.1784835
5	0xbfc1dcd4	-1.5145516
6	0xbf5b5329	-0.8567377
7	0xbd641507	-0.055684116
8	0xbff02564	-1.8761411
9	0xbfca9c5a	-1.5828965
10	0x406cf3ae	3.702373
11	0xbf9d4df5	-1.2289416
12	0xbf25d8a0	-0.6478367
13	0xbf9b4abe	-1.2132185
14	0xbf06fc19	-0.5272842
15	0xbf9e64c9	-1.2374507
16	0x40986dcb	4.7634025
17	0x3fc4cbf9	1.5374748
18	0x3ed929a0	0.4241457
19	0x40723004	3.7841806
20	0xc022e46b	-2.5451915
21	0x40401afc	3.001647
22	0xbfa20aa4	-1.2659497
23	0x3fe2e2ef	1.7725505
24	0xbf77567f	-0.9661636
25	0xbe2e4b79	-0.17020978
26	0xbdb53cff	-0.08849525
27	0x40158ac0	2.3365936
28	0x3f0a6c2f	0.54071325
29	0xc000c5df	-2.012077
30	0xc04caf1a	-3.1981874
31	0xbf8b81e3	-1.0899013
32	0xbfc61db5	-1.5477816
33	0x3f6b25df	0.9185466
34	0xc01a8753	-2.4145095
35	0x3ed5cad5	0.4175631
36	0xc085fe61	-4.187302
37	0x3f9c1e42	1.2196734
38	0x3e0c3a7c	0.13694185
39	0x3f64f436	0.89435136
40	0xbfc68cf8	-1.551177
41	0xbfcea4f5	-1.6144091
42	0x3fac1db3	1.3446563
43	0x3fb2b89c	1.3962588
44	0x3f399c34	0.7250397
45	0x3f6cf924	0.9256766
46	0x3f246fd9	0.64233166
47	0xbe506256	-0.20350012
48	0x400f675b	2.2406833
49	0x3f259146	0.64674795
50	0xbfccbda5	-1.5995375
51	0xbfe61f4e	-1.7978303
52	0xbe412455	-0.18861516
53	0x3f365300	0.712204
54	0xbf9d23eb	-1.2276586
55	0xbff5fb7a	-1.921737
56	0x3f434289	0.762734
57	0xc0333f0e	-2.8007236
58	0xc06b6c63	-3.6784904
59	0xbf43602f	-0.7631864
60	0x403d3c2a	2.9567971
61	0x3f83799c	1.0271487
62	0xbde95fa4	-0.11395195
63	0x3ffa4508	1.9552317

fc2.weight f4 [64, 64]
0	0xbe80ad06	-0.25132006
1	0xbcd76187	-0.026291622
2	0xbb6991da	-0.0035639913
3	0xbedbefcd	-0.4295639
4	0xbe613054	-0.21991092
5	0xbe86dd68	-0.26340795
6	0xbf185911	-0.59510905
7	0xbdab2b4e	-0.08357869
8	0xbf1e7234	-0.6189301
9	0x3d0e0df7	0.034681287
10	0xbe3feb94	-0.1874221
11	0xbebbeb87	-0.3670313
12	0xbeff4215	-0.49855104
13	0xbe7494b6	-0.23884854
14	0xbd82485c	-0.06361458
15	0xbe6e2613	-0.23256712
16	0xbee4066d	-0.44536152
17	0xbed81fdb	-0.42211804
18	0xbebb4600	-0.36576843
19	0xbebbb954	-0.36664832
20	0xbdbca409	-0.09210975
21	0xbebba0cb	-0.36646113
22	0xbe210091	-0.15722872
23	0xbef6132c	-0.48061502
24	0xbe57edd5	-0.2108682
25	0xbebbc99b	-0.3667725
26	0xbe5825cd	-0.2110817
27	0xbf03399a	-0.5125977
28	0xbe1facf1	-0.15593316
29	0xbf1bdedd	-0.6088694
30	0xbd259ddf	-0.04043376
31	0xbed06b93	-0.40707073
32	0xbe96c2d1	-0.29445508
33	0xbe403ef6	-0.18774018
34	0xbef454f4	-0.47721064
35	0xbf19ca79	-0.60074574
36	0x3e001085	0.12506302
37	0x3e8dfd56	0.27732342
38	0xbde1a1f1	-0.11017216
39	0x3cb9eebb	0.022696843
40	0xbeaedb83	-0.3415185
41	0xbecc5b02	-0.39913183
42	0xbe87b8b0	-0.26508093
43	0xbf124beb	-0.5714709
44	0x3cc537ae	0.024074402
45	0x3e57532f	0.21027826
46	0xbe7de4e4	-0.24794346
47	0xbed3b4da	-0.41348916
48	0xbef1de07	-0.47239706
49	0xbcddaf02	-0.02706099
50	0xbd457f68	-0.048217207
51	0xbdf023f0	-0.117256045
52	0x3e183188	0.14862645
53	0xbe71b952	-0.2360585
54	0x3e2b84bd	0.16749854
55	0xbe5c98c7	-0.21542655
56	0xbe37052d	-0.17873068
57	0xbc9efdb1	-0.019408079
58	0xbe44cf6e	-0.19219753
59	0xbf14cf14	-0.58128476
60	0xbca93085	-0.020653019
61	0xbe84e4d1	-0.25955823
62	0xbe27596f	-0.1634271
63	0xbee1bccd	-0.44089356
64	0xbfb24f4c	-1.393045
65	0xbef85202	-0.48500067
66	0xbe12d193	-0.14337759
67	0xbe23adc8	-0.15984261
68	0xbeadd4fe	-0.33951563
69	0xbe937295	-0.28798357
70	0xbfa1ff69	-1.265607
71	0xbe2d33af	-0.16914247
72	0xc012a1ed	-2.2911332
73	0xbed71c08	-0.42013574
74	0xbf9acdad	-1.2094017
75	0xbfca8348	-1.5821314
76	0xbfac3c5a	-1.3455918
77	0xbed1d5e5	-0.409835
78	0xbeb51b4b	-0.35372385
79	0xbdfd6363	-0.12372472
80	0x3d2849aa	0.041085877
81	0xbe2b1f96	-0.16711268
82	0xbe99ea41	-0.30061534
83	0xc02d40bf	-2.7070768
84	0xbf860c84	-1.047257
85	0xbeed4a72	-0.4634586
86	0xbfd7fcd2	-1.687403
87	0xbfbbe0e5	-1.4678007
88	0xbf0a8c0e	-0.54119956
89	0xc000c9c3	-2.0123146
90	0xbee414b4	-0.44547045
91	0xbf8582b2	-1.043051
92	0xbe952536	-0.29129952
93	0xbfdfdbd4	-1.7488961
94	0xbf1fefb1	-0.62475115
95	0xbfbb1f96	-1.4619014
96	0xbfcfac47	-1.622445
97	0xbffcc1ce	-1.9746644
98	0xbf8059ed	-1.0027443
99	0xbf8a6f25	-1.0815169
100	0xbb3511d8	-0.0027629044
101	0xbfc14dc5	-1.5101858
102	0xbff1c9c7	-1.8889703
103	0xbee27cc8	-0.44235826
104	0xbecd1fab	-0.40063223
105	0xbee50de3	-0.44737157
106	0xbf7bf254	-0.9841664
107	0xc0037578	-2.0540447
108	0xbd0eee0f	-0.034895
109	0xbfd373ef	-1.6519755
110	0xbecccd91	-0.40000585
111	0xbf0a2777	-0.5396647
112	0xbff0c4eb	-1.8810095
113	0xbf344b6c	-0.70427585
114	0xbfb2b5eb	-1.3961767
115	0xbed82f11	-0.4222341
116	0xbfcd35ba	-1.6032021
117	0xbfc5e45e	-1.5460317
118	0xbdcb4320	-0.099249125
119	0xbd86a9bc	-0.06575343
120	0xbe45c182	-0.19312099
121	0xbea64c91	-0.3248029
122	0xbf8ee0c7	-1.1162347
123	0xbdd3a880	-0.10334873
124	0xbe77a35d	-0.24183412
125	0xbec49cb4	-0.38400805
126	0xbe934464	-0.28763115
127	0xbfcfacb8	-1.6224585
128	0xbf02d7bc	-0.51110435
129	0xbe9c7844	-0.30560505
130	0xbed80174	-0.4218861
131	0xbeef3c5e	-0.46725744
132	0xbdbb2f7e	-0.09139918
133	0xbd8e0738	-0.069349706
134	0x3dce3681	0.100689895
135	0xbdf49e1d	-0.1194422
136	0xbe943258	-0.2894466
137	0x3d381c59	0.04494891
138	0xbec3c493	-0.38235912
139	0x3bf037db	0.0073308772
140	0xbf3c0f21	-0.73460585
141	0xbd775f52	-0.06039364
142	0xbd273c6d	-0.04082911
143	0x3e61347b	0.21992676
144	0xbe2f0207	-0.17090617
145	0xbe903a50	-0.2816949
146	0xbeb3ca62	-0.35115343
147	0xbea97935	-0.33100286
148	0xbe42a570	-0.19008422
149	0xbed5e4dc	-0.41776168
150	0xbe551ebb	-0.20812504
151	0xbe407e55	-0.18798192
152	0xbcb01e71	-0.02149889
153	0xbe3acd93	-0.18242483
154	0xbea61b67	-0.3244278
155	0xbe7b9095	-0.24566872
156	0xbd9eb3e6	-0.07749157
157	0xbe2b74fd	-0.16743846
158	0x3dc2871a	0.09498425
159	0x3e086681	0.13320352
160	0x3e92e1d8	0.2868793
161	0xbea903ce	-0.33010715
162	0x3de6a176	0.11261265
163	0xbe1ec8ea	-0.1550633
164	0xbdeca398	-0.115546405
165	0xbe463371	-0.19355561
166	0xbdad23dd	-0.08454106
167	0xbecec2b7	-0.4038293
168	0xbea4d65e	-0.321948
169	0xbde5b2bf	-0.11215734
170	0xbea2ea9c	-0.31819618
171	0xbeb5b940	-0.35492897
172	0xbe99bde8	-0.300277
173	0xbed967fa	-0.4246214
174	0xbde40e0f	-0.11135494
175	0xbd6dd92a	-0.058068432
176	0xbd8b2295	-0.067937054
177	0xbf442a33	-0.7662689
178	0xbdf8c636	-0.12147181
179	0xbe78f3d3	-0.24311762
180	0xbe40c7e6	-0.18826255
181	0xbd98bc34	-0.07457772
182	0xbd919587	-0.07108598
183	0x3e0e4bf3	0.1389616
184	0x3d2889cb	0.041147035
185	0x3d895031	0.067047484
186	0xbe79dc5f	-0.24400471
187	0xbe520dc8	-0.2051307
188	0xbe6adac1	-0.2293501
189	0xbd1e81cc	-0.038698003
190	0xbe1515ae	-0.14559051
191	0xbf143e8f	-0.57907957
192	0xbc33dda0	-0.0109781325
193	0xbf3d6bd9	-0.7399269
194	0xbd8cbfe9	-0.068725415
195	0xbf2323cb	-0.6372649
196	0x3ecaa36e	0.39577812
197	0xbf2e67be	-0.6812705
198	0xbf0f20f4	-0.5590966
199	0xbcd0db77	-0.025495274
200	0xbe6ad25d	-0.2293181
201	0xbf429939	-0.7601505
202	0xbe29e746	-0.1659213
203	0xbf56b3be	-0.83868015
204	0x3e49da82	0.1971226
205	0xbe1f09e9	-0.15531124
206	0xbeb74980	-0.35798264
207	0xbdbdc92c	-0.09266886
208	0xbea6adfb	-0.32554612
209	0xbec6daa1	-0.38838676
210	0x3e22d4dd	0.15901513
211	0xbe1eaef7	-0.15496431
212	0xbf0c80d3	-0.5488407
213	0x3e5a8ca6	0.21342716
214	0xbe0fb0c8	-0.1403228
215	0xbe97b4e7	-0.29630205
216	0xbf0baf0a	-0.54563963
217	0xbd598ce6	-0.053112887
218	0xbe87dab3	-0.26534042
219	0xbe48734c	-0.19575232
220	0x3e9237a1	0.28558066
221	0xbeb76315	-0.3581778
222	0x3d1cc1c6	0.038270734
223	0xbf0cfaea	-0.55070364
224	0x3e167ce5	0.14696081
225	0xbed7bcc1	-0.42136195
226	0xbf842e4c	-1.0326629
227	0xbf077b9f	-0.52923006
228	0xbf33b42d	-0.701968
229	0xbf480d7a	-0.78145564
230	0xbee256e2	-0.4420691
231	0xbf44973a	-0.76793253
232	0xbe4155e8	-0.18880427
233	0xbded7751	-0.115950234
234	0xbebdc066	-0.3706085
235	0xbdd2c53e	-0.10291527
236	0xbf1a57d7	-0.6029028
237	0xbeec9f2a	-0.46215183
238	0xbe91fb7c	-0.2851218
239	0x3e944887	0.28961584
240	0xbe8e14ef	-0.27750346
241	0xbec7f5f4	-0.39054835
242	0xbf2ed7b3	-0.6829788
243	0xbeef781d	-0.46771327
244	0xbf23133d	-0.6370123
245	0xba546c51	-0.00081032986
246	0xbe99218f	-0.29908416
247	0xbf24a673	-0.6431648
248	0xbf596922	-0.84926045
249	0xbf32bb86	-0.6981739
250	0xbf22476f	-0.6339025
251	0x3d332b1c	0.043742284
252	0xbf0b81d9	-0.54495007
253	0xbec51f80	-0.38500595
254	0xbf25572b	-0.6458613
255	0xbe257076	-0.16156182

fc2.bias f4 [64]
0	0xbece6e6e	-0.40318626
1	0xbf7c445d	-0.98541814
2	0xbe72f496	-0.23726115
3	0xbf0786df	-0.5294017
4	0xbee2e906	-0.44318408
5	0xbee8d811	-0.45477346
6	0xbef64163	-0.4809676
7	0xbfc688e2	-1.5510523
8	0xbf325a76	-0.6966928
9	0xbeb014e3	-0.34390935
10	0xbeb2130a	-0.3478015
11	0xbefa987a	-0.48944455
12	0xbf80c65f	-1.0060538
13	0xbf7ae5ae	-0.98006713
14	0xbf02d3e9	-0.511046
15	0xbe5a284c	-0.21304435
16	0xbe907328	-0.28212857
17	0xbe510291	-0.20411135
18	0xbe3ac319	-0.18238486
19	0xbe96d4d1	-0.2945924
20	0xbee06993	-0.43830547
21	0xbed81fab	-0.4221166
22	0xbecd7ab1	-0.4013267
23	0xbfc2c55a	-1.5216477
24	0xbe4e00fa	-0.2011756
25	0xbec50a28	-0.3848431
26	0xbf0da315	-0.5532697
27	0xbe045908	-0.12924588
28	0xbfa5234e	-1.2901399
29	0xbec5bf49	-0.38622501
30	0xbfeca125	-1.8486677
31	0xbee31866	-0.44354552
32	0xbed7cdff	-0.4214935
33	0xbf05ee00	-0.52316284
34	0xc0300c8c	-2.7507658
35	0xbf0ef985	-0.55849487
36	0xbeae77c3	-0.34075746
37	0xbe966e37	-0.29380962
38	0xbe8e7299	-0.27821806
39	0xbebfcca9	-0.3746083
40	0xbdf1bcb6	-0.11803572
41	0xbea47e15	-0.32127443
42	0xbeaaea41	-0.33381847
43	0xbf76bfb3	-0.9638626
44	0xbeb7e8bd	-0.35919753
45	0xbf0882ae	-0.533244
46	0xbeafc540	-0.34330177
47	0xbe8984c1	-0.26859096
48	0xbfa85a50	-1.3152561
49	0xbf12156a	-0.57063925
50	0xbe7d6f52	-0.24749497
51	0xbfdbc2be	-1.7168806
52	0xc0243792	-2.5658917
53	0xbf007dcd	-0.50191957
54	0xbe67e046	-0.22644147
55	0xbf9fb99c	-1.2478518
56	0xbf0c30ac	-0.5476177
57	0xbebf38d0	-0.37348032
58	0xbeb39794	-0.35076582
59	0xbe162dd4	-0.1466592
60	0xbf2042a7	-0.62601703
61	0xbfd8090b	-1.687776
62	0xbf3559ec	-0.70840335
63	0xbfa9903b	-1.3247141

fc3.weight f4 [1, 64]
0	0x3e65cb0c	0.22440737
1	0x3eb4ac6e	0.35287803
2	0x3ca6a784	0.02034355
3	0x3c90f33e	0.017694112
4	0x3e2c8855	0.16848882
5	0x3eb53ad3	0.35396442
6	0xbdab91d9	-0.083774276
7	0x3dfe6c80	0.124230385
8	0x3e5fdfcd	0.21862717
9	0xbd385412	-0.04500205
10	0x3ddf59ff	0.10905837
11	0x3dc7197c	0.09721658
12	0x3ebc08a1	0.36725333
13	0x3f123b6d	0.57121927
14	0x3dcd095a	0.10011549
15	0xbe88256c	-0.2659105
16	0x3dcda90d	0.100420095
17	0x3df40706	0.11915402
18	0x3e860522	0.2617579
19	0xbda41743	-0.08012249
20	0x3d96c672	0.07362069
21	0x3e4f8cbb	0.20268528
22	0x3ed5cfea	0.41760188
23	0xbf246784	-0.6422045
24	0x3dc302ce	0.09522019
25	0x3e3efc96	0.18651041
26	0x3dfbb6ae	0.12290703
27	0xbe193419	-0.1496128
28	0x3eb3a9d3	0.35090503
29	0x3e98c6a4	0.2983905
30	0x3f83dfec	1.030271
31	0x3df5fc75	0.12011043
32	0x3df67d24	0.120355874
33	0x3e5c1c3e	0.21495149
34	0x3ee2414a	0.44190437
35	0x3e57015a	0.2099661
36	0x3e9c694a	0.3054908
37	0x3e871bb9	0.26388338
38	0xbe3589aa	-0.17728296
39	0x3d510895	0.051033575
40	0x3c2df928	0.0106184855
41	0xbd2316e8	-0.039816767
42	0xbcd87cfa	-0.026426781
43	0xbdb1f433	-0.086891554
44	0x3da12189	0.078677244
45	0x3e434f4a	0.19073215
46	0x3e1bdc67	0.15220796
47	0x3db534e8	0.08847982
48	0x3ebaa89a	0.36456758
49	0x3d965f64	0.07342413
50	0xbcd63a22	-0.026150767
51	0xbf33801c	-0.70117354
52	0x3f25a341	0.6470223
53	0x3ec22523	0.37918958
54	0xbe374bd9	-0.17900027
55	0x3df31f65	0.118712224
56	0x3e0abe8a	0.13549247
57	0x3dd1ac78	0.10237974
58	0x3e99c284	0.30031216
59	0xbbe6efb8	-0.0070476197
60	0x3e6eef72	0.23333529
61	0x3f438de0	0.7638836
62	0xbe6dcdcf	-0.23223041
63	0xbe895606	-0.26823443
