trained_models_1L_5/connectivity_issue_model.pth (torch, 24479 bytes, 5 tensors)

fc1.weight f4 [64, 19]
000000 bd 33 eb bf b9 97 20 c1 71 ae 7f c1 ed 00 da 40
       -1.8375164 -10.037042 -15.980088 6.812613
000010 2d 38 61 bf 85 41 c4 3f e6 9d 1d 41 b6 f1 a0 c0
       -0.8797634 1.5332495 9.851049 -5.0295057
000020 69 59 62 c1 8b 5a 0a 41 5f db e5 40 e5 45 55 c2
       -14.146829 8.647105 7.1830287 -53.318256
000030 75 f7 98 40 6d 8d 31 c0 e3 7d 34 41 a6 9c ea 40
       4.780207 -2.774257 11.280734 7.331622
000040 9f ff cb c0 3e 17 24 41 f7 6f be 40 b2 d7 12 3f
       -6.3749537 10.255674 5.9511676 0.57360375
000050 39 1c c4 3e fa 2c 9a bf 0b 28 71 be b6 d2 64 bd
       0.38302782 -1.2044976 -0.23550431 -0.055865012
000060 c6 e2 c9 3e 2b bf 6d 3e 43 9d fe be 46 64 05 bf
       0.39430827 0.23217456 -0.49729356 -0.5210613
000070 31 43 a1 be 2a df cc 3e cd 3b a7 bf ca 7f 85 bc
       -0.31496575 0.4001401 -1.3065125 -0.016296286
000080 d6 e3 50 3d db 8d 53 be 79 39 98 3d 84 bb f8 3e
       0.05099853 -0.20659582 0.07432837 0.48580563
000090 e7 03 58 bd eb a6 29 3e ec 99 00 bf 05 d4 dd 3e
       -0.052738097 0.1656758 -0.50234866 0.4332582
0000a0 1d 40 89 bf 33 22 3a bf 17 54 cc bb 84 3d 53 3f
       -1.0722691 -0.72708434 -0.00623561 0.8251574
0000b0 11 18 bc be 5c 2d 55 bd d8 d7 44 bf 94 0f 88 3f
       -0.3673711 -0.05204521 -0.7689185 1.0629754
0000c0 ce 38 c2 bd 4a d9 23 c0 87 85 7b 3e ec d7 00 3e
       -0.09483491 -2.5601373 0.24562655 0.12582368
0000d0 b7 a3 a3 3e 72 75 e3 3d 77 12 c5 be 14 da 20 be
       0.31960842 0.11106385 -0.3849065 -0.1570819
0000e0 68 2c 7c 3d f8 84 3b 40 6e cd 2e be a0 66 59 bf
       0.061565787 2.9299908 -0.17070553 -0.8492222
0000f0 ef 1b 2c c0 41 6c 4b c0 a7 4c 4d 3f 06 18 bc 40
       -2.689205 -3.1784823 0.8019509 5.8779325
000100 e7 c5 bd bf f9 d3 44 be 74 25 c2 c0 7f 99 39 c0
       -1.482602 -0.19221486 -6.067072 -2.8999937
000110 b7 d9 1d c0 2e 69 46 c0 3e da 8a c0 af 8d 89 40
       -2.4664133 -3.1001697 -4.339141 4.2985454
000120 08 1d 45 c0 54 f2 b8 bd 48 7e 12 40 87 ae a9 40
       -3.079897 -0.090305954 2.2889576 5.3025546
000130 00 6c 44 3e 93 e2 1c 3f 70 d1 4d b9 bc 76 d2 be
       0.19181824 0.61283225 -0.00019628345 -0.41106212
000140 f7 6d bd bb d9 df 30 3e f0 e1 0b bf a6 c8 d3 bc
       -0.005780931 0.17272891 -0.5464163 -0.025852513
000150 33 87 ac be 40 43 57 be 97 6a 19 bf d4 50 47 bf
       -0.336969 -0.21021748 -0.5992827 -0.7785771
000160 bc a3 06 3f cd 0c 03 3e 1f a0 a9 be f9 ca 1c 3e
       0.5259359 0.12797852 -0.33129975 0.15311803
000170 ea f6 df bd fe eb da bd 3c a3 d8 bd e8 e7 f9 c0
       -0.10935767 -0.10689543 -0.105780095 -7.809559
000180 df 79 80 40 f7 d2 74 3f a1 50 68 bf b3 81 1f 41
       4.014877 0.95634407 -0.9074803 9.969165
000190 eb f3 d5 c0 bf 15 12 c1 df 76 43 40 c7 86 70 41
       -6.686025 -9.130309 3.0541303 15.032905
0001a0 f2 00 b2 c0 8b 0e 35 41 53 9a c4 c1 55 7e 33 3f
       -5.5626154 11.316051 -24.575354 0.7011464
0001b0 6a aa 99 3f f3 45 a3 40 3d 34 41 41 74 3b 75 c0
       1.2005131 5.1022887 12.0752535 -3.8317537
0001c0 bd fb 30 c0 89 2d e4 40 86 a9 cb 40 3c aa 23 41
       -2.765365 7.1305585 6.364444 10.229061
0001d0 d2 66 30 c1 3a 44 15 c1 3b ee d6 c0 a8 0c 65 be
       -11.025103 -9.329157 -6.716581 -0.22368109
0001e0 a8 c0 aa c0 5e bc 98 bf db b2 eb 3f 1a c9 4a c0
       -5.3360176 -1.1932485 1.8413957 -3.1685243
0001f0 82 a3 91 40 ba c4 d1 c1 66 df fd 40 c7 2d 5b bf
       4.5512094 -26.221058 7.9335203 -0.85616726
000200 38 38 f7 c0 b1 10 f3 40 70 ea fa bf 1b 7e b6 40
       -7.7256126 7.5957875 -1.9602795 5.7028937
000210 ef 29 75 c1 81 f1 f0 c0 54 43 89 40 32 c0 ea bf
       -15.322738 -7.5294805 4.289469 -1.8339903
000220 cd d1 4e bf 75 9c 83 40 84 5e 14 41 f3 47 21 40
       -0.8078888 4.1128488 9.273075 2.5200164
000230 12 b8 52 c1 fc 02 0f 40 10 4b 12 41 6b 49 68 c1
       -13.169939 2.2345572 9.143326 -14.517924
000240 2b 9b d8 c1 7f 59 48 bf 5b 15 2d c0 7d f3 c3 40
       -27.075766 -0.7826156 -2.7044284 6.1234727
000250 75 43 87 c1 a5 0a cc 40 6f 46 f9 40 3c bf 04 c0
       -16.907938 6.3762994 7.789848 -2.074172
000260 9d 1b 1d bf 13 81 d3 3e 4d 3d 54 be b7 34 93 be
       -0.6137026 0.41309413 -0.2072651 -0.28751156
000270 1f fc 44 bf 21 69 8b bd cc ee 6a bf 1d 43 75 3f
       -0.76947206 -0.06807161 -0.91770625 0.9580553
000280 5b 4e ab be a4 54 cf bd 3a ec e6 bd b2 69 09 be
       -0.33458218 -0.10123566 -0.112755254 -0.13419226
000290 4b 3f b4 3d 3d 41 95 3e ff b0 f5 bd 80 d8 8c 3d
       0.08801135 0.29151335 -0.1199665 0.068772316
0002a0 f9 94 b9 bd 5f 1b 47 bf 45 d2 2e bf 26 f0 3b bd
       -0.090616174 -0.7777614 -0.68289596 -0.04588332
0002b0 af 86 70 3d c8 b1 7b bc 11 6f ea bd 21 76 cd 3e
       0.058722194 -0.015362211 -0.114469655 0.40129188
0002c0 55 a9 0a 3c 13 3f 69 be 14 42 0a be c2 a5 e3 bd
       0.008463223 -0.22777967 -0.1350177 -0.111156
0002d0 9f 24 49 be e7 c2 74 be 94 90 b8 40 99 aa 82 be
       -0.19642876 -0.23902474 5.7676487 -0.2552078
0002e0 79 62 9b bf 85 cd eb be be 2a 2a 3e a6 c0 8b be
       -1.2139426 -0.46055236 0.16617867 -0.27295417
0002f0 85 a4 0e 3e 2e 34 0f 3e dc cc 8f be a5 80 ac be
       0.13929947 0.13984749 -0.28085983 -0.33691898
000300 7d ec b0 be 44 f3 0a be 4b a5 09 3e fc 98 0b bf
       -0.34555426 -0.13569361 0.1344196 -0.5453031
000310 52 7d 21 3d bc 64 80 3e 4d 46 4c 3e d4 ca 34 bd
       0.039426155 0.25076854 0.19948693 -0.044138744
000320 48 7c 0f 3d 0e 8c cd be 2f 56 3a 3d 90 aa 0f 3f
       0.035030633 -0.40145916 0.045492347 0.5611963
000330 54 05 c7 be 84 27 70 3d 4d 70 c1 3e a3 6e 22 3e
       -0.38871253 0.058631435 0.3778099 0.15862517
000340 98 73 d1 be 33 65 37 be b0 41 8d be 0b d3 62 3e
       -0.40908504 -0.17909698 -0.27589178 0.22150819
000350 78 e0 91 3e d0 a1 9f bc b8 1d 0a be 91 9d 6e be
       0.2849157 -0.019486338 -0.134879 -0.23302294
000360 38 32 bc bc ab e9 96 be 2e 26 eb 3c 82 5f 80 3d
       -0.022973165 -0.2947515 0.028704729 0.06268217
000370 3f f4 b7 3d 17 ac 41 3e 73 48 20 3e 36 c9 04 be
       0.08982133 0.18913303 0.15652637 -0.12967381
000380 b0 c4 4e 3e 43 75 cc be 29 68 68 be 50 fd 0e 3e
       0.20192218 -0.39933214 -0.22695984 0.13963819
000390 2b 66 83 40 8f 1a f6 40 72 35 2c bf 71 c0 56 c1
       4.1062217 7.690742 -0.6726905 -13.421983
0003a0 2a d0 e2 c0 d3 40 52 40 6b 8f 28 c1 4c 54 11 40
       -7.0879107 3.2852066 -10.535014 2.27077
0003b0 c7 64 ed 40 ba c9 89 c0 b8 02 2d 41 1f 79 2a c2
       7.418552 -4.305875 10.813164 -42.618282
0003c0 96 4c e1 40 14 c2 e0 3f 36 80 4d c0 db 09 05 41
       7.040599 1.7559228 -3.2109504 8.314906
0003d0 5a 16 67 40 84 03 73 40 17 35 0a 40 6a 02 9e c0
       3.6107392 3.7970896 2.1594903 -4.9377947
0003e0 3d 44 cd 40 4b ed c9 bf bd d5 31 c0 83 5f 4e 40
       6.41458 -1.5775541 -2.7786705 3.2245796
0003f0 58 73 07 40 4a d2 28 c1 e5 40 97 3f e6 57 22 c0
       2.116415 -10.55134 1.1816679 -2.536615

fc1.bias f4 [64]
000000 58 9d 72 c2 b6 63 03 c1 26 98 30 c1 7e da 4f c2
       -60.653656 -8.2118435 -11.037146 -51.96337
000010 66 6e d7 c0 27 2d 6a c2 1d a7 62 c2 1f 8e 74 c2
       -6.7322264 -58.544094 -56.663197 -61.13879
000020 75 64 d8 c0 65 d7 54 bf 55 5d a5 c0 b1 a7 5a c0
       -6.762263 -0.83141166 -5.167643 -3.416485
000030 e2 d5 52 c2 c5 cc 54 c2 cf ae 67 c2 88 0a 45 c2
       -52.70887 -53.19997 -57.92071 -49.260284
000040 6e c0 56 c1 23 3f ee c0 99 31 16 c0 ef 63 52 c2
       -13.42198 -7.445207 -2.3467772 -52.59759
000050 16 a0 14 c1 62 f9 73 c0 14 ea 9f c0 01 78 e6 c0
       -9.2890835 -3.812096 -4.997324 -7.202149
000060 ec 46 a1 c0 80 30 3c c2 3a 37 ae c0 71 f4 e5 c0
       -5.0399075 -47.047363 -5.4442415 -7.186089
000070 96 18 36 c2 87 2e 2a c1 33 f1 09 c2 97 29 6f c2
       -45.52401 -10.636359 -34.485546 -59.790615
000080 b3 cd e7 bf 27 3d 8e c0 2c b2 7b c1 1f c1 d7 c0
       -1.810965 -4.444965 -15.730999 -6.7423244
000090 9d ad 75 c2 ef 82 ab c0 41 67 15 c0 0a 60 9a bf
       -61.419544 -5.359733 -2.334427 -1.2060559
0000a0 86 05 74 c1 47 db 06 c1 a4 5e 9b bf 6d 2d 95 bf
       -15.2513485 -8.4285345 -1.2138257 -1.1654488
0000b0 a8 c0 0b c1 a6 42 ce c0 eb ed 50 c2 1d 29 22 c2
       -8.734535 -6.445636 -52.23234 -40.54015
0000c0 0d 75 78 c0 41 8c be c0 3a 67 47 c2 a5 ba 0c c1
       -3.8821442 -5.954621 -49.850807 -8.7955675
0000d0 a8 93 16 c2 9e 84 93 c0 93 f1 99 c0 4d a5 4c c0
       -37.644196 -4.6099386 -4.810739 -3.1975892
0000e0 4d 91 6a c1 d6 41 3a c2 65 e0 0a c2 d2 75 7d c2
       -14.660474 -46.564293 -34.719135 -63.36506
0000f0 93 fc 1c c2 72 64 cb c0 fa 6a 97 c0 2e 2f 45 c2
       -39.246655 -6.3560114 -4.7318087 -49.296074

fc2.weight f4 [64, 64]
000000 16 e0 ce bd 14 1b 8c bc b6 43 b9 bd e9 97 cf be
       -0.10101335 -0.017102756 -0.09046118 -0.40545586
000010 e9 4f 12 bd cf 8b 1f bf 92 92 e2 be c7 6f 45 bc
       -0.03572074 -0.62322706 -0.4425245 -0.012050576
000020 11 6c 1f 3c 41 c1 d8 bc d2 e1 29 bd 2b c1 2b be
       0.009730355 -0.026459338 -0.041475125 -0.16772906
000030 81 fa 53 bf af 08 bd bd 39 bc 47 bd 29 82 46 bd
       -0.82804114 -0.09230172 -0.048763487 -0.048463974
000040 34 7f b4 bd b3 13 96 bd 85 52 24 be 63 94 71 bf
       -0.088133246 -0.07327976 -0.16047104 -0.94367045
000050 39 ab 3d be 26 88 49 3d 18 56 7d bd 7f 0d 1c be
       -0.18522348 0.049202107 -0.061849684 -0.15239523
000060 5f 05 97 bd 60 f7 39 bd ce d7 a6 bd d5 d0 08 be
       -0.07374071 -0.04540193 -0.0814663 -0.13360913
000070 7e 31 4b be 63 ee 2b 3a 9a 17 fd be 20 20 15 bd
       -0.19843099 0.0006558655 -0.4943207 -0.03640759
000080 86 63 5c bd 35 8d 56 be a2 fd e2 bd dd 26 4b bd
       -0.05380585 -0.20952304 -0.11083533 -0.04959761
000090 94 e4 b7 bc 65 00 22 be 87 40 31 be 24 af 07 be
       -0.022447862 -0.15820463 -0.17309771 -0.13250405
0000a0 ef cb 60 be f5 43 05 bd 3f 12 e6 bd b9 48 24 be
       -0.21952794 -0.032535512 -0.11233949 -0.16043366
0000b0 37 25 d8 bc 22 29 0b bd 5d 38 a6 3a f7 f1 c2 bc
       -0.026384933 -0.033974774 0.0012681592 -0.023797018
0000c0 a8 c5 38 be f2 53 36 be d9 79 29 be fd 20 f9 3b
       -0.1804415 -0.1780546 -0.16550387 0.0076028095
0000d0 69 5d 85 be 8d c5 ab 3c 53 b7 84 be 0e bc 1b 3d
       -0.2604783 0.020968223 -0.25921115 0.03802114
0000e0 49 cd 06 be 96 81 02 bf 6e ef bb bd 53 89 6c be
       -0.13164248 -0.5097898 -0.09176527 -0.2309926
0000f0 1d f6 e9 be 52 df b2 3c 08 81 24 bd b0 84 14 bf
       -0.45695582 0.021835003 -0.040162116 -0.58014965
000100 f3 85 ff be 02 bc 04 3c 16 40 2a bf 9d 6c 14 bb
       -0.49906883 0.008101465 -0.6650404 -0.0022647746
000110 8d 6a 8e bf a3 65 c9 bf 70 ac d9 be 5e e4 b1 bf
       -1.1126267 -1.5734142 -0.42514372 -1.3897817
000120 e7 41 31 bf 0f e4 68 bf 19 0d 90 bf ca 9a 22 bf
       -0.69241184 -0.9097299 -1.1253997 -0.6351744
000130 8b 89 3e bf 99 df 76 be 35 0a 3d bf aa e3 51 bf
       -0.74428624 -0.24108733 -0.738437 -0.8198801
000140 f0 d3 13 bf 78 a8 6b bf 78 93 25 bf bd 16 d0 bf
       -0.57745266 -0.9205394 -0.64678144 -1.6256939
000150 e4 2e 83 bf eb a2 1f bf 98 32 a7 be 8d 7d da bf
       -1.0248685 -0.6235797 -0.32655787 -1.7069565
000160 df c8 73 bf ec 50 a7 bf dc 33 42 bf 8b 6d 33 3f
       -0.9522838 -1.307157 -0.7586038 0.70089024
000170 c7 1f 27 bf dd aa b1 bf bb 03 94 bd 57 1d 5e bf
       -0.65282863 -1.3880268 -0.07227274 -0.8676352
000180 ea 76 a9 be 87 42 39 bd ef 1a 9f bf d4 b6 73 3e
       -0.33098537 -0.04522946 -1.2430094 0.23800212
000190 d0 44 79 be 50 a2 95 bf 2a d9 85 be e9 85 9c bd
       -0.24342656 -1.1690159 -0.26142246 -0.07642729
0001a0 ee ae d2 bd 3a e2 c6 bf f9 b2 58 be 44 35 03 be
       -0.102872714 -1.5537789 -0.21162023 -0.12813288
0001b0 2f 14 1d bf 56 50 9a bf d3 0f dc be 59 49 db be
       -0.6135892 -1.2055767 -0.42980823 -0.42829397
0001c0 03 f8 5f bb 92 6e ce 3e 67 aa 70 be 34 70 22 be
       -0.0034174926 0.40318733 -0.23502503 -0.15863115
0001d0 c6 2a a2 bf ab ea 29 be fc 1a 8d be 72 62 87 3e
       -1.2669303 -0.16593425 -0.2755965 0.26442295
0001e0 3b a1 77 bf bc 59 8f bf 02 06 e6 be 31 e0 74 bf
       -0.96730393 -1.119926 -0.4492646 -0.9565459
0001f0 2a 17 85 bf 1a e8 5b bf 39 b9 67 3d c7 23 f2 3c
       -1.0397694 -0.85901034 0.056573126 0.029558076
000200 ca 56 58 bf 50 ab c8 3c 01 67 32 c0 b0 da db bf
       -0.8450743 0.02449575 -2.7875369 -1.7176113
000210 f9 da 1a 3f 70 83 cc bf 5b 4b 25 bf 3c fe b6 bf
       0.60490376 -1.5977612 -0.6456811 -1.4296336
000220 4e ed 8e 3f 84 52 76 c0 d3 29 d6 be fd 56 64 3e
       1.116617 -3.8487864 -0.41828784 0.22298808
000230 c4 15 a0 bf ce 45 87 bf 8a 23 fc bf 76 5a 55 3e
       -1.2506642 -1.0568178 -1.9698346 0.2083529
000240 78 3e 3c bc 10 c9 bf bf d4 df 8f be 7f 5b 02 c0
       -0.011489503 -1.4983234 -0.28100455 -2.0368345
000250 bf 09 62 bf 32 30 9f be 00 9b e1 be d8 22 6d bf
       -0.8829612 -0.31091458 -0.44063568 -0.9263129
000260 6b 6a 64 3e 09 fa 36 bf 42 69 b3 be f9 3d b2 bf
       0.2230622 -0.71475273 -0.35041243 -1.3925163
000270 d3 bf 78 3e e4 78 b4 be 7b 9d 60 bf 0d d3 46 bf
       0.24291925 -0.35248482 -0.87740296 -0.7766579
000280 03 9c 4a 3e da b0 32 be 43 e5 b7 be 0d 83 21 3e
       0.19786076 -0.17450276 -0.359171 0.15772648
000290 7e 69 96 be f6 ed 17 bd c7 a7 5b be a4 1f 17 bf
       -0.2937736 -0.03709217 -0.2145072 -0.59032655
0002a0 5e 48 19 c0 7d d5 78 bf 3a c3 d2 bc ab 40 98 be
       -2.395042 -0.9720076 -0.025727857 -0.29736838
0002b0 1e fc 87 3e 2a 0a 65 be f8 86 7a be fa 20 34 bd
       0.26559538 -0.22367159 -0.24465549 -0.04397676
0002c0 37 16 a0 bd 1e 1b 76 bf 7c 56 a5 bf 1c 02 34 bf
       -0.07816737 -0.9613513 -1.2917018 -0.7031572
0002d0 ed 0a 9b bf 01 1f b3 bd 2d c1 3b bd a3 b8 2c 3d
       -1.2112709 -0.08746148 -0.045838524 0.04216827
0002e0 26 05 42 3f 14 92 1a bf 01 b8 bd be eb d7 3f 3e
       0.75789106 -0.6037915 -0.37054446 0.1873471
0002f0 79 e0 b8 bd ca d8 87 be 18 d5 8b be 1f af 23 bf
       -0.0902719 -0.26532584 -0.27311015 -0.6393909
000300 5b 08 69 bf 2b cf 7e be 8f b6 2c bf 2a ef 3c be
       -0.91028374 -0.24883716 -0.6746606 -0.18450609
000310 35 77 79 be d4 1c 84 bf da 5a ec be 7f b4 7a bf
       -0.2436188 -1.0321298 -0.46163064 -0.97931665
000320 ef 2d d5 be 9b 79 2f bf 5f 15 7d be 16 28 3f be
       -0.41636607 -0.6854493 -0.24715184 -0.18667635
000330 cd a8 5b bf 80 63 35 be dc c9 85 bf fd c6 10 3d
       -0.85804445 -0.17713737 -1.0452228 0.03534602
000340 29 63 59 bd 43 c3 86 3e d2 72 32 be e9 a8 d6 bf
       -0.053073082 0.26320848 -0.17426613 -1.6770297
000350 d6 df 44 be e0 8c f3 bd ed 1b 99 be 0d af 51 be
       -0.19226012 -0.11892104 -0.29904118 -0.20476933
000360 77 33 a9 bd 51 f9 81 bf af 66 e2 be d1 00 06 be
       -0.08261769 -1.015421 -0.44218966 -0.13086249
000370 ae ca 2f bf 81 ad cf be 51 e4 d0 be 76 74 43 be
       -0.6866864 -0.4056206 -0.40799192 -0.19087395
000380 a8 96 99 bd 7d ce 20 3c 44 ef 0f be 65 d5 90 be
       -0.074994385 0.009814856 -0.14056116 -0.28287807
000390 40 35 33 bf 95 32 c3 be dc 0b ae be c6 0e 86 3d
       -0.7000313 -0.3812453 -0.33993423 0.065457866
0003a0 32 a0 89 be a8 e7 c4 be 6c 80 9b 3d fa 27 e6 bd
       -0.26880032 -0.3845799 0.07592854 -0.11238094
0003b0 ad a0 8d 3e 0d 3e 93 be d2 3c a4 bd 96 41 da be
       0.27661648 -0.28758278 -0.08019413 -0.42628163
0003c0 a9 98 0a be dd a7 4f bd 5b a5 d3 be a3 1d eb bd
       -0.13534798 -0.050697196 -0.41337094 -0.11480262
0003d0 49 16 c9 be b3 d6 ff be 12 e9 b6 be 73 10 fa be
       -0.39274815 -0.4996849 -0.35724694 -0.48840675
0003e0 f9 a7 10 be 1f a5 88 bf e2 55 8b bf 64 03 f7 be
       -0.14126576 -1.0675391 -1.0885584 -0.48244774
0003f0 75 21 dc bd 52 58 8d be f8 ac 0b bf f6 24 2b bf
       -0.10748569 -0.27606446 -0.54560804 -0.6685327

fc2.bias f4 [64]
000000 80 ce 4f be b9 b5 09 c0 2e ba 19 c1 da fb 15 c0
       -0.20293617 -2.1517165 -9.607954 -2.3434968
000010 4f a5 c1 bf 5c 97 51 c1 46 ba b2 bf 27 83 39 bf
       -1.5128573 -13.099453 -1.3963096 -0.7246575
000020 80 90 82 c0 27 88 af bf 44 5d 52 c0 58 22 ca bf
       -4.080139 -1.3713425 -3.2869425 -1.5791731
000030 b7 d6 25 be ae dc 06 bf d7 ba 8f c0 ab 76 76 bf
       -0.16195188 -0.5268048 -4.4915576 -0.9627482
000040 74 7d 01 c0 3a af c0 bf f9 f0 05 c1 04 8c 0e c0
       -2.023282 -1.5053475 -8.371331 -2.2272959
000050 db 6e b3 bf ea 7f 8f c0 41 c8 3b c0 6d 41 a3 bf
       -1.4018205 -4.4843645 -2.9340975 -1.2754341
000060 d4 63 03 c0 74 e6 bd c0 f9 9a a0 c0 67 0a bc c0
       -2.052968 -5.9343815 -5.0189176 -5.87627
000070 8e 6c 63 bf d9 8e 94 bf d8 87 07 40 71 00 03 c0
       -0.88837516 -1.1606094 2.1176662 -2.046902
000080 0c 52 b4 bf 45 b7 a1 bf e7 d6 b5 bf 4f 31 d3 bf
       -1.4087539 -1.2634054 -1.4206208 -1.6499423
000090 04 f9 46 c0 5c 46 f1 c0 37 7b bc c1 9c c7 b7 bf
       -3.1089487 -7.539839 -23.560163 -1.4357791
0000a0 3c be ad c0 9d e9 99 c0 5c a0 95 bf 6d 35 96 c0
       -5.429472 -4.8097672 -1.1689563 -4.6940217
0000b0 7a 3b b7 c0 f0 51 d8 bf 41 d0 93 c0 39 7c 7f bf
       -5.7260103 -1.6900005 -4.6191716 -0.99798924
0000c0 4c 6e ef c0 d2 1d 2e bf b4 4a cf c0 ce 1a b8 c0
       -7.482214 -0.6801425 -6.477869 -5.753272
0000d0 7c cc 5b bf e7 30 ce bf 72 bf 93 bf 3e d0 ba bf
       -0.85858893 -1.6108674 -1.15428 -1.45948
0000e0 6a ff a2 bf 59 b3 93 bf bd d4 04 c0 d2 03 1a c0
       -1.2734196 -1.1539108 -2.0754845 -2.4064832
0000f0 2a f8 0d c0 4a c5 f6 bf c3 34 d3 bf ff a8 a7 bf
       -2.2182717 -1.9278958 -1.6500477 -1.3098449

fc3.weight f4 [1, 64]
000000 ac db ed be c6 e8 de be 0a 10 85 3e e2 52 23 3e
       -0.4645666 -0.43536967 0.259888 0.15949586
000010 b3 8a 00 3e e5 26 c1 3e 9b 30 5d 3e 75 f3 a6 bc
       0.1255291 0.37724987 0.21600573 -0.020379761
000020 9b 1f 07 be ab 8d 8e 3e cd 5d 96 be ec 88 09 3e
       -0.1319565 0.2784246 -0.2936844 0.13431138
000030 a8 4a cc bd 89 d2 a1 3e e9 28 79 3e a7 fe de be
       -0.09975177 0.31605938 0.24332012 -0.4355366
000040 7c 0f 8b 3e 4a 28 4e bb e5 0a aa bd 6d 66 9d be
       0.2716025 -0.003145712 -0.08302859 -0.30742207
000050 0a 66 91 3e 30 16 fc bd 69 11 50 3e 31 77 bd 3d
       0.28398162 -0.123089194 0.20319141 0.092512496
000060 c5 e8 0b bf 4c 0b 77 3e 61 a0 0d 3e 12 94 de bd
       -0.54652053 0.24125403 0.13830711 -0.10868086
000070 a0 77 db be f8 24 87 be 9c 6a a9 3e 3f 32 9b bd
       -0.42864704 -0.26395392 0.3308915 -0.07577943
000080 15 bb 24 bd b5 3b a5 bd e3 32 8a be ec a4 a6 3e
       -0.040217478 -0.08068029 -0.26991948 0.325477
000090 16 ec c2 be 35 17 87 be 49 4a 60 3e 65 04 15 be
       -0.38070744 -0.26384893 0.21903338 -0.14552458
0000a0 94 af 63 3e 61 ed da 3e dd 6e a1 be 8d 51 1f be
       0.22234946 0.4275923 -0.31529894 -0.15558453
0000b0 51 0e ae be 67 75 e7 3e 16 d6 54 3e c6 e5 4d bd
       -0.33995298 0.45206758 0.20784792 -0.050267957
0000c0 0e d2 97 bd 29 16 e9 be e3 c1 2d 3e 7b fd 97 be
       -0.074131116 -0.4552472 0.16968493 -0.29685578
0000d0 3e d8 17 be c1 22 c4 be fa 01 ba be fd d4 34 be
       -0.14828584 -0.38307765 -0.36329633 -0.17659374
0000e0 34 cb 10 bd 6b 04 f3 be 09 77 8d 3e 53 07 a5 3e
       -0.03535004 -0.47464308 0.2762988 0.3223215
0000f0 05 d8 4d be f4 71 03 3e 60 d3 ac be bd e1 a9 3c
       -0.20101936 0.12836438 -0.33755016 0.020737523
