trained_models_1L_5/firmware_update_model.pth (torch, 24391 bytes, 5 tensors)

fc1.weight f4 [64, 19]
0	0x3fe42a98	1.7825499
1	0x40961575	4.6901193
2	0x3f632cf7	0.88740486
3	0x40761be4	3.8454523
4	0xc127aa50	-10.47908
5	0xbdf3fd94	-0.119136006
6	0xc09b90f4	-4.8614445
7	0x4130c555	11.048177
8	0x41072ed5	8.448934
9	0x3ec40ba8	0.38290143
10	0x40c6c4c3	6.211519
11	0x402d1ff0	2.7050743
12	0x411d7cba	9.842951
13	0x3fa03178	1.2515097
14	0xc1f24cca	-30.287495
15	0xc16efcf8	-14.93676
16	0xc0107036	-2.2568488
17	0xc0179169	-2.3682501
18	0x3f9c83cd	1.2227722
19	0xc06ff866	-3.749536
20	0xc07cb46a	-3.9485116
21	0xc0d879f0	-6.764885
22	0xbeb6eb42	-0.35726362
23	0xc107a8cd	-8.478711
24	0x400b9800	2.1811523
25	0xc0c0ea8a	-6.0286303
26	0xbffa5800	-1.9558105
27	0xc07c4f8d	-3.9423554
28	0xc06ab2a3	-3.6671531
29	0x40cc1b91	6.378365
30	0xbf4115ec	-0.75424075
31	0x4125bd3a	10.358698
32	0xc0bc2ba5	-5.8803277
33	0xc1e3df89	-28.484148
34	0xc0b547ef	-5.665031
35	0xc0d37533	-6.6080565
36	0xc11be3b2	-9.74309
37	0x3f520604	0.8204043
38	0x416aa28c	14.664684
39	0xc10c89a2	-8.783602
40	0x4126e52b	10.430949
41	0x40f7753b	7.7330604
42	0xc0d7fb44	-6.749422
43	0x412b8fb2	10.722582
44	0x40a6216c	5.19158
45	0x412816f6	10.505606
46	0xc05bf94b	-3.4370906
47	0xc0802f4e	-4.0057745
48	0x410d822a	8.844278
49	0xc17e8602	-15.907717
50	0x41799a1a	15.600122
51	0xc105876c	-8.345562
52	0xc17de61b	-15.868678
53	0x40bb9486	5.8618803
54	0xc0acf265	-5.404589
55	0x3f1d58c9	0.614636
56	0x41158ea7	9.347327
57	0x40b9803d	5.796904
58	0x40d27b83	6.577577
59	0xc137d45c	-11.489346
60	0x40d6e4f0	6.7154465
61	0xbdece42d	-0.115669586
62	0xc0a8effb	-5.2792945
63	0x3f52812f	0.8222837
64	0xc0f6f239	-7.717068
65	0xc10e3241	-8.887269
66	0xc0ec58db	-7.3858466
67	0xc054ee69	-3.3270514
68	0x406d18f8	3.704649
69	0x409a930b	4.8304496
70	0xbee48293	-0.4463087
71	0xc1d6a997	-26.832808
72	0xbeff2773	-0.49834785
73	0x401ce417	2.4514215
74	0xbfe5cdbe	-1.7953413
75	0x410c4891	8.767716
76	0xc00cdf25	-2.2011197
77	0xc0b12b8e	-5.5365667
78	0x40f02c19	7.505383
79	0x3f0c7e74	0.5488045
80	0xc02d22f2	-2.705258
81	0x4068bd09	3.6365378
82	0xbd82f39e	-0.063941225
83	0x404d85e4	3.211297
84	0xbe9cbfff	-0.3061523
85	0xbee4d734	-0.44695437
86	0x4110619d	9.023831
87	0x40338f09	2.8056052
88	0xc12b2b4c	-10.698071
89	0xc0e2e5db	-7.0905585
90	0xc1e3eeb2	-28.49155
91	0x4153f4de	13.247282
92	0x40419844	3.0249186
93	0x4019ff82	2.40622
94	0xbf89c6e3	-1.076382
95	0x3ebf4693	0.3735853
96	0x3d421744	0.04738547
97	0xbce9148e	-0.028452184
98	0xbf5dbe67	-0.86618656
99	0xc11bef0a	-9.745859
100	0x400b1c20	2.1735916
101	0x403d61ad	2.9590867
102	0xbe75db6d	-0.24009486
103	0x40abe24a	5.371373
104	0xc133b147	-11.230781
105	0xc120837b	-10.0321
106	0x4072b0f7	3.792051
107	0xbf2a86fc	-0.6661222
108	0x40be2dd2	5.9430933
109	0xc1f655c5	-30.79188
110	0xc151806d	-13.093854
111	0x4072bec8	3.7928944
112	0xc041959e	-3.024757
113	0x40913808	4.5380898
114	0xbf32a59d	-0.69783956
115	0x3f81ca04	1.0139775
116	0x3ecdda26	0.40205497
117	0x3e21f3df	0.15815686
118	0xbf6b5352	-0.9192401
119	0xc0294506	-2.6448379
120	0xc018433f	-2.3791044
121	0x3f12c2f6	0.57328737
122	0xc0492546	-3.1429
123	0xbee90f0d	-0.45519295
124	0xbf5ab852	-0.854375
125	0x3f4757b5	0.77868205
126	0xbfcb2b14	-1.5872521
127	0x3eed6a6c	0.46370256
128	0xc0ffb5b2	-7.9909296
129	0xbf373d90	-0.7157831
130	0x3ea3a6c7	0.3196318
131	0x3f6f1dd6	0.934049
132	0x3fa6f07a	1.3042138
133	0x3cbd0fc0	0.0230788
134	0x3cc68aa2	0.024236027
135	0xbc4a8660	-0.012361139
136	0xbcf73174	-0.030174948
137	0x3c61adff	0.013774394
138	0xbd0b416c	-0.033997938
139	0xbb962c97	-0.0045829522
140	0x3d100ed5	0.035170395
141	0xbccac230	-0.024750799
142	0xbd49d8c3	-0.049278986
143	0xbd598a22	-0.05311025
144	0xbd33a125	-0.04385485
145	0xbd25da33	-0.040491294
146	0xbc6132ca	-0.013745019
147	0x3ccfff91	0.025390418
148	0xbddd343b	-0.10800978
149	0x3a91d37e	0.0011125652
150	0xbd99c9b2	-0.075091735
151	0xbc4e51a4	-0.012592707
152	0x41367a40	11.404846
153	0xc121025c	-10.063076
154	0x40864142	4.195466
155	0x403a4103	2.910218
156	0xc172b457	-15.169028
157	0x4117ca0c	9.486828
158	0xc169334c	-14.575024
159	0xc01633e1	-2.3469164
160	0x4050a981	3.2603457
161	0xc07145e8	-3.7698917
162	0xbdef17eb	-0.11674484
163	0x40c63e76	6.1951246
164	0xc0eef01d	-7.4668107
165	0xc0e4757e	-7.1393423
166	0xc207f8a1	-33.9928
167	0x4095778c	4.670843
168	0xc148e385	-12.555547
169	0xc04d3f24	-3.2069788
170	0x4119d8e0	9.615448
171	0x400aef9b	2.1708744
172	0xc037b3ae	-2.8703418
173	0x3f2d655b	0.6773278
174	0xc0aabd62	-5.335618
175	0x3fe6e896	1.803973
176	0xc04284f8	-3.0393658
177	0xc0a2e891	-5.0908895
178	0xc0a2c319	-5.0863156
179	0xc11e265f	-9.884368
180	0x40b65bce	5.6987066
181	0xbfb316a4	-1.3991284
182	0x3f8bbb04	1.0916448
183	0xc0de551f	-6.9478908
184	0x3ce5e2bf	0.028062223
185	0xc1f59347	-30.696913
186	0xbfe67b1c	-1.800632
187	0xc1348460	-11.282318
188	0x40817c32	4.0464106
189	0xc0d2d747	-6.588779
190	0x40cded66	6.4352293
191	0x40aa152c	5.3150845
192	0x40c7b747	6.2411227
193	0xbf12713f	-0.5720405
194	0x40e83b53	7.2572417
195	0xc1023ad0	-8.1393585
196	0xc04ecabe	-3.2311244
197	0x3e9f59f3	0.31123313
198	0x402f63ec	2.7404737
199	0xc10d45e3	-8.829562
200	0x40436445	3.052995
201	0xbf2a2c3c	-0.66473746
202	0xc0a81721	-5.2528234
203	0xc0cf49b0	-6.477745
204	0xc1dd760e	-27.682644
205	0xc0065ec9	-2.0995352
206	0x40eafbd7	7.343242
207	0x40814af3	4.040399
208	0xbfce63d3	-1.6124214
209	0xc159badf	-13.608123
210	0xc0b29a30	-5.5813217
211	0x40bfe54a	5.9967394
212	0xc0b0e107	-5.527469
213	0xc025dc80	-2.5915833
214	0x3f434b12	0.76286423
215	0x4113b220	9.230988
216	0x3f519487	0.8186726
217	0xc08e8928	-4.4542427
218	0x3e7d9fb3	0.24767952
219	0x4080adfb	4.021238
220	0xc06647f0	-3.5981407
221	0x3fb2d2a8	1.3970537
222	0xbe45165b	-0.19246809
223	0xc1a7ffab	-20.999838
224	0xbf6e4345	-0.93071395
225	0x411d25a4	9.82169
226	0xc06ab3c9	-3.6672232
227	0x3ff91684	1.9459996
228	0xc01028ec	-2.2524977
229	0x40b16a76	5.5442457
230	0x3fdaf0bf	1.710472
231	0xbe6aabed	-0.22917147
232	0xc1021211	-8.129411
233	0xc0ab923b	-5.3616004
234	0x4162da21	14.178254
235	0xc048e78e	-3.139133
236	0x4137ab60	11.47934
237	0xc0373f35	-2.8632329
238	0xc0a4e6ad	-5.1531587
239	0xbe12e02d	-0.14343329
240	0xc0fb40ca	-7.851659
241	0x3f2dce13	0.6789257
242	0xc1d61652	-26.760899
243	0x41416f69	12.0897
244	0x40bcf170	5.9044724
245	0xc06bbf7d	-3.6835625
246	0xc03a7d42	-2.9138951
247	0xbe2a64b8	-0.16639984
248	0xc10dd117	-8.863547
249	0x3f01b268	0.5066285
250	0x40cad6d7	6.3387256
251	0x409c5c51	4.886269
252	0xc05b9984	-3.4312449
253	0x3e8c8b9b	0.2745026
254	0xc0778a59	-3.867819
255	0x40580849	3.3755057

fc1.bias f4 [64]
0	0x3f9e42ee	1.2364175
1	0x40e10b26	7.032611
2	0xc21815cc	-38.021286
3	0xc12578d3	-10.341998
4	0xc0f50462	-7.656785
5	0x40d617c2	6.6904
6	0xc10bedb0	-8.745529
7	0xbf33bcdf	-0.7021007
8	0xc1f09857	-30.074385
9	0x40a4df34	5.1522465
10	0x40826b40	4.075592
11	0xc1221e60	-10.132416
12	0xc0293a9b	-2.644202
13	0x418da31a	17.70464
14	0xc1ef1c40	-29.888794
15	0xc0b27224	-5.576433
16	0x4033b4e9	2.8079169
17	0xc1cd353f	-25.651
18	0xc2050e32	-33.263863
19	0xc1ecc556	-29.596355
20	0xc20cc07a	-35.187965
21	0xc2199fbe	-38.406
22	0x418bbfa2	17.46857
23	0x40f31d54	7.59733
24	0xbfb81dcf	-1.4384097
25	0x4090a3ff	4.520019
26	0xbf172014	-0.5903332
27	0xc041ce16	-3.0282035
28	0x414724c5	12.446477
29	0xc2429975	-48.64986
30	0x41ba6e07	23.303724
31	0xc09e59b1	-4.9484487
32	0xc1eaaf6d	-29.335657
33	0xc10be61a	-8.743677
34	0xc190b889	-18.090105
35	0x4086e0c3	4.2149367
36	0x40bd0856	5.9072676
37	0xbf903d1d	-1.126865
38	0x4088f30f	4.2796702
39	0x40815faf	4.04293
40	0xc0006156	-2.005941
41	0xc1437f69	-12.218606
42	0x40ff66c2	7.9812937
43	0xc21a4ca4	-38.574844
44	0xc22a729c	-42.611923
45	0xc133bff2	-11.234362
46	0xc090fb44	-4.530672
47	0xc1591fca	-13.570261
48	0xbf5b38af	-0.8563337
49	0xc1734d1e	-15.206327
50	0xbfe48f56	-1.7856243
51	0xc12bdd52	-10.741533
52	0x3f4470e1	0.7673474
53	0xc13db096	-11.855612
54	0xc2237b85	-40.870625
55	0x407eb650	3.9798775
56	0x41157694	9.34145
57	0xc17edfc4	-15.92963
58	0x422adc79	42.715305
59	0xc1a9e264	-21.235542
60	0xc1d7e456	-26.986492
61	0xc22640ee	-41.563408
62	0x40461c99	3.0954955
63	0x4024e351	2.5763743

fc2.weight f4 [64, 64]
0	0xbe836415	-0.25662294
1	0xbf60a63a	-0.8775364
2	0xbf1d45f0	-0.6143484
3	0xbf827b6c	-1.0193915
4	0xbf3b8105	-0.73243743
5	0xbe53f173	-0.20697574
6	0xbf00e392	-0.50347245
7	0xbe1ae936	-0.15128025
8	0xbf71def1	-0.94480807
9	0xbf6e2153	-0.930196
10	0x3dadd4e9	0.08487875
11	0xbf1a37b4	-0.60241246
12	0xbf2dafd6	-0.6784643
13	0xbe4bf496	-0.19917521
14	0xbd8f1f9c	-0.06988451
15	0xbf7bb723	-0.9832632
16	0xbfa530ce	-1.2905519
17	0xbf8d38fb	-1.1033014
18	0xbf272389	-0.652886
19	0xbe141005	-0.14459236
20	0xbe4b0d71	-0.19829346
21	0xbda2fd43	-0.07958462
22	0xbf36b3cf	-0.71368116
23	0xbf7306cb	-0.9493224
24	0xbd9bd7d3	-0.076095246
25	0xbedaaf00	-0.4271164
26	0xbf1c4329	-0.6103998
27	0xbfdce595	-1.7257563
28	0xbfa148a7	-1.2600297
29	0xbe63827d	-0.22217746
30	0xbf73efff	-0.9528808
31	0xbe54e87f	-0.20791815
32	0xbf269ac0	-0.6507988
33	0xbecc9542	-0.39957625
34	0xbebcd84f	-0.3688378
35	0xbf12f514	-0.5740521
36	0xbedc2e35	-0.43004003
37	0xbf1c8b9b	-0.6115052
38	0xbf5f0df1	-0.8713065
39	0xbf8118e3	-1.008572
40	0xbf1f37bd	-0.62194425
41	0xbf48e57c	-0.78475165
42	0xbf18687a	-0.5953442
43	0x3e218a39	0.15775384
44	0xbeed16c2	-0.46306425
45	0xbfbd3781	-1.4782563
46	0xbeefbfe8	-0.468261
47	0xbf1f3e13	-0.6220409
48	0xbe9cd0a7	-0.3062794
49	0xbeb3b0e3	-0.3509589
50	0xbf502b98	-0.8131652
51	0xbe89c8b9	-0.26910952
52	0x3ed29bb4	0.41134417
53	0xbda9c078	-0.082886636
54	0xbf675c34	-0.90375066
55	0xbef28cf9	-0.4737318
56	0xbebc431b	-0.36769947
57	0xbef29060	-0.47375774
58	0xbf170581	-0.58992773
59	0xbf07dd1c	-0.5307176
60	0xbfd84cec	-1.6898475
61	0xbf7ccbee	-0.9874867
62	0x3e20ff58	0.15722406
63	0xbef30112	-0.47461754
64	0xbe8295c9	-0.25504902
65	0xbdfd79c1	-0.12376738
66	0xbee1f4db	-0.44132122
67	0xbec8f54a	-0.3924964
68	0xbdce12fb	-0.10062214
69	0xbf15de9f	-0.5854282
70	0xbd4c4398	-0.04986915
71	0xbe0cabb8	-0.1373738
72	0xbf285f1b	-0.6577012
73	0xbf1f1aa3	-0.6215002
74	0xbf319d89	-0.69381005
75	0xbe9ae148	-0.3025
76	0x3cc06e8f	0.023490218
77	0xbe7466cd	-0.2386734
78	0xbde8bde8	-0.11364347
79	0xbe7a03de	-0.24415538
80	0xbf2cffc3	-0.6757776
81	0xbe91d156	-0.28480023
82	0xbe5f0673	-0.21779804
83	0xbf1997eb	-0.59997433
84	0xbeefb3e9	-0.46816948
85	0xbeb567cf	-0.35430762
86	0xbf7660ee	-0.9624165
87	0xbf25b02c	-0.6472194
88	0xbe378190	-0.17920518
89	0xbe017949	-0.12643923
90	0xbee04bff	-0.4380798
91	0xbeffb9ff	-0.4994659
92	0xbdb04fe6	-0.086089894
93	0xbeec281d	-0.46124354
94	0xbe11b6c6	-0.14229879
95	0xbdf2b8fd	-0.1185169
96	0xbeb7716f	-0.3582873
97	0xbee4a98e	-0.4466061
98	0xbebae7c5	-0.3650495
99	0xbe914f1b	-0.28380665
100	0xbf4b4ebc	-0.79417014
101	0xbe8f973c	-0.2804507
102	0xbe1f2012	-0.15539578
103	0x3c86d081	0.016456844
104	0xbe93c376	-0.28860062
105	0xbd6104c2	-0.054936178
106	0xbe49bb3c	-0.1970033
107	0xbf031194	-0.511987
108	0xbedaa799	-0.42705992
109	0xbfaa5ca8	-1.3309526
110	0xbeb28fb7	-0.3487527
111	0xbdd22c94	-0.10262409
112	0xbe9efc20	-0.3105173
113	0xbd72cd74	-0.059277967
114	0xbf079f9f	-0.5297794
115	0xbf01c911	-0.5069743
116	0xbdefaca4	-0.117028505
117	0xbe0ee137	-0.139531
118	0xbeb5adde	-0.35484213
119	0xbe53af23	-0.20672278
120	0xbd3c6d36	-0.04600259
121	0xbe69f524	-0.2284742
122	0xbeeca89a	-0.46222383
123	0xbdf0b4e8	-0.11753255
124	0xbed94aa0	-0.42439747
125	0xbf0b5324	-0.5442374
126	0xbe86ecec	-0.26352632
127	0xbf482af5	-0.7819055
128	0xbf6faf0f	-0.93626493
129	0x3f5a4ca0	0.8527317
130	0xbe32862c	-0.17433995
131	0x3e3aa3ec	0.18226594
132	0xbe71557c	-0.23567766
133	0xbec0c1cc	-0.37647855
134	0x3eba8672	0.364307
135	0xbce3922e	-0.027779665
136	0x3c8b3563	0.01699323
137	0xbfa1b8bd	-1.2634503
138	0xbf0d30b6	-0.5515245
139	0xbed5b2ce	-0.4173798
140	0xbfb677a2	-1.4255259
141	0xbf602b81	-0.8756638
142	0xbebd0250	-0.36915827
143	0xbe040d01	-0.12895586
144	0xbe99b0fb	-0.30017838
145	0x3d4e2a6e	0.050333433
146	0x3e19c634	0.15017015
147	0xbf05dfcf	-0.5229463
148	0xbeaadc54	-0.33371222
149	0xbe7ec8ba	-0.24881259
150	0xbfbb6c2a	-1.4642384
151	0xbf8930c5	-1.0718008
152	0xbba00822	-0.004883782
153	0xbedd66bd	-0.43242446
154	0x3d54dfbb	0.05197118
155	0xbfc453ee	-1.5338113
156	0xbf7313be	-0.94952
157	0x3ea5f8f3	0.32416496
158	0xbfd8dce8	-1.6942415
159	0xbd9fbe70	-0.07799995
160	0xbd048092	-0.032349177
161	0x3ec86690	0.3914075
162	0xbf52379b	-0.821161
163	0xbe46378d	-0.19357128
164	0xbf91d8f4	-1.1394334
165	0xbf422c5c	-0.7584894
166	0xbf6f2885	-0.934212
167	0xbf08fe34	-0.53512883
168	0xbfa28d65	-1.26994
169	0xbe8daa5a	-0.2766903
170	0xbed46677	-0.41484424
171	0xbf8c055d	-1.0939137
172	0xbe3a1292	-0.18171147
173	0xbfabc9ef	-1.3421
174	0xbc3cfb1b	-0.011534478
175	0xbe9974b3	-0.29971847
176	0xbf7516a9	-0.957377
177	0x3e9a421b	0.3012856
178	0xbec6dc58	-0.38839984
179	0xbe31f240	-0.17377567
180	0x3eb105eb	0.34574828
181	0xbdbd6dae	-0.09249435
182	0x3e416391	0.18885638
183	0xbec3ddd8	-0.3825519
184	0xbeb10696	-0.34575337
185	0x3e24340e	0.16035482
186	0xbffd7353	-1.9800819
187	0x3e911717	0.2833793
188	0xbfa45974	-1.2839799
189	0x3e8dd3c0	0.27700615
190	0xbf22f2a2	-0.6365148
191	0xbf3eb735	-0.744983
192	0xbe5074b7	-0.20357023
193	0xbe096e2b	-0.13420932
194	0xbf6af6c5	-0.9178279
195	0xbdd29c2b	-0.10283693
196	0xbfaf94fd	-1.3717343
197	0xbffea719	-1.9894744
198	0x3f29e797	0.66369003
199	0x3cd5f685	0.026118526
200	0xbf332342	-0.69975674
201	0xbfdd54d6	-1.7291515
202	0xbffa3bdf	-1.9549521
203	0x3f1057ae	0.5638379
204	0xbf1e92a4	-0.61942506
205	0xbf2253ba	-0.63409007
206	0xbda89235	-0.08231012
207	0x3ec5c647	0.38627836
208	0xbf5c3ef5	-0.86033565
209	0xbe761078	-0.2402972
210	0xbf8c9db2	-1.0985625
211	0xbfab0040	-1.3359451
212	0xbfb763ae	-1.4327295
213	0x3f159fce	0.5844697
214	0xbfa7569c	-1.3073306
215	0xbf4ab26e	-0.7917851
216	0x3d387bee	0.045040064
217	0xbcfd16c1	-0.030894639
218	0x3e3c89ce	0.18411943
219	0xbe182c50	-0.14860654
220	0xc002937f	-2.0402524
221	0xbfe7ba06	-1.8103645
222	0xbf8e8061	-1.1132928
223	0x3eb530db	0.35388836
224	0xbf137bb6	-0.5761064
225	0xbe0d3314	-0.13789016
226	0x3eb73de2	0.357894
227	0xbef1f5e8	-0.47257924
228	0xbf12acfb	-0.572952
229	0x3ed3b98e	0.41352504
230	0xbe4efcf7	-0.20213686
231	0xbf725e46	-0.946751
232	0xbf859086	-1.043473
233	0xbfc331fb	-1.5249628
234	0xbf947c01	-1.1600343
235	0xbfb2ee64	-1.3979001
236	0x3df59177	0.11990636
237	0xbfcffb2a	-1.6248524
238	0xbfa002e4	-1.2500882
239	0xbede566d	-0.43425313
240	0xbf9f804a	-1.2461026
241	0xbe063465	-0.13105924
242	0xbef253ea	-0.47329646
243	0xbeb37e33	-0.3505722
244	0x3ed51a29	0.4162152
245	0x3ca4a9ab	0.020100435
246	0xbed44b76	-0.41463822
247	0xbfb27900	-1.3943176
248	0xbf787440	-0.97052383
249	0x3dd8b7a1	0.105818994
250	0xc02bc69a	-2.6839967
251	0xc01be9e4	-2.4361506
252	0xbf96ac10	-1.1771259
253	0xbdf616eb	-0.1201609
254	0xbe45fe5c	-0.19335312
255	0xbfc8021d	-1.5625645

fc2.bias f4 [64]
0	0xbff52628	-1.9152269
1	0xbff41514	-1.9068933
2	0xc01434f7	-2.3157327
3	0xc0998b99	-4.7982907
4	0xc0a20667	-5.0632815
5	0xc0f10cf9	-7.5328336
6	0xc0ba4442	-5.8208323
7	0xc01d9d17	-2.462713
8	0xbfe07e2a	-1.7538502
9	0xc0cd8839	-6.4228787
10	0xbfafc89a	-1.3733094
11	0xc0dcd4cf	-6.9009776
12	0xbf8c1a69	-1.094556
13	0xbf2d8fae	-0.6779736
14	0xc021d406	-2.528566
15	0xc0dbe250	-6.871376
16	0xbf8e8bd3	-1.1136421
17	0xc12fbe38	-10.98394
18	0xbe789cd4	-0.24278575
19	0xbf858ae6	-1.0433013
20	0xc05ffd73	-3.4998443
21	0xc0bf51cc	-5.978735
22	0xc097ed3f	-4.7477107
23	0xbf18a8b5	-0.59632427
24	0xc0bde0b0	-5.9336777
25	0xbfd6c77a	-1.6779625
26	0xc02d7ddb	-2.7108066
27	0xc00d5af1	-2.2086756
28	0xbfedc05f	-1.8574332
29	0xbf858de7	-1.043393
30	0xc1024760	-8.142426
31	0xbf887159	-1.0659591
32	0xbfb01d4c	-1.3758941
33	0xbf2fba13	-0.686433
34	0xbf90e52f	-1.1319941
35	0xc1116cd9	-9.089074
36	0xc0ac4b5e	-5.3842
37	0xc138792b	-11.529582
38	0xbf636df9	-0.8883968
39	0xbf813c1d	-1.009647
40	0xbfc09ee3	-1.5048488
41	0xbf985a20	-1.1902504
42	0xc06abc00	-3.6677246
43	0xbf2c41bf	-0.6728782
44	0xbf2c2a44	-0.6725199
45	0xc011d23b	-2.2784564
46	0xbf251c4b	-0.64496297
47	0xc0e95a27	-7.292255
48	0xc1357dee	-11.343245
49	0xbf3b67ca	-0.73205245
50	0xc0bd2c7c	-5.91168
51	0xbfb10318	-1.3829069
52	0xbff59bf8	-1.9188223
53	0xc0032b02	-2.0495
54	0xc109aee1	-8.605195
55	0xbf6b4aba	-0.919109
56	0xbe65fa46	-0.22458753
57	0xc03088dc	-2.7583532
58	0xc1028d65	-8.15952
59	0xbf46ce1c	-0.7765825
60	0xbfcc9766	-1.5983703
61	0xc0048687	-2.070711
62	0xbf2b6f4e	-0.6696671
63	0xbf9d86e2	-1.2306788

fc3.weight f4 [1, 64]
0	0x3d9e6acb	0.07735213
1	0x3cadd2fe	0.021218773
2	0x3ec4e840	0.38458443
3	0x3cc24072	0.02371237
4	0xbe94f858	-0.2909572
5	0xbed5fd7c	-0.41794956
6	0x3ed6b316	0.41933507
7	0x3e550fea	0.20806852
8	0x3e327c86	0.17430314
9	0xbe3d4907	-0.18484889
10	0x3e01c5c4	0.12673098
11	0xbe024cf6	-0.12724671
12	0x3e48069f	0.19533776
13	0xbee4f465	-0.44717708
14	0xbecb9bf2	-0.39767414
15	0xbd813513	-0.06308951
16	0xbe23cd0b	-0.15996186
17	0xbecd14d9	-0.40054968
18	0xbb2a85f2	-0.002601978
19	0xbd98b967	-0.07457238
20	0x3ed26235	0.4109055
21	0x3e05e1e4	0.13074452
22	0x3e0e20eb	0.13879745
23	0xbedda01b	-0.43286213
24	0xbf468096	-0.77539957
25	0x3e397528	0.18111098
26	0xbe899207	-0.26869223
27	0x3db8b433	0.09018745
28	0x3e4703ed	0.19435091
29	0x3e57f295	0.21088631
30	0xbedf0d7a	-0.4356497
31	0xbd2b21dd	-0.04178034
32	0x3df0539b	0.117346965
33	0xbeb5e61f	-0.3552713
34	0x3eaf61fa	0.34254438
35	0x3f8c5b8b	1.0965437
36	0x3ab298af	0.0013625826
37	0xbe6f17a3	-0.2334886
38	0x3edb80f7	0.4287183
39	0xbec877a1	-0.3915377
40	0xbe7cee0e	-0.24700186
41	0x3ee1d771	0.4410968
42	0xbe0f5b6b	-0.13999717
43	0xbe53da29	-0.2068869
44	0xbecc5ca6	-0.39914435
45	0x3e1af80b	0.15133683
46	0xbcc14f20	-0.0235973
47	0xbd1b1bc4	-0.037868276
48	0xbe9fdf76	-0.31225175
49	0x3ecf0ef4	0.40441096
50	0xbeb8acf3	-0.3606945
51	0x3daffa9c	0.08592722
52	0x3e5ba27f	0.21448706
53	0x3de429e5	0.11140803
54	0xbfd00fac	-1.6254783
55	0xbee249e1	-0.4419699
56	0xbcdfd4fc	-0.027323239
57	0xbbdceaef	-0.0067418735
58	0xbf22ddd5	-0.6361974
59	0x3e580007	0.2109376
60	0xbbe7b3ac	-0.007070979
61	0xbcbf78fe	-0.023373123
62	0x3ee80efa	0.45323926
63	0xbe45af22	-0.19305089
