trained_models_1L_5/led_failure_model.pth (torch, 24359 bytes, 5 tensors)

fc1.weight f4 [64, 19]
00000000: 546d 64bd ef84 2f3d 5368 943d 7f64 2cbd
00000010: d444 4cbd b923 cc3c c38b 173d 81b4 8ebd
00000020: 54fd 1b3d 83cb ec3d a6ad a83d 0e61 b83c
00000030: 1134 84bb 0618 823d ebc4 873d 188a 8c3c
00000040: e389 95bc 9ccc eabc 119a f13c 560b 48c0
00000050: cd80 1ac0 db37 9c40 53f6 0cc0 f3c4 24c0
00000060: e6a9 5cc0 87d3 f43f 7097 2141 960f 9640
00000070: 3756 13bd d258 5540 cc70 10c1 5687 0041
00000080: f357 17c0 122e 5ac0 05b9 e93f 1df2 4abe
00000090: 0fd1 0c40 1cfd f4bf 6765 c03e f76e c5be
000000a0: 748b 78be c450 2a3e 3a4e 9ebe fc15 743f
000000b0: fa20 bbbf e558 b23f cdad cd3e 525a d2be
000000c0: cd20 c1be 0103 013f ef40 af3f 8293 e4be
000000d0: 70d1 083d 7fb0 36bf 2736 96be f310 753d
000000e0: 85c4 d5bf ea7e c53e c707 00bf 4604 143f
000000f0: d9eb aa3d 5ed7 093e 9a4f 0f3f 1fdb 063f
00000100: 8352 afbe 5cc8 adbe 084b 30bf 5293 84be
00000110: e15d be3e 1ea0 0d3f 5d33 0dbf 9fef 0bbe
00000120: 6924 903e 5c29 ecbe c63c aa3e cfab 083b
00000130: e2a5 7a3e 7dd5 e63d ed11 453e 6d92 263f
00000140: 6fc5 0abe 7121 07bc d851 c53e b51d 46bc
00000150: d0bd bc3e bb24 413e 65be b93d 1f97 513e
00000160: f5ae 35be cb48 af3c ac62 b9bd 01f2 893e
00000170: c728 393e d7f7 8dbd 54eb 95be 0cd0 c5be
00000180: 3245 9dbe f70b 2f3f e886 03bf 6222 bf3e
00000190: a35a 3ebe b96c 2dbe d688 7dbe de39 1c3f
000001a0: b1a4 19bf 133d a13e 7cf7 0bbc 239e 98be
000001b0: 9a27 fbbd 9e62 d0bd d12e 55be 2fda 3dbe
000001c0: 062d 403e 0772 8dbe 7562 0f3d b1dc 71bd
000001d0: a757 093d 0913 b9bd 18d0 da3c 249e 9fbc
000001e0: 2d3d 90bc 5f7c b53d 4987 9b3d d226 65bd
000001f0: ebbe e6bc 329d c13c ef3b 5abd 0c50 e13d
00000200: 1a0e 543d ec67 f93b 0638 253e cf63 72bd
00000210: dacd 353e 6d81 69bf 31e7 b63e 5d33 9f3e
00000220: 50d1 163d c017 d13e 10e0 57be a669 1b3e
00000230: b592 25be 06c7 ba3e 8248 ce3d a91f 953d
00000240: 59a2 14be fa3b 8f3e 9502 2ebe 2fdf 953e
00000250: 4518 00bf 4c93 7c3e 6fc2 adbe bd71 343e
00000260: 155e b93e a058 22be 216a fe3d 577c b93d
00000270: 3e91 8cbd 7cf8 8abd ed92 bbbe 2af6 10bf
00000280: eb2c e0bd 996d ddbc 3f66 a5be 973f a83d
00000290: d5a0 87be 5e03 8ebc 8bac 3bbe 8455 9cbd
000002a0: 162f 52bc 252f f1bd b934 25be 690d 9e3d
000002b0: 763c dd3d 9a84 5ebd 4ca4 47bd e320 c53d
000002c0: 561d 953d 9037 ffbb f52d 1d3d a775 71bd
000002d0: 6600 683c f9b3 69bc 9fda 36be 0022 183e
000002e0: 6eae f03c 4fde 0bbe dc60 133d c6a8 0ebd
000002f0: 035b 1fbc fada 80be 6e83 0d3e 9bac 0d3e
00000300: ea72 f1be dcaf ef3e 76bf 60be 1a9f ce3d
00000310: 51a7 c03c f876 2ebf ed23 23be 9883 04bf
00000320: a9d8 833e bce3 a3be 6c25 65bf 3ad7 fe3e
00000330: 242f d83e 1258 36bf 7ca6 b73d 7433 22be
00000340: 5ee1 423f b3ba 38c1 6b8a f3bf e984 28bf
00000350: 09a8 1f40 8c6d 6140 a8fe 433e 762a 88c0
00000360: d90a 0c3f 021f b840 7671 9b40 f3c4 b440
00000370: 764a a6be 7563 14c1 2922 f1c0 dbc6 1e40
00000380: 8aa6 a13f 17b7 03c1 7646 8440 8946 9ec0
00000390: d38d c7bd 5bd8 123f be95 36be 6ffb 09bf
000003a0: 3679 6dbd 92d0 d63d 3d39 a1bc d23d 8a3e
000003b0: 81dc 86be f8f6 3fbe 726a b2bd a9b6 c03d
000003c0: 9a99 973f 2749 fabd 0f5e acbe fe24 213d
000003d0: 9f35 c6be 14fc 893e 9c29 a1be 444e 13bd
000003e0: b7bc 2dbc 9e62 c8bb 6336 3f3d b8b7 adbd
000003f0: e0e4 893d 4d1f 803c 3084 2e3c c44f 6e3a
-0.055768326 0.042851385 0.07246461 -0.042088028 -0.049870327 0.024919378 0.03699852 -0.06968022
0.03808339 0.11562254 0.08236246 0.022507217 -0.004034527 0.06352238 0.06629356 0.017155692
-0.018254226 -0.028662018 0.02949241 -3.125692 -2.4141114 4.8818183 -2.2025344 -2.5745208
-3.4478698 1.9127053 10.099472 4.6894026 -0.035970893 3.3335462 -9.027538 8.033041
-2.364743 -3.409062 1.8259588 -0.19818921 2.20026 -1.9139743 0.37577364 -0.38561222
-0.24271947 0.16632372 -0.30919057 0.95346045 -1.4619439 1.3933378 0.40171662 -0.41084534
-0.37720338 0.5039521 1.3691691 -0.4464379 0.03340286 -0.7136306 -0.2933819 0.059830617
-1.6700598 0.3857339 -0.5001187 0.5781902 0.083457656 0.13461062 0.5598084 0.526781
-0.3424264 -0.33941925 -0.6886449 -0.25893646 0.37181 0.55322444 -0.551565 -0.13665627
0.2815278 -0.46125305 0.3324949 0.002085436 0.24477342 0.112711884 0.1924512 0.6506718
-0.13551877 -0.008247719 0.38539004 -0.012092044 0.36863565 0.18861668 0.09069518 0.20467804
-0.17742522 0.021397015 -0.09052023 0.26942447 0.18081962 -0.06932037 -0.29281104 -0.3863529
-0.30716854 0.6837763 -0.51377726 0.3733092 -0.18589263 -0.16936006 -0.2475923 0.610258
-0.60016924 0.31491908 -0.008542892 -0.2980815 -0.12263413 -0.1017506 -0.2081864 -0.18540262
0.18767175 -0.27626058 0.035006005 -0.05904836 0.033530857 -0.09036834 0.026710555 -0.019484587
-0.017607296 0.088616125 0.07594163 -0.055945225 -0.028167209 0.023634527 -0.053279813 0.11001596
0.05177126 0.0076112654 0.16134652 -0.059177216 0.17754307 -0.91213113 0.3572326 0.31093875
0.03682071 0.40838432 -0.21081567 0.1517702 -0.16169246 0.36479968 0.100724235 0.07281429
-0.14515056 0.27975446 -0.16993172 0.29271838 -0.5003703 0.24665564 -0.33937404 0.17621513
0.3620459 -0.1585412 0.12422586 0.09056919 -0.0686364 -0.06785676 -0.36635533 -0.56625617
-0.109460674 -0.0270298 -0.3230457 0.08215254 -0.26489893 -0.01733559 -0.18327539 -0.07633498
-0.012828609 -0.1177657 -0.16133393 0.077174015 0.10802548 -0.054325677 -0.04874067 0.09625413
0.07280986 -0.007788606 0.038373906 -0.058950093 0.014160251 -0.0142641 -0.17856835 0.1485672
0.02938005 -0.13659023 0.035981044 -0.034828924 -0.009726289 -0.25167066 0.13819668 0.13835375
-0.47157985 0.46813858 -0.21948037 0.1008894 0.023517283 -0.6815028 -0.15931673 -0.51763296
0.25751236 -0.32009685 -0.89510226 0.4977358 0.42223465 -0.71228135 0.08967301 -0.1583994
0.76125133 -11.545581 -1.9026617 -0.65827805 2.494631 3.5223112 0.19140112 -4.255183
0.5470405 5.753785 4.8576 5.6490417 -0.32478684 -9.2742815 -7.53542 2.4808872
1.2628949 -8.2322 4.133601 -4.9461102 -0.09743848 0.5736138 -0.1783056 -0.5389928
-0.057976924 0.104890004 -0.019680614 0.2700029 -0.26340106 -0.18746555 -0.08711709 0.0940984
1.184375 -0.12220984 -0.3366551 0.03934192 -0.38712785 0.26950133 -0.31477058 -0.03596331
-0.010604075 -0.0061152717 0.046682727 -0.08482307 0.067331076 0.015639925 0.010651633 0.00090908655

fc1.bias f4 [64]
00000000: 3517 74bf 46ef 54c2 ac75 5ec1 09a2 0bc1
00000010: d207 8ac0 99c7 dec0 f7ef b7bf 6cb6 d9c0
00000020: 6595 60c0 5549 ccbf 8ee4 efc0 4d34 8cc2
00000030: 63cb c8c0 ac6a 6ebf 6d2a e7c0 842a d4c0
00000040: a673 fec0 ce55 68c2 c6f8 e8c0 0713 9ec0
00000050: 4df7 bcc0 b81c 97c2 2d87 40c0 0760 97be
00000060: 80ba 3bc1 85c7 93c2 ea86 3ec0 8ad8 2bc1
00000070: bb2d 8dc0 20bc cbc0 da6e 4bc0 ebd4 b5c0
00000080: 6e37 c4c0 b3df cbc0 7868 d2c0 773e 42c0
00000090: 8d3a fabf 20c5 11c1 87b9 b3bf ffbc 72c0
000000a0: fdf8 a5c0 2d39 1cc1 8f69 7ec0 7a08 c2c0
000000b0: 5dfe 78c0 eedb c2c0 8a3a cec0 072c c2c0
000000c0: 5b3a 08c2 d105 79c2 e687 adc0 1ab8 acc0
000000d0: 0465 60c2 b4d9 08c0 541e 42c0 7b86 f1c0
000000e0: cbc5 18c1 eb73 8fc0 0ac7 debf 99f5 4ac2
000000f0: 8cd1 0fc1 67e2 21c1 1656 83c2 6b8d e5c0
-0.9534791 -53.233665 -13.9037285 -8.727059 -4.3134546 -6.961865 -1.4370106 -6.8035183
-3.5091183 -1.5959879 -7.4966497 -70.10215 -6.2748275 -0.9313152 -7.223929 -6.63019
-7.9516172 -58.083794 -7.280368 -4.9398227 -5.905188 -75.55609 -3.0082505 -0.2956545
-11.733032 -73.88969 -2.9769845 -10.740366 -4.4118323 -6.3667145 -3.1786408 -5.682241
-6.1317663 -6.371057 -6.5752525 -3.0350626 -1.9549118 -9.110626 -1.4040993 -3.7927854
-5.186644 -9.763959 -3.9751928 -6.0635347 -3.890525 -6.089347 -6.444646 -6.0678744
-34.056988 -62.25568 -5.422839 -5.3974733 -56.098648 -2.1382875 -3.033101 -7.547666
-9.548289 -4.4829 -1.7404492 -50.73984 -8.988659 -10.117774 -65.66814 -7.173513

fc2.weight f4 [64, 64]
00000000: a343 54bd 7185 07bf 62c6 f6be 2496 11bd
00000010: d953 aebe 9748 a4be 4d52 f73c de70 07be
00000020: 6665 953d b88c a1bb d80b 7ebe d50f 9bbe
00000030: 22a5 7bbe ee67 d4bd 11e9 68be 1312 0dbe
00000040: b9be 23be e650 4cbe 2012 e9bc 5bab b2be
00000050: 3076 b6be 82da a0be 2489 35be 8932 80be
00000060: 33b1 86be bccf 8dbe d1c6 1dbd 72ae c8be
00000070: ad26 39be f51a 2bbf b5ec 5ebe f634 1abf
00000080: 64b3 a3be 0488 debd ec75 b03d 8036 003e
00000090: 6715 d4be c893 73bd 088e bdbe 34ad 10be
000000a0: 8f9b a0be 1c8d 92be 6c01 9b3d 97a4 aabe
000000b0: b9a0 043c 088e 98be 69a5 283e 7d95 97be
000000c0: 96b0 9dbe 5f23 23bf 067e 41bf 355d b9be
000000d0: e88b 94bd d7a7 953b 354f 913d b7c4 4abe
000000e0: 7083 a8bd af74 2cbf 2fe4 35be e845 b5be
000000f0: 4158 5fbe 5371 083e 93bc d5be 06e5 68bd
00000100: dd9c 343d 296e 1dbf 3fc1 b0bd 9d35 d83c
00000110: d4d3 36be 34a2 10be 3dc6 02be d33e f0bd
00000120: 54fc 08be 9dec 01be 5170 94be 8bbb 75be
00000130: bdb5 d1bd db85 09be 50c5 3ebe befd 1ebe
00000140: be09 e93d a63a 86bd 5b52 87bc 5c04 45be
00000150: 370d 24bf ab9d 35be 09ad 54be 44b1 1ebf
00000160: 74e4 14bf 3d48 7abe e7b8 5dbe dc5e 80be
00000170: 7e1f 01be cf0d b33c 2a25 a43b baba 1cbc
00000180: 04cb 0dbe a845 f6bd 3af4 debd d406 10bd
00000190: 9b70 aebd ffed 61be c7b4 293d 8bf2 9dbe
000001a0: ba4d 67be b901 2dbd 2828 5abe d3b8 11be
000001b0: fc00 5dbd 76b5 17be f0fe 82be bacd 85be
000001c0: 0b47 9fbe cdf9 43be dcbd 2c3c f2ef 523d
000001d0: 7634 e2bd 37a3 62bd 3c09 96be 0f31 d5be
000001e0: dc8f 1a3d 4653 73be 0bda 6bbe bf27 12be
000001f0: 17e4 c3bd ce73 87be 8a3c 2cbe 1690 bd3c
00000200: 742d 4cbd dd8a 96be 3c72 2cbe 3f63 aabe
00000210: cbe6 b5bd 1093 01be a820 48bd 4161 53be
00000220: 49bb a53d fbd8 833d 4a1c 33bc 687b 21be
00000230: d4e0 8bbe 6b2a 61bd 00b5 05be 4dc6 41be
00000240: a431 033d ea45 92be f7b3 38be 9cc8 0dbc
00000250: 9276 bfbc c423 8ebe 8ab8 82be 8051 b4be
00000260: f378 89bd 5b78 36be 1f7a acbd d649 62be
00000270: fc33 4abe daf1 a6be 046e 13be 499d 8dbe
00000280: 3faf aabe ed36 0dbc b7b4 a1bd e6e0 50bd
00000290: 96e3 00be 0fbf ffbd fe70 4ebd 9654 4dbd
000002a0: ba29 ccbc aab3 57be d8b0 83bd 353b 47bc
000002b0: 9aa1 c7bd dd86 41be d2eb 853c 0f13 9abe
000002c0: 4a5d a7bc a472 24be 8dbb a6be 8a2f 95bd
000002d0: eb02 52bd 1817 f4bc fdf1 1cbe c53f 5b3b
000002e0: 6b02 8dbc 9aea 5e3c dbaa 43be 9469 1dbe
000002f0: db0a e7bd 44cb 42be 5557 6bbe 9302 74bd
00000300: 34c2 00be 25d4 50bf f315 f6bd 3579 103e
00000310: 2ad8 d3be f276 c2be 96b3 67bd 7c6e 38bf
00000320: b889 86bf 8cbb 96bd bce6 3ebf dba5 c0bf
00000330: 8026 c9bd 0a1d 36bd 6e59 7fbf d688 2ebe
00000340: 2f0e 393d 9627 15bf 3a6a 36be 1bdd c83b
00000350: 4e49 01c0 81c5 88bf 1b0e 6abf 0c88 fbbf
00000360: 80f8 b5bf f490 dabd 6b9c 80bf b096 87be
00000370: ce28 53bf 0183 75be 700a e2be e08b 8a3e
00000380: 9a1a 98bb 4a5e 8f3e 5204 94bf 1166 35be
00000390: a427 23bd 0552 a1bf 908a 05bd 96be cd3e
000003a0: fb3f 2dbf e25d 1e3e 5263 58bf 29ce 5ebf
000003b0: fc5f 6cbd a850 e1be 9fe1 c6bd bf7f 5fbe
000003c0: 4834 6f3d 5b51 8abe 9b34 b0be d929 9abe
000003d0: b32b 3abf 430a 85bd 249b f4be 0dbe 0fbe
000003e0: bd1f b6bd dea8 a2bd 7fc1 c0bc c22f 08bf
000003f0: e821 6ebd bbea 84be 8574 b8be 928b e5be
-0.051822316 -0.5293799 -0.4819823 -0.035543576 -0.34048346 -0.32086632 0.030190611 -0.13226649
0.07294731 -0.004930105 -0.24809206 -0.30285516 -0.24574712 -0.103713855 -0.22745158 -0.13776426
-0.15990724 -0.19952735 -0.028451025 -0.3489636 -0.35637045 -0.31416708 -0.17728096 -0.25038555
-0.26307067 -0.2769755 -0.038519684 -0.3919559 -0.1808116 -0.6683801 -0.21769984 -0.6023706
-0.31972802 -0.10865787 0.08616242 0.1252079 -0.4142258 -0.059467107 -0.37022424 -0.14128572
-0.31368682 -0.28623283 0.075686306 -0.33328697 0.00809496 -0.2979586 0.16469349 -0.29606238
-0.30798787 -0.63725847 -0.7558292 -0.36203924 -0.072532475 0.004567127 0.07095186 -0.19801603
-0.08228195 -0.67365545 -0.17762826 -0.35404897 -0.2181101 0.1332448 -0.41745433 -0.05685904
0.04409491 -0.61496216 -0.08630609 0.026392752 -0.17854244 -0.14124376 -0.12770934 -0.11730733
-0.13377506 -0.12687917 -0.2899194 -0.23997323 -0.10239742 -0.13429968 -0.18629956 -0.15526482
0.11378811 -0.06554155 -0.016518762 -0.19239944 -0.64082664 -0.17735927 -0.20769133 -0.61989236
-0.5816109 -0.24441619 -0.21652566 -0.25072372 -0.1260967 0.02185717 0.005009313 -0.009566003
-0.13846976 -0.120250046 -0.10886426 -0.03516276 -0.085175715 -0.22063445 0.04143217 -0.30849108
-0.22588244 -0.04223797 -0.21304381 -0.14230661 -0.053956017 -0.14815316 -0.25585127 -0.2613352
-0.3110889 -0.1913826 0.010543313 0.05149836 -0.110451624 -0.055331435 -0.2930392 -0.4163899
0.03773485 -0.23762235 -0.23032396 -0.14272974 -0.09564989 -0.2645554 -0.16819969 0.023139995
-0.049848035 -0.2940282 -0.16840452 -0.33278844 -0.08881911 -0.12653756 -0.04885927 -0.20642568
0.080923624 0.0643787 -0.010932038 -0.15769732 -0.27319968 -0.054972094 -0.13057327 -0.18923302
0.032029763 -0.28568965 -0.18037401 -0.008653786 -0.023371968 -0.27761662 -0.25531417 -0.3521843
-0.06712522 -0.1781935 -0.0842173 -0.22098479 -0.19746393 -0.32606393 -0.14397436 -0.27659062
-0.33336827 -0.008619052 -0.07895797 -0.05099573 -0.12586817 -0.124876134 -0.050400726 -0.050129496
-0.02492224 -0.2106463 -0.06430215 -0.012160112 -0.0974762 -0.18899103 0.0163478 -0.30092666
-0.020430226 -0.16059357 -0.32564965 -0.07284458 -0.051272314 -0.029796168 -0.15326686 0.0033454758
-0.017213067 0.013605738 -0.19108145 -0.15372306 -0.112813674 -0.19022852 -0.22982533 -0.059572767
-0.12574083 -0.81573707 -0.12015905 0.14108737 -0.41375858 -0.37981373 -0.05656775 -0.72043586
-1.0510778 -0.073599905 -0.7457082 -1.5050615 -0.098217964 -0.044461288 -0.99745834 -0.17044386
0.045179542 -0.5826353 -0.1781396 0.0061298735 -2.0200992 -1.0685273 -0.91427773 -1.9650893
-1.4216461 -0.10672179 -1.0047735 -0.26482153 -0.8248414 -0.23975755 -0.44148588 0.2705984
-0.004641843 0.28001624 -1.1563818 -0.17714716 -0.039832726 -1.2603155 -0.032602847 0.40184468
-0.6767575 0.15465501 -0.8452655 -0.87033325 -0.057708725 -0.44006848 -0.097110026 -0.21826075
0.05839947 -0.27015194 -0.34415135 -0.30110052 -0.7272293 -0.06496098 -0.47774613 -0.14037342
-0.08892772 -0.07942365 -0.023529766 -0.5319787 -0.058137804 -0.25960335 -0.36026397 -0.44833046

fc2.bias f4 [64]
00000000: 2dd6 19bf 8b7b 1cbf ebf3 94be 1923 babf
00000010: 1148 9dc2 885b 40bf 296b 80bf a39f 78bf
00000020: 5989 3bc0 780a 8ebf 49a7 4fbf 90de 88bf
00000030: 8015 55c0 e9ee f6bf 0f2e b4c0 9ed7 a0bf
00000040: df2e 62c0 0ecf 62c0 62a1 22bf dc2f 5cc0
00000050: 69f6 84c0 df80 65bf 9d67 96bf 93a3 8ec0
00000060: 952a d7c0 2a46 3bbf d3ee 1ec0 3de7 23bf
00000070: 2302 78bf 5db1 2a3f 6079 e9be 94ef 92bf
00000080: e8f4 32bf 7a09 febf 3823 07c0 1f61 acbf
00000090: 7e17 44c0 44d4 163f 433c 4fc0 9b2f cbbf
000000a0: 31c5 34c0 e423 53c0 6943 1cc0 0a9c 87c2
000000b0: 5b39 e4bf 39de cfbf 4404 46bf ad4a d3c0
000000c0: ee0e 70c0 fcbe f8bf e3d9 21c0 f449 cdbf
000000d0: 97e8 32bf a90e 99bf e236 bebf 321d cfbf
000000e0: 97ba 59bf 008c 76bf af32 c1bf 743a 70c0
000000f0: 11a0 edbf 7779 10c1 3fe3 60bf d5ce 76bf
-0.6009243 -0.6112601 -0.29092345 -1.4541961 -78.640755 -0.75139666 -1.0032703 -0.97118586
-2.930258 -1.1096945 -0.8111463 -1.0692921 -3.3294373 -1.929166 -5.6306224 -1.2565801
-3.5341108 -3.5438876 -0.635275 -3.440421 -4.1550794 -0.89649767 -1.175037 -4.4574676
-6.723948 -0.73153937 -2.4833267 -0.64024717 -0.9687826 0.66676885 -0.45600414 -1.1479363
-0.6990495 -1.9846642 -2.1115246 -1.3467139 -3.0639338 0.5891764 -3.238053 -1.5873903
-2.8245356 -3.2990656 -2.4416144 -67.80476 -1.7830003 -1.6239692 -0.7735026 -6.6028657
-3.7509112 -1.9433284 -2.5289237 -1.6038194 -0.69886154 -1.1957599 -1.4860499 -1.6180785
-0.8505034 -0.96307373 -1.5093592 -3.7535677 -1.8564473 -9.0296545 -0.8784675 -0.9640935

fc3.weight f4 [1, 64]
00000000: e665 bdbd e727 2fbe 4428 6a3a 290c e13d
00000010: 8cf9 b53e e801 e03e 895f 843d 3cb1 babe
00000020: 19db 4dbe ea03 e9bd 22e5 f23e 49aa 90be
00000030: 69dd bb3e 805f c43e 2232 d03e fb51 c2bd
00000040: 799d be3e dd9b 923d 1e1e 5dbe ffa9 d23e
00000050: 266c 533d 1a46 a6bd 554e e53e fefc afbe
00000060: 31a5 09be c3ed ee3e d037 313e 23ea 24be
00000070: 9b72 f73d 6582 9e3e a0aa 85be 9c77 d1bd
00000080: 30c2 2f3e 0914 9e3d 3b0b abbd 73ac c83e
00000090: c687 dd3e 5bf3 89be b68a f73d e8fd d73e
000000a0: 54e1 7b3e 3587 8d3e 7528 943e fd66 eb3e
000000b0: 68d6 93be 8f30 ca3e f563 d73e a6f1 eabc
000000c0: 438c a0be 5de7 a6be bdbd 7cbe b896 4fbe
000000d0: 7d8d afbe 6488 b73d c747 b83e 609a e93e
000000e0: 247c c93e 4539 ad3e 9462 f7bd 9722 5e3e
000000f0: 4cf0 0f3e d849 58be 9a6e 0a3e 41b4 e4be
-0.09247951 -0.17105065 0.00089323916 0.109886475 0.35541952 0.43751454 0.064635344 -0.36463344
-0.2010311 -0.113777 0.4744044 -0.28254917 0.3669236 0.3835411 0.40663248 -0.09488293
0.37229517 0.07158635 -0.2159352 0.41145322 0.05161681 -0.081188396 0.44786325 -0.34372705
-0.13441922 0.46665773 0.17306447 -0.16104941 0.12082406 0.30958858 -0.2610674 -0.10227892
0.1716392 0.07718665 -0.083517514 0.39194068 0.4326765 -0.26943478 0.12087004 0.42185903
0.24597675 0.27642217 0.28937116 0.4597701 -0.28874516 0.39490172 0.4206845 -0.02867968
-0.3135701 -0.3259839 -0.24681754 -0.20272338 -0.34287634 0.08961561 0.35992262 0.4562559
0.39352524 0.33832756 -0.12079349 0.21692882 0.1405651 -0.21121919 0.13518754 -0.44668773
