trained_models_1L_5/power_issue_model.pth (torch, 24359 bytes, 5 tensors)

fc1.weight f4 [64, 19]
00000000: 75c2 ea3d d21d 0d3f 28bb dfbe dea5 b43e
00000010: b3c5 a8bf f00a 713f 3f03 433e 52ce 5f3e
00000020: 228d d2be c4ac 71be 3ed6 a83d fdfe 433e
00000030: 5a8f 6cbe 1588 19bf 4850 49bd f88f 10be
00000040: 34f5 6fbf 59bd 1a3f e6b2 41be 1394 ab3e
00000050: 9c5e 9bbe c6a2 2f3e 7539 513d e716 eb3b
00000060: 7a74 57bd d9fe 1b3e c6c7 c1be 1a10 783d
00000070: 4a07 4f3e 5a6d 153d 662d ebbd 8db9 b43e
00000080: 9957 c63d fa53 f33d 669d e2be 58b9 3ebc
00000090: 2dd5 953d 9c04 bd3e b055 f8bd 176d a43d
000000a0: d364 04be c9e1 b63d 1243 ba3d a899 cabd
000000b0: cb60 abbe b4d1 103f 7e75 ba3e 2089 3dbc
000000c0: 888e 96bd df6b 91be 9921 5a3e 67a3 cc3e
000000d0: e947 4b3d f7c9 d13d e649 33be 3882 cc3d
000000e0: dde8 0b3f 5154 e2bf cbe3 f8bf ceca b8bf
000000f0: d442 2340 a5db 753f 5503 9cbf 3582 ed3e
00000100: 0633 b83f 759e d03d c25c 80be db47 0d3f
00000110: ffba 57c0 37bc 983e 0261 eabc 2907 5ebd
00000120: 20d0 bebd 94e2 b13f a533 9f3f 0907 31be
00000130: 42ed b63d 90da f73c 08f3 6fbc 906d efbc
00000140: 1bd1 76bd d905 533c 4a16 92bd 7c2e ccbd
00000150: 3b6e 5ebe aca9 32bd 281a bfbe 4e7e 68be
00000160: f20b 493e 6b9f 003d a67e 87bc a226 c8bb
00000170: bc78 f73d 9bdf 0bbe e661 f73d 6e9a 8d3d
00000180: 931d bebe 7367 1d3e 6419 e3be 0c2d bfbe
00000190: 020c 85bc 1676 033f 65a1 d1be c523 21bd
000001a0: 67c0 953e 7577 cc3d c740 dcbe b8b3 ab3e
000001b0: 1a37 06bd fbc0 083f 2dbf 043e 3a65 e33e
000001c0: 2421 793e 5030 d2bd 592f ab3f 744e ec3f
000001d0: 1a8e 6c3f 4433 a1be 28f4 15be 2633 443d
000001e0: 8ea1 583f b730 8abe 8759 5ebf e567 da3e
000001f0: 05bc a5bf bb15 72bf 4275 ddbe 5cfa d0be
00000200: 847b 96bd 5b85 03be d509 f23e 4aa2 063e
00000210: fd7f b3be 3fba c83f 2b6b 733f a8d3 c2c0
00000220: 0b6d ef3f a41b 8540 2000 a5c0 d266 e4c0
00000230: e224 0f40 0434 8240 8972 e1bf 1939 f3bf
00000240: 275a ccc0 67f3 dc3f fadd 90c0 1b62 c8c0
00000250: 223d 73c0 2757 8e3f e083 8540 2c58 0340
00000260: 8ccb 4bc0 58b8 38c0 1fd4 7e3f f65c eb40
00000270: ba63 f1bf 0176 113d 76cd 91c0 c824 df3f
00000280: 80aa 2b40 f824 1c3f 2b9f d5bf 7288 a4c0
00000290: a59d a4c0 eca2 82c0 6d19 11c0 a801 b040
000002a0: c694 b540 5cd6 b640 f767 0840 25f7 1abe
000002b0: 1c30 f63f 66dd b6be 1020 0e40 25f5 b03f
000002c0: f9a9 f3bf e60a 80be fc4d a4bf 6af8 b5bf
000002d0: ea31 54bf ba7d babf ce19 9dbf b753 19bf
000002e0: 9e53 b1bf ce69 66bd de57 2bc0 ecb5 5b3f
000002f0: dfed bd3e fc5a d5bf f72b d33e ed27 14bf
00000300: 7db5 3fbe 80f1 033f ba3b 5bbf 013a 303c
00000310: b7a1 1e3e f2f1 873f 2229 893d b01a ecbe
00000320: 2183 eebd 6609 87bf 88e7 afbc 52d1 c9bd
00000330: 8b97 0a3f b1a0 723d 9db8 743f 8be5 d53e
00000340: a6c8 e03e 5ab5 acbc fee5 c1be d8c2 773e
00000350: 09a3 41bf 929e 4c3f 4b98 bfbe fd97 e63d
00000360: 7afc 85be 75bd 283e cee6 5e3f 9a35 f6be
00000370: a327 1abf 31b3 293f 2f15 b2be 3ec2 00bf
00000380: 6184 013e 8be1 213d aa8d 203f cd03 843d
00000390: 5865 b1bd 9a58 97bf c8ba 7dbe 7423 483d
000003a0: befd 763e a331 403f 41d7 27bf df99 82bd
000003b0: e26c b23e eee6 693f 6268 843f 35d5 33bf
000003c0: 38db 79be 4809 cdbe d547 1fbf 724b 913d
000003d0: 9899 423f 7d02 48bc 65e2 cebe 92f3 dfbe
000003e0: 229b c53f dd7e 07c1 7c08 03c0 4d38 ba40
000003f0: 5846 fcc0 f39d 87c0 c97c f840 62e3 bebe
0.11462871 0.5512363 -0.43697476 0.35282797 -1.3185333 0.94157314 0.19044207 0.21856049
-0.411233 -0.23601061 0.082439885 0.19140239 -0.2310156 -0.5997327 -0.049148828 -0.1411742
-0.93733525 0.6044517 -0.189159 0.3351141 -0.3034562 0.17151937 0.051080186 0.007174361
-0.052601315 0.15233935 -0.37847728 0.06056223 0.20217624 0.03648124 -0.114832684 0.35297814
0.09684677 0.11881252 -0.4426071 -0.011640869 0.07316051 0.3691758 -0.121257186 0.0802862
-0.12929086 0.08929784 0.09094824 -0.09892589 -0.33472285 0.5656998 0.36417764 -0.011568338
-0.073514044 -0.28402612 0.21301879 0.39968416 0.049629126 0.102436 -0.17508659 0.09985775
0.54652196 -1.7681981 -1.9444517 -1.4436891 2.5509539 0.96038276 -1.2188517 0.46388403
1.4390571 0.10186473 -0.2507077 0.5518777 -3.3707883 0.29831097 -0.02861071 -0.054206047
-0.093170404 1.3897271 1.2437636 -0.1728784 0.08931972 0.030255586 -0.0146453455 -0.029227048
-0.060258012 0.012879812 -0.071331576 -0.09969804 -0.21721737 -0.043618843 -0.37324643 -0.22704431
0.19633463 0.031402033 -0.016539883 -0.006108121 0.12083575 -0.13659517 0.120792195 0.06914221
-0.37131938 0.15371494 -0.4435531 -0.37339056 -0.016241077 0.5135206 -0.40943447 -0.039340753
0.29248354 0.09983722 -0.4301817 0.33535552 -0.032767393 0.53419465 0.12963553 0.44413167
0.24329048 -0.10263121 1.3373824 1.8461442 0.9240433 -0.31484425 -0.1464392 0.04790034
0.8462151 -0.2699029 -0.8685536 0.4265739 -1.2948004 -0.9456441 -0.43253523 -0.4081601
-0.073477775 -0.1284384 0.47273126 0.13147846 -0.35058585 1.5681838 0.950854 -6.088337
1.8705152 4.159624 -5.1562653 -7.1375513 2.2366261 4.0688496 -1.7613078 -1.90018
-6.386005 1.726178 -4.5270967 -6.261976 -3.8006063 1.1120347 4.172348 2.0522566
-3.1842985 -2.8862514 0.9954242 7.355098 -1.8858559 0.035512928 -4.5563307 1.74331
2.6822815 0.6099391 -1.6689199 -5.141656 -5.1442437 -4.082388 -2.2671769 5.500202
5.674411 5.713667 2.1313455 -0.1513334 1.9233432 -0.3571579 2.220707 1.3824812
-1.9036247 -0.25008315 -1.2836299 -1.4216435 -0.8288866 -1.4569619 -1.22735 -0.59893364
-1.3853643 -0.056253247 -2.677238 0.85824466 0.37095544 -1.6668391 0.4124448 -0.5787342
-0.18721576 0.51540375 -0.8563801 0.010756017 0.15491377 1.0620711 0.066972986 -0.4611411
-0.116461046 -1.0549743 -0.021472707 -0.09854378 0.54137486 0.05923528 0.955942 0.4177669
0.43903083 -0.021082569 -0.37870783 0.2419542 -0.75639397 0.7992946 -0.37420878 0.11259458
-0.26169187 0.16478522 0.8707093 -0.4808777 -0.6021673 0.6628905 -0.34781787 -0.5029639
0.12648155 0.039521735 0.6271616 0.064460374 -0.08661908 -1.1823914 -0.24778283 0.048861936
0.24120232 0.7507574 -0.65562826 -0.06377005 0.34848696 0.91367996 1.0344355 -0.70247203
-0.24400032 -0.40046144 -0.6221898 0.07094468 0.76015615 -0.0122076245 -0.404071 -0.43740517
1.5437968 -8.4684725 -2.0473928 5.8193727 -7.883587 -4.238031 7.7652326 -0.37282854

fc1.bias f4 [64]
00000000: b851 40c1 7b60 75c0 79cb 90c0 652c c7c1
00000010: 2f65 1ac0 3ae4 dec0 04c7 52c1 08e0 46c2
00000020: 9c2d 53c2 0eaa 67c1 def2 21c1 7916 1cc1
00000030: 5d56 29c1 4f55 57c2 cd10 86bf e446 54c2
00000040: 3284 93c0 686c e9c1 7827 1fc1 e619 38c0
00000050: 34ef 2ac2 6001 b3c0 755a 2fc1 3ddb 39c0
00000060: 8653 64c1 dd38 86c0 d0cf 4ac2 8e21 89c0
00000070: 146d 82bf 4f2b 5ec2 e9ed d0bf 5d0b 64c2
00000080: 2057 c5c1 0fd7 b4c0 3393 afc0 08fb eec0
00000090: 160f 5cc2 8b9a 6bc1 2b1f 79c1 d5ce 37c2
000000a0: 3d54 83c1 2593 30c0 e557 76c1 0f62 68c1
000000b0: 0ddf 08c1 4bcd 6fc0 6b60 44c2 ec20 39c2
000000c0: 20df 9cc0 b943 84c1 2b79 61c0 e7f5 50c2
000000d0: 8996 b2c0 d091 4cc1 aadd 61c2 267f 07c1
000000e0: 0936 f6c0 546b 5dc2 d87f 45c2 c23c 44c0
000000f0: 790b 3dc2 dd9c 8bc0 eaca 1dc1 b616 d5c0
-12.019951 -3.8340137 -4.524838 -24.896677 -2.4124258 -6.9653597 -13.173588 -49.71878
-52.79454 -14.479017 -10.121794 -9.7554865 -10.583585 -53.83331 -1.0473877 -53.06923
-4.609887 -29.177933 -9.947136 -2.8765807 -42.733597 -5.593918 -10.959584 -2.9040062
-14.270391 -4.1944413 -50.70294 -4.285346 -1.0189538 -55.542294 -1.6322604 -57.011097
-24.667542 -5.6512523 -5.4867187 -7.4681435 -55.014732 -14.72523 -15.570109 -45.951984
-16.416132 -2.758981 -15.396459 -14.52394 -8.554456 -3.746905 -49.09416 -46.28215
-4.902237 -16.533068 -3.5230205 -52.24014 -5.580876 -12.785599 -56.46647 -8.468542
-7.694096 -55.354813 -49.374847 -3.0662084 -47.261204 -4.3628983 -9.86204 -6.6590223

fc2.weight f4 [64, 64]
00000000: 9452 3dbe f35b 0b3c 027b cabe 9afe 55bd
00000010: 3fb0 12be 2e79 1fbc 60ce 90be dccb d1be
00000020: 8d99 c7bc d06c 68be f79a 27bd b349 b1bd
00000030: 893a 2ebe 7a4b adbe 8bf5 a5bd 720e 35bf
00000040: f272 36bf cf84 bbbe 65d8 81bf 755c c6be
00000050: 0fea 08bf d3d9 02be 1101 c7bd 9aab 7b3d
00000060: b0e9 f6be 96a6 1ebd b529 a5bc ec18 a3bd
00000070: 93f9 a1be 82fb 0ebf 69d9 af3c 0511 adbd
00000080: ec87 a2be a1cd 49bd 35da 72bf 10ee d6bd
00000090: 309b 2abd 8238 c0be 1ae4 ebbd 25c9 83be
000000a0: 402a dc3d 4977 123d a040 81be b017 bebe
000000b0: 0423 07bf d1b4 b6be 1c1e 24bf 9c41 1cbe
000000c0: 616d 2abd 5fa7 a2be c132 08be 3dff 75be
000000d0: bf22 da3d be44 92bf 98ba e6bd 4645 1cbe
000000e0: 7c6e 6ebe aa44 8abd 8507 a7be 7dcb adbd
000000f0: 35c6 1ebf edbf 01be 4260 04bf 38f5 4cbc
00000100: 2e63 93bc 5e03 073e e1c9 c3be f1b7 9fbd
00000110: 7d44 5abf 09f1 163e 4208 1abf 986e 83bf
00000120: 6c45 903c ca2a 36bf c60a 68bf 0f15 64be
00000130: 5183 61be e015 d8be a589 06b8 65d0 6dbe
00000140: 5331 93bf 32e5 24bf d22e 93bf 1d83 67bf
00000150: c7a7 c3be d28c a7bd 049e 7dbf 057d 0bbe
00000160: 30aa e8bd a333 1cbf 9c1f d8be 9cac 9cbe
00000170: 7058 94be fa5f 84bf 13c3 91bd 3800 5fbf
00000180: d8f7 2e3c cf1c 11bf b0c8 7abf 7e3b e7bf
00000190: 6727 99be 7d39 17be 6620 30be 3b22 54bf
000001a0: 6860 13be de09 4abf e3cf 1fbf a35e b7be
000001b0: 473d fcbe 2ce0 c0be 5feb a4be dff5 47bf
000001c0: 4130 56be dadf 9abe 49d2 0d3f 168e 30bf
000001d0: 8278 97bf 48f8 dabe 7420 bcbe 4f53 dcbe
000001e0: 3412 97bf c1dd 95bf 7da4 f9be 5eea d9be
000001f0: 3837 fcbe 157f 59be bd50 babd c4a5 6ebe
00000200: d2b4 82be 3387 0abf b36d c83f d627 8c40
00000210: 2464 333d a400 46bd 585f a83f 51bc 0340
00000220: 837e 0640 ab22 eabd 8707 e8bf 7c22 4bbe
00000230: 90e0 84bf e6aa 653f 792c 303e d18f 413e
00000240: cfb1 08be df7b 8cc0 972b c13f 227f 20be
00000250: 4e4f 90bf e53b 93bc 360e d3be c417 18bf
00000260: 04aa 0dc1 c63b 15bf adcc ab3e ec01 423c
00000270: 18a0 50be da79 b840 f075 df3d 0ea5 91bf
00000280: 3dae 0540 46f8 2ebe b8df 72bd ba40 993d
00000290: 08c8 a0c0 ff51 163c db51 a340 d220 1241
000002a0: 7d91 303f 190e 43bd f11b afc0 ff6d 4e3f
000002b0: 0dd1 42bf e5c9 11bf a911 da3f 3410 1f41
000002c0: 87f1 a1be eec6 4e3f 5d26 9a3c 9325 d93f
000002d0: daa2 e8bf be7a e53e 8f83 e3bf 64a7 9cbf
000002e0: d974 a6be ff53 4e40 2fc9 ba3f 945c 8d3e
000002f0: d036 80c0 4cd8 23c0 33e6 60bf 7b6c bb3b
00000300: 5180 63be 4158 c03e 4660 e23d 380f 623f
00000310: da8e 9cbd 45da b7be d1dc 963f fc8e 6b3f
00000320: 45e8 333f cc70 923f a82a 3b3e 96e3 2e3e
00000330: 5c8c 753c 2c71 dd3f 0454 1f3d a67e b240
00000340: 98dd 693e 620d 0a3f 6650 813f 550a c8bb
00000350: 0c5b d43f fca7 b9be 5974 91bc f742 d3bd
00000360: f386 b53f 2cba c23c 1076 8b40 81d8 88be
00000370: 6705 81bd 4126 e840 0c3c 8e3d 3854 d340
00000380: a73a 1f40 793e a1be 3e5b 16bf e6df ad3c
00000390: 3b78 dd40 6dfa 493f 61d7 c4be e936 0e41
000003a0: 1ace 2340 c39b 4ebd 6fe2 68c1 5bdb 8f3f
000003b0: d465 9e3f cd8a 02be ff21 6140 a1d2 3240
000003c0: 051b 003d 5f6a e23f 9111 74be 9f75 52bf
000003d0: 2127 a1be c3b3 ce3d 95f7 e9c0 3cdb c9be
000003e0: 3a07 f03c 2a41 cd40 7578 7040 8fc6 c0bb
000003f0: 2429 7340 7097 5ebe b2aa 4a3e 9f95 ea3e
-0.18488532 0.008505809 -0.39546973 -0.05224476 -0.14325045 -0.009733481 -0.28282452 -0.40975845
-0.02436521 -0.22697759 -0.04091927 -0.08656635 -0.17014517 -0.33846647 -0.08103474 -0.70725167
-0.7126914 -0.36624762 -1.0144163 -0.38742414 -0.53482145 -0.12778406 -0.09717 0.06144295
-0.48225164 -0.038733087 -0.020161489 -0.07963738 -0.31635723 -0.5585252 0.021465974 -0.08450512
-0.31744325 -0.04926837 -0.9486421 -0.104946256 -0.041651905 -0.37543112 -0.11518116 -0.257394
0.10750246 0.03575829 -0.25244617 -0.37127447 -0.52787805 -0.35684827 -0.64108443 -0.15259403
-0.041608218 -0.3176832 -0.13300611 -0.24023147 0.106511585 -1.1427228 -0.11266059 -0.152608
-0.23284334 -0.06751378 -0.32622924 -0.08486078 -0.6202119 -0.1267087 -0.5170938 -0.012509637
-0.017991628 0.13184878 -0.3823996 -0.07798756 -0.85260755 0.14740385 -0.6016885 -1.0268126
0.017611228 -0.7115904 -0.9064144 -0.22273658 -0.2202275 -0.4220419 -3.207628e-05 -0.23224027
-1.1499428 -0.64412224 -1.1498663 -0.9043444 -0.3821394 -0.08181156 -0.9906924 -0.1362191
-0.11360586 -0.6101629 -0.42211616 -0.3060044 -0.28973722 -1.034179 -0.071172856 -0.8710971
0.010679208 -0.56684583 -0.97962475 -1.806503 -0.29912874 -0.14768024 -0.17199859 -0.8286473
-0.14392245 -0.78921306 -0.62426585 -0.3581439 -0.492655 -0.3767103 -0.32210824 -0.78109545
-0.20916845 -0.3024891 0.55398995 -0.68966806 -1.1833651 -0.4276755 -0.3674351 -0.4303231
-1.180243 -1.1708299 -0.48758307 -0.4256162 -0.4926088 -0.21239884 -0.09097431 -0.23305422
-0.2552858 -0.5411255 1.5658478 4.379863 0.043796673 -0.048340455 1.3154097 2.058369
2.1014717 -0.11432394 -1.8127297 -0.19837373 -1.0381031 0.89713895 0.17204465 0.18902518
-0.13349079 -4.390121 1.5091428 -0.15673497 -1.1274202 -0.017972896 -0.4122178 -0.59411263
-8.854008 -0.5829433 0.33554593 0.0118412785 -0.20373571 5.7648745 0.10911167 -1.1378496
2.0887597 -0.17086896 -0.059295386 0.07483049 -5.024418 0.009174823 5.103742 9.133013
0.68972 -0.047620866 -5.472161 0.8063659 -0.76100236 -0.5694869 1.703664 9.941456
-0.31629583 0.8077229 0.018817121 1.6964592 -1.8174698 0.44820207 -1.7774523 -1.2238584
-0.32511023 3.2238767 1.4592646 0.27609694 -4.006691 -2.5600767 -0.87851256 0.005719719
-0.22216918 0.37567332 0.11053519 0.8830447 -0.07644434 -0.35908714 1.1786138 0.9201505
0.7027629 1.1440673 0.18277991 0.17079005 0.014987078 1.7300162 0.038898483 5.57796
0.22838438 0.5392667 1.0102661 -0.0061047473 1.6590285 -0.36260974 -0.017755674 -0.10315507
1.4181808 0.023770414 4.358162 -0.2672768 -0.062998585 7.2546697 0.06945047 6.6040306
2.4879549 -0.31492975 -0.58732975 0.021224927 6.9209266 0.78897744 -0.3844557 8.888406
2.5594544 -0.050441515 -14.555282 1.1238817 1.2374825 -0.12748261 3.5177 2.7941058
0.031275768 1.7688712 -0.23834826 -0.82210726 -0.31475165 0.100928806 -7.3114724 -0.39425075
0.02930032 6.4142046 3.757352 -0.005883045 3.799386 -0.21737456 0.19791678 0.45817277

fc2.bias f4 [64]
00000000: 6c8b 37c0 0067 89bf 4d9d 21c2 d1e7 fac1
00000010: 0d3a b7bf 413d 2fc2 c1d4 08c2 4cc0 b1c0
00000020: dba4 a8bf 6194 b0be 950b d4bf 1c94 64bf
00000030: 301c 40bf c5f1 25bf 7cbd a1bf 50f7 2dc0
00000040: f1c0 e4bf 19ed ebc1 93ad b1bf 2deb 35c0
00000050: 4d1e bebf f9c9 19bf c91b 1fc2 29a4 b6c0
00000060: 648a c9c1 d685 92bf 964b 3cbf 15ed 1cc0
00000070: f861 00c2 20ec 27c0 5f29 f1c1 2367 70bf
00000080: 5a01 e9bf da02 01c0 0f90 60bf 56b1 5abf
00000090: 02ce 50c2 7361 eac1 e6ff 3bc0 7b36 d0c0
000000a0: 75dd b7bf cec9 82bf 2e1f a4c1 25e3 48c0
000000b0: 7b10 65bf 7b0e c7bf 2279 17c0 c69f 17c2
000000c0: c4d7 8abf 360d 99bf 0c61 02c0 1617 71bf
000000d0: 7721 ffbf 4723 42c0 fba1 6cc2 7c27 5141
000000e0: 2a50 9bbf 34f8 2bc0 adc2 92c1 7c4e 9bbf
000000f0: a603 1fc0 499a cdc0 0c8b 96bf 0df4 2fc2
-2.8678846 -1.0734558 -40.403614 -31.363192 -1.4314591 -43.80982 -34.207767 -5.5547237
-1.317531 -0.34488204 -1.6566035 -0.89288497 -0.7504301 -0.64822036 -1.2635951 -2.7182198
-1.7871381 -29.49077 -1.3881096 -2.842479 -1.4852997 -0.6007381 -39.777134 -5.707539
-25.192574 -1.1447093 -0.73552835 -2.4519703 -32.095673 -2.623787 -30.1452 -0.93907374
-1.8203537 -2.015799 -0.87719816 -0.85426843 -52.20118 -29.297583 -2.9374938 -6.5066504
-1.4364458 -1.0217836 -20.515224 -3.1388638 -0.8947827 -1.5551294 -2.3667684 -37.90603
-1.0847096 -1.1957157 -2.0371733 -0.9417585 -1.9932088 -3.0334032 -59.158184 13.07214
-1.2133839 -2.687024 -18.345057 -1.2133327 -2.4845977 -6.4250836 -1.1761184 -43.98833

fc3.weight f4 [1, 64]
00000000: d4f0 f6bc 5ca4 bbbe 7eeb 8ebd c366 883e
00000010: 922e 873e 1322 06bf c774 9cbe 2900 e1bd
00000020: 04c3 883e 08cd 713e f93a ac3d 7ca5 8b3e
00000030: 7e48 9ebd fc63 85be faf4 833e 13d9 203e
00000040: 1c8f 8c3e 71ba ec3d dbef 0a3e 8404 6d3e
00000050: f14d 34bd 0cdb c9be f172 07bf 947f b9be
00000060: 701d 983d c674 9b3e 4e1b d73d 8c18 ad3e
00000070: e43c b4bf e85a c03e 7a33 a93e 360b f73e
00000080: 7fc2 463e 3bf3 6abe e4d1 c6be b0e6 6fbe
00000090: d576 503e ca89 cabe 86ad 743c 64ad 8ebe
000000a0: ea07 763e 97df a93e de9e 26bf eba7 01be
000000b0: 5cb9 073d 0991 c2be 52c9 cd3e 9de0 97bf
000000c0: 35b9 a5be b90a ae3e d476 c2be 48bc 96bb
000000d0: 56d9 7c3e 890e 193e 47ae f1bd 8d6a 9fbe
000000e0: 37f7 babd c14a 3abe 89b5 8fbf 1290 54be
000000f0: 111b 913d e8ca bbbe e50c 373e 8349 17bf
-0.030144133 -0.36648834 -0.0697851 0.266409 0.26402718 -0.52395743 -0.30557844 -0.10986359
0.26711285 0.2361337 0.08409686 0.27274692 -0.077286705 -0.26052845 0.2577284 0.15707807
0.27452934 0.115589984 0.1356806 0.23146254 -0.044019643 -0.39424932 -0.5290976 -0.36230147
0.0742749 0.3036253 0.10503255 0.3380779 -1.4081082 0.37569356 0.33047086 0.4825074
0.19410132 -0.22944348 -0.3883201 -0.23427844 0.20357831 -0.3955825 0.014933949 -0.27866662
0.24026456 0.33178398 -0.6508616 -0.12661712 0.033135757 -0.38001278 0.40192658 -1.1865422
-0.32367864 0.33992556 -0.37981284 -0.0046000816 0.24692282 0.14946951 -0.11800819 -0.3113598
-0.09129184 -0.18192579 -1.1227275 -0.20758083 0.07085241 -0.36678243 0.17876013 -0.59096545
