trained_models_1L_5/sensor_malfunction_model.pth (torch, 24479 bytes, 5 tensors)

fc1.weight f4 [64, 19]
0.075224094 0.1287165 -0.08084127 -0.43329805 0.25553408 0.2612243 -0.38649544 0.07214569
-0.34032887 0.55775064 0.04987869 0.23998185 0.6900234 0.071536675 0.111445904 0.40819654
-0.018972663 -0.32991618 0.25616744 0.2111316 -0.07447216 0.41615355 0.4371439 -0.15142737
-0.011893084 0.004299758 -0.12985736 -0.1874023 -0.2621135 0.030566389 0.18787447 -0.26486936
-0.08861936 -0.2546652 0.040843748 0.028051877 -0.25392318 -0.1406749 -9.21978 7.2404466
-0.581556 -10.760357 4.408397 -1.2003602 4.4190516 -0.16799572 2.4906547 3.4621453
1.500336 3.5967903 -8.634366 -8.797701 -9.083343 9.361849 3.6670094 2.789353
-0.85007554 -0.040515427 -0.036659513 0.01457796 0.12151994 -0.088713884 0.018275227 -0.02328363
-0.008227258 0.015276429 0.03175078 0.02120103 0.081337 0.039534993 0.0029214125 -0.09295991
-0.120307624 -0.016066436 -0.033054695 0.00020113295 -0.30641854 0.01721904 -0.16909564 0.24804935
-0.008524464 0.14737272 0.016655963 -0.30143175 0.31359524 -0.12751241 -0.0071272976 0.021425178
0.102700576 0.10171094 0.28006542 -0.17615671 -0.15677355 -0.0891438 0.19868954 -0.0044182767
-2.7898428 9.976509 -6.2927017 1.7658435 6.3249764 11.152408 -4.647066 7.1269956
9.37571 4.0688815 7.538057 11.298493 -3.6074471 -2.2248528 -9.874907 0.59806156
7.0654945 8.152423 -0.20974854 0.27426732 0.025443297 0.45593086 0.032730814 0.059549157
0.008241542 0.2179534 0.13109073 0.25516507 -0.017463772 0.102823846 -0.09380915 0.2025344
0.105313115 -0.009176957 0.044864953 -0.12042422 -0.16552028 0.36252177 0.21979004 1.0932521
0.11904122 0.833957 0.41175967 0.98348695 -0.86296004 -0.7453465 0.01730523 -0.82104355
0.6329956 -0.8662422 -1.344703 -1.627206 0.8540909 -0.7337794 0.60120636 0.9341891
0.0012786642 0.040369853 0.0400169 -0.114569455 0.02349054 -0.1528045 0.11030305 -0.16232768
0.15806678 0.18508704 0.00383735 0.17560117 0.11048598 -0.005700556 -0.11769624 -0.045855254
0.3613167 -0.02281948 -0.027101655 0.17641605 -0.41305682 -0.03953718 -0.015816798 0.16269395
-0.0327416 0.10647689 -0.0021692559 0.2931211 0.03467875 -0.014212939 -0.04924087 0.23363154
-0.25984767 0.08187939 0.083250254 0.23603116 -0.07864586 0.38814244 0.10707555 0.12458284
-0.63706136 0.7464641 -0.46601635 0.007386748 0.52089965 -0.33435035 -0.2327269 0.15351085
0.3536645 -0.13340732 -0.12651718 -0.124424174 -0.059247706 -0.038332634 0.042029936 0.24636209
0.042322353 0.91866827 -2.131978 -1.3181293 -1.5613828 -2.6101193 0.86477154 -0.89760584
1.2436395 1.7010933 6.241041 -3.2179396 2.4901888 0.9063779 -0.2388455 2.4552517
-4.8664346 1.7331818 3.8644853 -3.5435348 -0.29972857 -0.25854644 -0.0014819269 -0.024063583
-0.42155397 -0.053961568 -0.16210684 0.19679469 0.1539253 -0.42872053 0.31401202 -0.5151336
0.4345323 -0.17877676 -0.06770944 0.045886453 0.7606209 -0.029204607 -0.09536998 0.0616772
0.09924735 0.08664798 -0.11074513 -0.11591569 0.12438209 0.07463079 -0.15936328 -0.1916133
00000000: 170f 9a3d 42ce 033e 1c90 a5bd 3ed9 ddbe
00000010: 5dd5 823e 31bf 853e bbe2 c5be 1fc1 933d
00000020: 963f aebe bfc8 0e3f 994d 4c3d cdbd 753e
00000030: 60a5 303f d281 923d c03d e43d 23ff d03e
00000040: 8f6c 9bbc c6ea a8be 6128 833e e232 583e
00000050: dc84 98bd 1412 d53e 53d1 df3e c70f 1bbe
00000060: 36db 42bc fce4 8c3b 54f9 04be 63e6 3fbe
00000070: be33 86be 5d66 fa3c 2a62 403e f59c 87be
00000080: 117e b5bd 7a63 82be c64b 273d 0dcd e53c
00000090: 3802 82be 150d 10be 3884 13c1 bdb1 e740
000000a0: dbe0 14bf 6c2a 2cc1 9711 8d40 67a5 99bf
000000b0: df68 8d40 1207 2cbe e366 1f40 ca93 5d40
000000c0: 030b c03f d031 6640 5d26 0ac1 62c3 0cc1
000000d0: 5f55 11c1 22ca 1541 48b0 6a40 c284 3240
000000e0: 8d9e 59bf 81f3 25bd 4928 16bd 65d8 6e3c
000000f0: 72df f83d a0af b5bd eeb5 953c 50bd bebc
00000100: 9fcb 06bc fd49 7a3c 1b0d 023d c8ad ad3c
00000110: 0394 a63d 72ef 213d 2b75 3f3b c461 bebd
00000120: d863 f6bd c29d 83bc 5c64 07bd 37e7 5239
00000130: e4e2 9cbe f20e 8d3c 6827 2dbe a600 7e3e
00000140: 32aa 0bbc e0e8 163e 1672 883c 4355 9abe
00000150: 8e8f a03e 9d92 02be 1b8c e9bb db83 af3c
00000160: ae54 d23d d34d d03d bc64 8f3e 6d62 34be
00000170: 3f89 20be 0691 b6bd 4575 4b3e 31c7 90bb
00000180: c98c 32c0 c89f 1f41 d05d c9c0 2907 e23f
00000190: 3566 ca40 4370 3241 c4b4 94c0 5910 e440
000001a0: e802 1641 4734 8240 c337 f140 a1c6 3441
000001b0: 6ae0 66c0 fd63 0ec0 9eff 1dc1 901a 193f
000001c0: 8818 e240 5370 0241 52c8 56be c46c 8c3e
000001d0: 766e d03c c56f e93e bf10 063d d1e9 733d
000001e0: 8807 073c 2d2f 5f3e a63c 063e ffa4 823e
000001f0: 2f10 8fbc 4f95 d23d 031f c0bd 2e65 4f3e
00000200: 67ae d73d f35a 16bc 50c4 373d f9a0 f6bd
00000210: 267e 29be 749c b93e a410 613e afef 8b3f
00000220: e2cb f33d 357e 553f 2ad2 d23e cdc5 7b3f
00000230: f3ea 5cbf 07cf 3ebf b3c3 8d3c e92f 52bf
00000240: 000c 223f 0cc2 5dbf 3a1f acbf 4948 d0bf
00000250: b4a5 5a3f f7d8 3bbf a9e8 193f 0427 6f3f
00000260: da98 a73a dc5a 253d c3e8 233d 64a3 eabd
00000270: 3c6f c03c c878 1cbe 91e6 e13d 3a39 26be
00000280: 42dc 213e 7587 3d3e 0d7c 7b3b cbd0 333e
00000290: 7946 e23d bbcb babb ba0a f1bd b8d2 3bbd
000002a0: 81fe b83e ebef babc 4a04 debc 69a6 343e
000002b0: 2f7c d3be bdf1 21bd 3b92 81bc 3e99 263e
000002c0: 0e1c 06bd 8e10 da3d 132a 0ebb f813 963e
000002d0: 4e0b 0e3d 63dd 68bc cbb0 49bd 1b3d 6f3e
000002e0: c10a 85be 62b0 a73d 1c7f aa3d 27b2 713e
000002f0: 1511 a1bd 9bba c63e 6d4a db3d 4a25 ff3d
00000300: 7416 23bf 4518 3f3f b299 eebe 890c f23b
00000310: ae59 053f f82f abbe f64f 6ebe f331 1d3e
00000320: 8313 b53e ee9b 08be b88d 01be 1ad2 febd
00000330: b9ad 72bd ae02 1dbd 9527 2c3d 5846 7c3e
00000340: 345a 2d3d d82d 6b3f 5472 08c0 76b8 a8bf
00000350: 64db c7bf 320c 27c0 ab61 5d3f 7fc9 65bf
00000360: 942f 9f3f 6dbd d93f 9cb6 c740 b9f2 4dc0
00000370: 415f 1f40 6208 683f ea93 74be d822 1d40
00000380: d5b9 9bc0 e7d8 dd3f ba53 7740 46c9 62c0
00000390: 0676 99be 3360 84be 373d c2ba fe20 c5bc
000003a0: ecd5 d7be ce06 5dbd 56ff 25be 8c84 493e
000003b0: 989e 1d3e 4281 dbbe 2fc6 a03e ccdf 03bf
000003c0: 057b de3e 4111 37be 3fab 8abd 6ff3 3b3d
000003d0: 0db8 423f 803e efbc 5651 c3bd 3ba1 7c3d
000003e0: 3242 cb3d 7f74 b13d 58ce e2bd 3565 edbd
000003f0: 0abc fe3d 07d8 983d 2130 23be 4736 44be

fc1.bias f4 [64]
-7.293564 -3.5130715 -67.48965 -0.9681783 -3.5189326 -74.22307 -3.0880187 -17.260954
-2.3742645 -3.8414147 -6.4217863 -42.538803 -5.1261926 -2.129176 -5.6471524 -5.087011
-7.738931 -9.735714 -2.7365222 -4.5704923 -4.6355414 -4.86817 -14.875836 -1.0306451
-45.226772 -1.278056 -0.7734242 -11.199414 -7.0830073 -14.75577 -71.69982 -3.7807412
-65.816376 -3.584769 -4.9798636 -4.7766485 -5.382231 -63.433384 -2.5426044 -5.192367
-8.726145 -26.611395 -12.296951 -70.56309 -79.17258 -71.53519 44.950054 -2.9222708
-6.1712255 -4.5563407 -1.2590569 -3.2781181 -2.315566 -11.069245 -76.43367 -5.0052543
-1.9601355 -56.313038 -73.10299 -85.611885 -5.9333305 -4.857061 -2.8489861 -76.35247
00000000: e064 e9c0 2ad6 60c0 b3fa 86c2 88da 77bf
00000010: 3136 61c0 3672 94c2 19a2 45c0 6f16 8ac1
00000020: f3f3 17c0 bdd9 75c0 467f cdc0 bc27 2ac2
00000030: c509 a4c0 6b44 08c0 79b5 b4c0 cbc8 a2c0
00000040: 53a5 f7c0 7cc5 1bc1 2e23 2fc0 7941 92c0
00000050: 5b56 94c0 0cc8 9bc0 6d03 6ec1 2eec 83bf
00000060: 37e8 34c2 5797 a3bf 21ff 45bf cd30 33c1
00000070: ffa7 e2c0 a217 6cc1 4f66 8fc2 aaf7 71c0
00000080: fca1 83c2 db6c 65c0 0b5b 9fc0 4eda 98c0
00000090: 3d3b acc0 c9bb 7dc2 08ba 22c0 df27 a6c0
000000a0: 4a9e 0bc1 23e4 d4c1 50c0 44c1 4d20 8dc2
000000b0: 5c58 9ec2 0412 8fc2 dbcc 3342 7c06 3bc0
000000c0: ae7a c5c0 8bcd 91c0 c728 a1bf b0cc 51c0
000000d0: 3c32 14c0 a11b 31c1 0ade 98c2 0b2b a0c0
000000e0: b8e5 fabf 8d40 61c2 bb34 92c2 4939 abc2
000000f0: d8dd bdc0 0b6d 9bc0 ca55 36c0 77b4 98c2

fc2.weight f4 [64, 64]
-0.12536132 -0.089662015 -0.23171271 -0.033099655 -0.2080196 -0.09958913 -0.18028417 -0.156242
-0.0071387514 0.05073574 -0.38757253 -0.4241443 -0.20267269 -0.3990463 -0.15942876 -0.041782223
-0.5144377 -0.21910232 -0.026700009 -0.20949261 -0.19647256 -0.3850622 -0.31984448 -0.053205244
-0.4786769 -0.12563848 -0.18630245 -0.73954564 -0.06408753 -0.29570332 -0.24926868 -0.488025
0.05402599 -0.49774477 -0.0068164463 -0.06738813 0.03491126 0.004702266 -0.21664296 -0.18900639
-0.34870553 -0.25245407 -0.10165017 -0.21896638 -0.23535202 -0.1910628 -0.16236804 -0.12657413
-0.07046966 -0.4265399 0.12075417 -0.08663115 -0.033809762 -0.23325104 -0.7044699 -0.22357707
-0.22685061 -0.1959029 0.005977344 -0.102867626 -0.31946117 -0.19095992 -0.2426157 0.025107078
-0.079909205 0.025142469 0.024949962 -0.11316548 0.104884386 -0.21125524 -0.005322404 -0.2172324
-0.112037994 -0.05728999 -0.18070565 -0.1987009 -0.07480607 -0.04730868 -0.20829695 -0.103616044
-0.20371889 -0.50429964 -0.0784765 -0.17601822 -0.03701824 -0.16785297 -0.45517293 -0.14489186
-0.31498718 -0.019579468 0.10205197 -0.14640932 -0.11867446 -0.3643958 -0.120147854 -0.45834294
-0.0055044624 -0.16946366 -0.39199156 -0.06730488 -0.055952266 -0.069771424 -0.27041912 -0.19921112
-0.20484313 0.0002714705 -0.124556825 -0.03755892 -0.062360305 -0.32157624 -0.15547477 -0.13550495
-0.06557774 -0.022911606 -0.056392226 -0.55224514 -0.1427567 -0.14393361 -0.0201915 -0.10487373
0.062375266 -0.45529893 -0.08000908 -0.20344876 -0.09119775 -0.037095137 -0.1459136 -0.14722961
-0.62011445 0.157691 -0.38869643 -0.09492805 -0.1493836 -0.49720246 -0.14456798 -0.03047067
-0.028472362 -0.53229946 -0.5192223 -1.0635624 -0.11174415 -0.16842178 -0.3456282 -0.2063841
-0.43670148 -0.48468444 -0.1304007 -0.102363236 -0.09577499 -0.50328475 -0.27980897 -0.07287794
-0.6564569 -0.16478004 -0.14205112 -1.0803396 -0.6425662 -0.053048402 -0.120514125 -0.21930403
-0.42370254 -0.28724438 0.0095102005 -0.113762975 -0.05114656 -0.007859884 -0.012678853 -0.61757106
-0.3228967 -0.8296893 -1.0811431 -0.5587478 0.07310729 -0.6471617 -0.647797 0.28782073
-0.1934361 -0.37048665 -0.08428879 -0.0003670214 -0.16360636 -0.86952925 -0.07913028 -0.36460721
-0.07836888 -0.1832597 -0.14177631 -0.57746166 -0.09370354 -0.50644475 -0.07238675 -0.09256585
-0.027643643 -0.105852164 -0.045602977 -0.037683267 -0.04256292 -0.20572159 -0.012744405 -0.048644114
-0.086111225 -0.2086856 -0.12673897 -0.5158719 -0.18758671 -0.13472433 0.02488966 -0.28622416
-0.21823414 -0.030486003 -0.052472662 -0.08099122 -0.13069946 -0.08908764 -0.015155343 -0.07719612
-0.12373763 0.015517248 -0.24785899 -0.13508447 -0.060506016 -0.44619232 -0.17466998 -0.30755913
-0.22736506 -0.28064108 -0.3471209 0.07721018 -0.05862588 -0.18044208 -0.2516877 -0.12597317
-0.26572675 -0.040814172 -0.17555526 -0.43564573 -0.13754718 0.010369259 -0.18687117 -0.14913405
-0.250796 -0.20437557 -0.1908441 -0.1284999 -0.033384543 -0.3146248 -0.13202779 -0.09057818
-0.17890462 -0.22520454 -0.05616412 -0.06771741 -0.13836724 -0.072038025 -0.24109587 -0.08100718
00000000: b85e 00be b8a0 b7bd 1946 6dbe 8193 07bd
00000010: 1703 55be 63f5 cbbd 6a9c 38be e7fd 1fbe
00000020: 30ec e9bb 48d0 4f3d e86f c6be 7129 d9be
00000030: 6e89 4fbe cc4f ccbe 4b41 23be d623 2bbd
00000040: 30b2 03bf 5c5c 60be fab9 dabc 3b85 56be
00000050: 1a30 49be df26 c5be a8c2 a3be beed 59bd
00000060: 2315 f5be 60a7 00be 12c6 3ebe dd52 3dbf
00000070: 5340 83bd 6d66 97be 4a40 7fbe 6ade f9be
00000080: 5b4a 5d3d 67d8 febe 7f5c dfbb ca02 8abd
00000090: 1cff 0e3d 7715 9a3b a7d7 5dbe e48a 41be
000000a0: 8889 b2be a941 81be f72d d0bd b938 60be
000000b0: 1f00 71be f7a5 43be cf43 26be a69c 01be
000000c0: 6652 90bd 7063 dabe f64d f73d ac6b b1bd
000000d0: 1b7c 0abd 5cd9 6ebe 2458 34bf 63f1 64be
000000e0: 874b 68be c59a 48be 98dd c33b 43ac d2bd
000000f0: 6a90 a3be ff8a 43be 4070 78be 5cad cd3c
00000100: 70a7 a3bd 94f7 cd3c dd63 cc3c 4ec3 e7bd
00000110: a0cd d63d 4b53 58be 9067 aebb 2c72 5ebe
00000120: 2d74 e5bd e9a8 6abd e70a 39be 4078 4bbe
00000130: ed33 99bd bfc6 41bd cc4b 55be a634 d4bd
00000140: af9b 50be c819 01bf 4ab8 a0bd 1f3e 34be
00000150: 70a0 17bd a6e1 2bbe 6d0c e9be 885e 14be
00000160: 0046 a1be 1f65 a0bc a000 d13d 53ec 15be
00000170: 980b f3bd 1692 babe 1410 f6bd edab eabe
00000180: c75e b4bb e287 2dbe 1eb3 c8be 24d7 89bd
00000190: 342e 65bd 52e4 8ebd 6074 8abe 00fe 4bbe
000001a0: 66c2 51be 2754 8e39 a617 ffbd 62d7 19bd
000001b0: 856d 7fbd a4a5 a4be c734 1fbe cfc1 0abe
000001c0: 9f4d 86bd 1fb1 bbbc 89fb 66bd f05f 0dbf
000001d0: d02e 12be 5563 13be a568 a5bc 0ac8 d6bd
000001e0: 357d 7f3d f11c e9be cddb a3bd df54 50be
000001f0: e3c5 babd 12f1 17bd 606a 15be 5cc3 16be
00000200: d2bf 1ebf c079 213e 3803 c7be a369 c2bd
00000210: 04f8 18be 5291 febe a109 14be a09d f9bc
00000220: df3e e9bc c744 08bf c1eb 04bf d022 88bf
00000230: 1eda e4bd c276 2cbe 2ef6 b0be 5a56 53be
00000240: 5697 dfbe 8f28 f8be c387 05be d1a3 d1bd
00000250: ae25 c4bd 45d7 00bf 1f43 8fbe 0841 95bd
00000260: 8f0d 28bf 19bc 28be d975 11be 9148 8abf
00000270: 387f 24bf 4849 59bd 1cd0 f6bd 3c91 60be
00000280: 8aef d8be b211 93be acd0 1b3c 90fc e8bd
00000290: 0e7f 51bd bec6 00bc f7ba 4fbc 2319 1ebf
000002a0: b752 a5be 8566 54bf e662 8abf 190a 0fbf
000002b0: 46b9 953d 64ac 25bf 06d6 25bf 3d5d 933e
000002c0: 1d14 46be 6db0 bdbe 9a9f acbd c76c c0b9
000002d0: 6d88 27be 7899 5ebf 0e0f a2bd ccad babe
000002e0: dd7f a0bd 6ea8 3bbe cf2d 11be 87d4 13bf
000002f0: a4e7 bfbd 5da6 01bf 813f 94bd 2a93 bdbd
00000300: ec74 e2bc 05c9 d8bd 30ca 3abd c559 1abd
00000310: 7556 2ebd aea8 52be e9cd 50bc 0d3f 47bd
00000320: 155b b0bd aeb1 55be dcc7 01be 2e10 04bf
00000330: bb16 40be 2df5 09be 66e5 cb3c f98b 92be
00000340: c578 5fbe c8bd f9bc 93ed 56bd bade a5bd
00000350: 14d6 05be 9573 b6bd 1e4e 78bc 0019 9ebd
00000360: 286a fdbd 0e3c 7e3c bfce 7dbe 9553 0abe
00000370: 28d5 77bd 5273 e4be b0dc 32be 6478 9dbe
00000380: 63d2 68be 30b0 8fbe d5b9 b1be 5f20 9e3d
00000390: b121 70bd cfc5 38be 36dd 80be 1cff 00be
000003a0: 560d 88be c32c 27bd c2c4 33be f50c dfbe
000003b0: 2bd9 0cbe d3e3 293c 285b 3fbe 99b6 18be
000003c0: 5568 80be d447 51be a36c 43be 7a95 03be
000003d0: 3bbe 08bd 8016 a1be 4b32 07be 0e81 b9bd
000003e0: c632 37be 059c 66be 590c 66bd 6daf 8abd
000003f0: 24b0 0dbe ac88 93bd d6e1 76be 18e7 a5bd

fc2.bias f4 [64]
-1.1427448 -0.8329499 -1.9787583 -0.69458616 -0.9828348 -1.3696356 -0.68411386 -0.6847856
-19.30699 -53.145992 -0.75598466 -2.107526 -1.043241 -40.633827 -2.0764182 -9.264135
-0.83278894 -45.9781 -0.7235065 -2.584199 -0.8063168 -2.4623303 -0.82995224 -1.0427884
-1.4090824 -4.1043673 -22.947395 -55.33626 -1.7386384 -7.6805086 -0.8223591 -0.83117723
-52.510788 -3.4638135 -0.574197 -1.5925825 -5.7210093 -0.85805655 -1.5195178 -28.014109
-0.6575197 -0.59955287 -0.6920262 -3.564292 -0.8701605 -1.117772 -2.8513336 -62.09296
-1.1477522 -0.15827253 -1.4845457 -1.8047913 -0.8339932 -36.25993 -0.804425 -0.9729736
1.8261417 -0.7151596 -1.2233363 -2.7626634 -1.8441714 -1.1010684 -8.4619055 -1.2208165
00000000: 7645 92bf 343c 55bf f447 fdbf 66d0 31bf
00000010: 109b 7bbf 3850 afbf 1622 2fbf 1c4e 2fbf
00000020: b774 9ac1 7f95 54c2 3688 41bf b5e1 06c0
00000030: ec88 85bf 0a89 22c2 09e4 04c0 e639 14c1
00000040: a831 55bf 93e9 37c2 b937 39bf 8463 25c0
00000050: c76a 4ebf d296 1dc0 c077 54bf 177a 85bf
00000060: d05c b4bf fa56 83c0 4494 b7c1 5558 5dc2
00000070: b48b debf bac6 f5c0 2086 52bf 08c8 54bf
00000080: 0c0b 52c2 1faf 5dc0 93fe 12bf bed9 cbbf
00000090: 8212 b7c0 98a9 5bbf 8f7f c2bf e51c e0c1
000000a0: 3653 28bf 4c7c 19bf a128 31bf 5c1d 64c0
000000b0: d7c2 5ebf 2713 8fbf 407c 36c0 315f 78c2
000000c0: 8be9 92bf 3212 22be 9805 bebf 6703 e7bf
000000d0: 9480 55bf 2b0a 11c2 ccee 4dbf cc14 79bf
000000e0: 03bf e93f b314 37bf 4996 9cbf 7acf 30c0
000000f0: cf0d ecbf cfef 8cbf f763 07c1 b743 9cbf

fc3.weight f4 [1, 64]
0.032331374 -0.31242567 -0.34592816 -0.32288337 -0.121804856 -0.3359819 -0.45736945 -0.46277902
-1.5583209 -0.6860472 -0.34926084 0.008028229 -0.06343664 0.27788904 -0.0013308141 0.1640739
-0.4130526 -1.3589123 0.037996676 -0.41875282 -0.4542874 -0.16975805 -0.40890113 -0.469171
0.33720744 0.14198558 0.29195946 -0.23895586 -0.19469814 -0.27986255 -0.45100805 0.025766626
-1.6660341 0.14269435 0.051916543 0.106553055 -0.32581964 -0.3741579 -0.04144435 -0.5561704
-0.13319047 -0.43477535 -0.39871097 -0.16479477 0.5033027 -0.024550924 -0.11795202 -0.7574288
-0.039705817 -0.26914892 0.3603673 -0.21543409 -0.4554888 -0.16779593 -0.38676745 -0.4614146
-0.30378628 -0.4012204 -0.13401099 -0.3890442 0.09862019 -0.38066152 -0.4277362 -0.079073384
00000000: e76d 043d 42f6 9fbe 7f1d b1be f850 a5be
00000010: d374 f9bd d205 acbe 542c eabe 5ff1 ecbe
00000020: 0f77 c7bf caa0 2fbf 51d2 b2be d588 033c
00000030: 12eb 81bd 7947 8e3e b66e aeba fd02 283e
00000040: a17b d3be d7f0 adbf 67a2 1b3d c566 d6be
00000050: 5c98 e8be 0ed5 2dbe 7d5b d1be 2e37 f0be
00000060: 74a6 ac3e ab64 113e b67b 953e d8b0 74be
00000070: f35e 47be 254a 8fbe 87ea e6be 8814 d33c
00000080: 9b40 d5bf 781e 123e 71a6 543d 7d38 da3d
00000090: d5d1 a6be a091 bfbe 8dc1 29bd 2f61 0ebf
000000a0: 1563 08be e09a debe d823 ccbe f6bf 28be
000000b0: 72d8 003f 051f c9bc d490 f1bd dbe6 41bf
000000c0: 91a2 22bd e3cd 89be 1082 b83e c19a 5cbe
000000d0: d435 e9be b2d2 2bbe 6206 c6be 893e ecbe
000000e0: e089 9bbe c36c cdbe 2d3a 09be cd30 c7be
000000f0: 62f9 c93d 11e6 c2be 3d00 dbbe 3af1 a1bd
