trained_models_1L_5/vandalism_model.pth (torch, 24343 bytes, 5 tensors)

fc1.weight f4 [64, 19]
000000 57 12 93 41 82 1b 2a c1 eb 62 98 3f 68 fc 3e 41
       18.383955 -10.631716 1.1905187 11.936623
000010 1b 61 8c c0 0d 60 3b 41 10 5e cf 41 5f 3e 2b c1
       -4.3868537 11.71095 25.920929 -10.702727
000020 01 98 69 41 90 ee 98 40 5b c0 0c 41 f3 e2 94 40
       14.59961 4.7791214 8.796962 4.652704
000030 40 6b eb be 1e 00 74 bf 80 8a 27 41 8c 98 9c 3f
       -0.45980263 -0.9531268 10.471313 1.2234054
000040 51 5c 99 40 a6 c2 74 c1 eb 12 56 c1 87 01 37 41
       4.792519 -15.297522 -13.379619 11.437873
000050 22 89 60 41 c1 bd 0a 41 73 19 32 c1 ff da 85 c0
       14.03348 8.671327 -11.131213 -4.182983
000060 09 67 62 41 03 b8 91 41 f4 d9 b7 bf 7d 20 58 41
       14.150155 18.21485 -1.4363389 13.507932
000070 e8 fb e5 bf 54 28 40 bf 22 45 01 c0 10 d4 48 40
       -1.7967501 -0.75061536 -2.0198445 3.1379433
000080 ec 5c ae c0 5a 8d b4 3e 22 c8 17 41 8e 3c 0e c1
       -5.448843 0.35264093 9.486361 -8.889784
000090 f6 4b 19 c1 f4 1e c9 c0 d7 b0 b3 3f 6a dd 2e c1
       -9.581045 -6.2850285 1.4038342 -10.929056
0000a0 34 dd 26 c0 b9 5a d0 40 0a b0 77 c0 d6 68 fb 3f
       -2.6072512 6.5110745 -3.8701196 1.9641368
0000b0 8e 96 13 c1 06 78 5b c0 a5 c6 f4 40 27 75 22 40
       -9.2242565 -3.4292006 7.6492486 2.5384004
0000c0 23 3d 7f c1 3c 32 b9 c0 26 ae d8 3e 62 25 08 c0
       -15.952426 -5.787382 0.42320365 -2.1272817
0000d0 0b 70 aa c0 9e 10 85 3f 7e 39 ed c0 1b 87 43 c1
       -5.326177 1.0395696 -7.413268 -12.220485
0000e0 ee 2a c1 40 af 62 ff bf d8 33 0f c1 5b 60 31 c1
       6.0364904 -1.9951991 -8.950157 -11.086024
0000f0 4b 35 3c 41 a2 42 7d 40 ce ee 92 c0 3b 04 e3 3f
       11.763011 3.957192 -4.591651 1.7735666
000100 dc 8b 2c c1 47 82 35 40 4b 48 91 c0 8a f1 8b 40
       -10.784145 2.8360765 -4.540075 4.3732347
000110 72 42 81 3f b8 d5 97 40 fa c2 7b c1 51 3c 49 c1
       1.0098403 4.7448387 -15.735102 -12.577226
000120 fa e6 58 41 9c 42 99 41 f0 e0 56 c1 e5 06 db 40
       13.556391 19.157524 -13.429916 6.8445916
000130 57 af 17 40 ca 29 b9 40 e9 91 53 c0 04 55 cf 40
       2.370077 5.786351 -3.3057806 6.479128
000140 b4 72 e4 bf 09 19 0f c0 45 9b 10 c1 b3 85 59 bf
       -1.7847505 -2.235903 -9.037908 -0.84969634
000150 d5 35 31 c0 c8 70 a6 c0 11 3f d5 40 68 7d bd bf
       -2.7689106 -5.2012672 6.6639485 -1.4803896
000160 51 32 b4 c0 50 bf bd c1 ec 84 dc 3f 47 ed f2 c0
       -5.631142 -23.718414 1.7228065 -7.5914645
000170 49 5e 30 c0 ac db 90 c1 24 a4 2b 41 41 cb 2e 40
       -2.7557547 -18.107262 10.727573 2.7311556
000180 96 14 30 41 a3 87 0a c0 84 c8 99 c0 a2 8c 44 c1
       11.005026 -2.1645286 -4.805727 -12.284334
000190 c6 26 07 bf 44 dd 6a 40 9f c1 73 c1 6d b5 1d c1
       -0.5279354 3.669755 -15.234771 -9.856793
0001a0 09 37 d2 40 5c 9b 9a 40 ce 4e 98 3f 6b 39 33 c1
       6.569218 4.831465 1.1899049 -11.201518
0001b0 58 e2 c2 c0 31 39 c6 3f 56 d4 a4 c0 51 08 29 40
       -6.09013 1.5486203 -5.15092 2.6411326
0001c0 bb 8e a8 c0 d9 f2 e5 c0 4e 04 2d c0 50 7d 43 41
       -5.267423 -7.1858945 -2.7033877 12.218094
0001d0 1e c3 64 41 25 83 9c c0 4b 08 9e be 40 e9 4c c1
       14.297636 -4.891009 -0.30865702 -12.806946
0001e0 79 33 a2 40 6e 11 ab bf 29 9d 6c c1 72 23 f5 c0
       5.0687833 -1.3364694 -14.788369 -7.660577
0001f0 4d f0 d5 bf b2 12 09 bf 83 43 cb be 5f a4 61 40
       -1.6713959 -0.5354415 -0.39699945 3.5256574
000200 03 6b c8 40 1f 63 4b c1 4c a6 e9 40 f3 79 96 c1
       6.263063 -12.7116995 7.30155 -18.809546
000210 4d 97 26 40 86 12 2d 41 39 3b 2f 41 b4 13 34 c1
       2.6029847 10.817022 10.951959 -11.25481
000220 a7 40 b2 c0 3f 26 23 41 e3 dc e2 3f af b3 98 c0
       -5.570392 10.196837 1.7723659 -4.771934
000230 66 60 44 c1 36 4a 23 41 f9 28 0f 41 69 49 a6 40
       -12.273535 10.205618 8.947503 5.196461
000240 f2 c1 be 40 70 26 bf 40 e5 80 29 c1 6b 5b 9e c1
       5.961175 5.973442 -10.593968 -19.794638
000250 b0 07 55 41 1c 2c 7f 40 74 9e 49 c1 a9 cf 9e c0
       13.314377 3.9870672 -12.601185 -4.962849
000260 4d 4d 3c c1 a7 f3 08 c1 7b b7 ec c0 f0 24 25 c1
       -11.768872 -8.559485 -7.3973975 -10.321518
000270 ea 0c f9 c0 cf 74 1e c0 1c 7f 53 3f c6 75 e2 40
       -7.7828264 -2.4758794 0.8261583 7.0768766
000280 2c f9 7f bf bf bd 0d 41 8d 90 8f 40 14 f3 73 40
       -0.9998958 8.858825 4.4863954 3.8117113
000290 33 83 54 c0 87 15 75 c0 57 67 bf c0 b6 bf 52 41
       -3.3205078 -3.829439 -5.9813647 13.171804
0002a0 84 75 65 c1 a0 d9 30 c1 5e 6f fe bf 12 ec 5b 3d
       -14.34119 -11.053131 -1.9877737 0.05369193
0002b0 77 27 de 40 48 03 1c 41 8a 5f e5 3f 9f 9a d0 40
       6.9423175 9.750801 1.7919781 6.5188746
0002c0 5b 89 c5 40 3e 4f a6 bf b9 90 b8 bd 8a fb 17 c1
       6.173017 -1.2992933 -0.09011979 -9.498911
0002d0 fa 56 9f 40 5a 76 f7 bc 4e 04 10 41 1d 9a 22 41
       4.9793673 -0.030207802 9.001051 10.162625
0002e0 e4 33 f8 c0 bf 77 f4 be 18 b7 72 41 51 43 84 c1
       -7.7563343 -0.4774761 15.169701 -16.53287
0002f0 ea 3f 3c c1 18 0c f3 c0 7f 65 7c c1 41 e2 99 c0
       -11.765604 -7.5952263 -15.774779 -4.808869
000300 63 80 70 bc 28 44 33 c0 62 47 a9 c1 88 86 df 3c
       -0.014679047 -2.801035 -21.159855 0.02728583
000310 62 84 54 41 5a 1d ca 3f 0c b4 34 c1 50 48 92 40
       13.28232 1.5790207 -11.293957 4.571327
000320 3c 87 ae 40 24 87 2c c1 0e c1 ac 40 bf 70 d2 c0
       5.454008 -10.782993 5.3985662 -6.576263
000330 ca ca 17 c1 6a bf 4b 41 63 71 f6 c0 5a 95 63 c1
       -9.487009 12.734232 -7.701341 -14.223963
000340 6c dc 0f 40 fd f6 b2 c0 73 83 32 40 12 80 32 41
       2.2478285 -5.59265 2.789273 11.156267
000350 e5 1c ed be 63 e7 bc c0 89 17 5f 41 54 60 7e c0
       -0.46311107 -5.9032454 13.943246 -3.9746294
000360 34 cf e6 c0 45 fd 4f 41 7d ef 58 40 ed d9 5d c1
       -7.2127934 12.999333 3.3896172 -13.865705
000370 52 6a d2 40 d1 b1 b6 c0 c6 8f c8 bf c6 72 88 3e
       6.5754786 -5.709206 -1.5668876 0.26650065
000380 79 5b 86 41 11 d2 68 c1 b9 7d 40 c1 33 8d 42 bc
       16.794664 -14.551286 -12.030694 -0.011874485
000390 72 c9 80 c0 6f 9b a8 41 ab be 61 c1 a8 3a 5c 40
       -4.0245905 21.075895 -14.10905 3.44108
0003a0 a3 05 ec 3f 90 4c 16 c0 fc 22 ca bf 08 9a 1d c0
       1.843922 -2.348423 -1.5791926 -2.4625263
0003b0 eb 38 5f 41 6b 06 98 40 a6 12 b4 3f 36 bb d4 c0
       13.951396 4.7507834 1.4068191 -6.647853
0003c0 86 fc a3 c0 d1 a9 f5 c0 97 de 9b c0 c7 8c c5 41
       -5.1245756 -7.6769795 -4.8709216 24.693739
0003d0 a2 e6 9a c1 0f 12 70 c1 de 4b 8a 40 ad 5a e0 3f
       -19.362614 -15.004409 4.321761 1.7527672
0003e0 99 8a 7a c0 63 4e 8a c1 7f dc 01 c1 70 eb 67 c1
       -3.9147093 -17.288275 -8.116332 -14.49498
0003f0 21 39 94 c0 b7 10 69 40 20 8e 18 c1 66 3d 98 c0
       -4.6319737 3.6416452 -9.5346985 -4.757495

fc1.bias f4 [64]
000000 1c 78 37 c1 b3 19 ac c0 94 f1 5b c1 48 9c 78 c1
       -11.466824 -5.378137 -13.746479 -15.538155
000010 a4 32 c9 41 67 32 e0 c1 34 9c 92 c0 80 78 02 c2
       25.149727 -28.02461 -4.581568 -32.617676
000020 4a f8 f6 c0 10 ab 65 bf 2f 62 83 bd b4 71 a1 be
       -7.7178087 -0.89714146 -0.064152114 -0.3153206
000030 fc fc a2 c1 4d e5 b1 c1 64 f7 f2 41 74 f4 a3 c1
       -20.373528 -22.236963 30.370796 -20.494362
000040 3a a6 d7 c1 c4 5f a7 c1 8c 09 62 c0 8b 4c 81 bf
       -26.956165 -20.92176 -3.5318327 -1.0101484
000050 ad 52 d3 c1 72 13 e3 c0 93 05 83 c0 dc bc 63 3f
       -26.415369 -7.0961237 -4.0944304 0.8896005
000060 fe 9c 94 c1 31 07 a0 c1 0e a8 2f c1 30 87 21 c1
       -18.576656 -20.003511 -10.978529 -10.095505
000070 a7 f1 96 3f 95 a7 fc c1 67 3a 90 c1 fa 10 11 40
       1.1792496 -31.581827 -18.028517 2.2666612
000080 57 ab 98 c1 2b b9 08 41 fa 2a 34 bf dd bb 92 3f
       -19.083662 8.545207 -0.7037808 1.1463581
000090 3b 4f 24 c1 16 93 b0 c0 22 a8 a9 c1 87 e1 91 c1
       -10.269343 -5.517955 -21.207096 -18.23512
0000a0 ed 57 dd c1 f1 29 b4 c0 fc 27 c5 c1 e5 dc 58 c0
       -27.667933 -5.63012 -24.644524 -3.3884823
0000b0 dc 2d d2 be a4 9a 41 c1 0e 39 00 41 9b 2d e9 bf
       -0.41050613 -12.100254 8.013929 -1.8217043
0000c0 b9 5c a2 40 52 77 a6 c1 57 73 14 c1 86 29 50 42
       5.0738187 -20.808262 -9.278159 52.04055
0000d0 8a 51 15 c1 f7 98 1b c0 30 cc 35 c1 09 91 5e bf
       -9.332407 -2.4312112 -11.36235 -0.86940056
0000e0 34 f3 9c c0 24 5c 88 41 87 61 62 c1 6e cf 2e c1
       -4.904688 17.04499 -14.14881 -10.925642
0000f0 c2 b5 48 c1 78 1b 8f c1 f6 98 cd c0 ca 2e d5 c1
       -12.544374 -17.888412 -6.424922 -26.647846

fc2.weight f4 [64, 64]
000000 19 8c e7 bf 47 4e 23 3f 27 43 67 bf 72 86 3a be
       -1.808963 0.63791317 -0.9033684 -0.1821535
000010 8d 51 bd bf 58 66 07 bf 88 24 51 3f 01 1a b1 bf
       -1.4790512 -0.5289054 0.8169637 -1.3836061
000020 28 44 eb bf 0f 02 db bf ec 56 83 be 1b 8d 5e bf
       -1.8380175 -1.7110003 -0.25652254 -0.8693406
000030 b9 cf ca 3e 89 ba b1 bf 47 7a a4 bf 4d 69 8e bf
       0.39611605 -1.3885051 -1.2849816 -1.1125885
000040 5d f2 38 c0 fc 97 c5 be 78 ec a7 bf a7 45 53 bf
       -2.8897927 -0.38592517 -1.311904 -0.82528156
000050 c4 7b 45 bf 17 f3 8b 3f 01 ae 3b c0 d7 07 e1 3d
       -0.77141976 1.093356 -2.9324954 0.109878235
000060 da 11 a9 bf 8d 56 34 bf 70 34 7f bf 87 4f cf bf
       -1.3208573 -0.70444566 -0.9968939 -1.6196145
000070 ba 2e ee bf 5e db 0d c0 dd 91 9b bf ba bb ed bf
       -1.860801 -2.216514 -1.2153889 -1.8572915
000080 0e ea 04 c0 0b 14 ca bf c2 ac 9c bf 0e d5 da be
       -2.0767856 -1.5787367 -1.2240222 -0.42740673
000090 0f 08 22 bf 27 9e 06 c0 86 6c 7c bf 23 c3 85 3e
       -0.63293546 -2.1034029 -0.98603094 0.2612544
0000a0 6b 3c 8f bf e4 bb 38 bf 5e c2 92 3e d6 be 4c bf
       -1.1190313 -0.721617 0.28663915 -0.7997869
0000b0 ea ed 4f bf 3d a9 b0 bf ce c5 a8 bf bb 22 97 bf
       -0.81222403 -1.3801647 -1.3185365 -1.1807474
0000c0 8f 88 0c bf 31 8d 5b be 62 97 86 bf f5 2a 91 c0
       -0.5489587 -0.21440579 -1.0514948 -4.536494
0000d0 73 2d 95 bf 3d 29 e1 bf 46 ce 59 bf e8 1a 8b bf
       -1.1654495 -1.759071 -0.85080373 -1.0867586
0000e0 6c f5 1d 3f 3f 93 ab bf 7f 77 71 3e 7a 6e a9 bf
       0.6170261 -1.3404311 0.2358074 -1.323684
0000f0 30 9f 21 c0 ad 28 48 c0 13 52 bf be d1 d8 23 bf
       -2.525341 -3.1274827 -0.37367305 -0.6400271
000100 d4 b4 1a bd 5b 9e a2 be fb 6c 15 bf a4 ea bd bf
       -0.037770107 -0.3176144 -0.58369416 -1.4837232
000110 3e bc a4 bf 27 cf 82 bf d9 c7 92 bf e9 a9 41 3e
       -1.2869947 -1.0219468 -1.1467239 0.18912472
000120 2d b1 59 bf 1a d7 11 bf 16 b9 89 bc 2e 23 c6 be
       -0.85035974 -0.56968844 -0.016811889 -0.38698715
000130 ec 05 d0 be bc 71 96 bd e7 4f 55 bf 9f 82 19 bf
       -0.40629518 -0.07345912 -0.83325046 -0.59964937
000140 8e 9b d0 be b0 4b 49 bf e1 74 c9 be 65 46 23 3f
       -0.4074368 -0.78631115 -0.39346984 0.6377929
000150 d5 39 98 bc c2 2e a4 bf 7a aa 0d bf b9 88 a3 bf
       -0.018582264 -1.2826769 -0.5533825 -1.27761
000160 7d b6 19 c0 8b 19 69 bd a5 17 dd be c7 5a f2 be
       -2.4017632 -0.056909125 -0.43182102 -0.47334883
000170 45 e0 2d bf 2b 4c 2b 3e 26 88 eb bf 4d 43 17 bf
       -0.67920333 0.16728275 -1.8400924 -0.5908707
000180 95 74 6c bf af c3 93 bf 56 a3 66 bf c8 51 94 bc
       -0.9236539 -1.1544093 -0.9009298 -0.018105403
000190 8f a9 a6 be 4d e8 c1 bf a8 78 c3 bd 00 e2 01 3f
       -0.32551238 -1.5149018 -0.09544498 0.50735474
0001a0 92 d6 1d bf a6 c5 7a bf 80 a7 8a bf db d5 b4 bf
       -0.61655533 -0.9795784 -1.0832367 -1.4127764
0001b0 a2 dd b0 bf 87 7b 00 bf 05 23 f3 be 7c 1b b0 bf
       -1.3817637 -0.5018849 -0.47487655 -1.3758388
0001c0 b2 13 7c bf 58 eb d8 be 1d 42 fc 3c c5 48 1b c0
       -0.9846755 -0.42367053 0.030793244 -2.4263165
0001d0 7b 81 9f bf 8d 41 a6 bf ef b0 11 bf b7 2e 71 bf
       -1.2461389 -1.2988755 -0.56910604 -0.94211906
0001e0 db 9a 66 bf bc 6a 4e be c1 bb 1a bf 29 b8 e0 bf
       -0.9008004 -0.20157903 -0.6044274 -1.7556201
0001f0 73 55 ce be d2 85 1d bf c6 d1 8d bf 0f ec 7d bf
       -0.40299568 -0.6153232 -1.1079643 -0.9918832
000200 3d d1 36 bf 9c 8b 09 3e 92 e4 af be f3 02 98 bf
       -0.7141302 0.13432163 -0.34354073 -1.18759
000210 f3 e2 f3 be 37 e1 26 bf 6b ac a4 be fb bc 9d 3e
       -0.47634086 -0.651874 -0.32162794 0.30808243
000220 fd fe 64 bf ad d8 8c bf ae e9 7b bf 3b a9 9e be
       -0.8945158 -1.1003624 -0.9840344 -0.30988488
000230 dd 9d c2 bf d2 ac b2 be 04 7b 95 bf 3e cb 21 bd
       -1.5204426 -0.34897476 -1.1678166 -0.039500467
000240 0c a3 8b bf 78 f7 89 bf 32 3d 0d bf 9f 45 83 bf
       -1.0909133 -1.0778646 -0.551715 -1.0255622
000250 4e 81 e0 be 07 ac 57 bf f2 4b 63 bf b4 16 56 bf
       -0.43848652 -0.8424687 -0.8878776 -0.8362839
000260 6a 71 0c bf ff 36 e2 be d6 b5 85 bf bc 2f 55 bf
       -0.54860556 -0.44182584 -1.0446117 -0.8327596
000270 de bb d2 bf 57 13 d9 bd e0 19 a2 ba 4c e7 0b c0
       -1.6463583 -0.10599392 -0.001236733 -2.1859922
000280 7f 3f 21 3d 88 4f aa bf aa ac 99 be 14 ab 09 bf
       0.039367195 -1.3305521 -0.30014545 -0.5377667
000290 6c 18 ac bf 9c e1 b9 bf 9d 72 2b 39 2e 7d 04 bf
       -1.3444953 -1.4521976 0.00016350528 -0.5175351
0002a0 ff 4e ad bf 3e a5 ff bf 10 41 36 bf 3b ca b8 be
       -1.3539733 -1.9972303 -0.7119303 -0.3609179
0002b0 47 7c fb be df 44 06 bf 66 04 f6 3d 22 7d aa be
       -0.49118254 -0.5244884 0.12012558 -0.33298594
0002c0 44 97 92 bf f7 24 04 bf 28 74 07 bf 10 54 b5 bf
       -1.1452413 -0.51618904 -0.52911615 -1.4166279
0002d0 47 9f b0 bf 9f 01 34 be ac 57 f2 be cd 6b 7d be
       -1.3798608 -0.17578743 -0.47332513 -0.24748154
0002e0 6d 09 79 bf 1d 3d fb be ea b1 5b bf c2 03 ad bf
       -0.9728001 -0.49070063 -0.8581835 -1.3516772
0002f0 af 93 7d bf 6c b3 2b bf af 98 08 bd 21 10 c2 be
       -0.9905347 -0.6707065 -0.033348735 -0.3790293
000300 e1 b9 35 c0 4d 18 05 c0 0c b6 b5 c0 14 25 9e 40
       -2.8394701 -2.0796082 -5.6784725 4.942026
000310 37 e3 d4 3e dc 6f 33 c0 cd 8a 80 c0 d6 23 94 c0
       0.415796 -2.8037024 -4.0169435 -4.6293745
000320 a1 83 0a 40 14 60 a8 bf 9e b7 29 c0 c0 53 be c0
       2.164284 -1.3154321 -2.651832 -5.9477234
000330 26 7e 14 c0 9d 57 6a 40 a3 22 86 be a5 53 3e bf
       -2.3201995 3.6615975 -0.261983 -0.7434638
000340 38 37 60 c0 7e 62 83 c0 5e 68 6c bf f2 fd d7 bf
       -3.5033703 -4.105773 -0.9234675 -1.6874373
000350 6d cc b4 40 0b bf ce bf e6 b4 0c be 25 40 40 c0
       5.6499543 -1.6152052 -0.13740882 -3.003915
000360 cc cd 10 c0 36 93 1f 40 1f 0c 01 40 14 3e ce bf
       -2.2625608 2.49336 2.0163648 -1.6112695
000370 1e d3 30 c0 57 c5 b4 bd 5f d1 e8 bf 03 c2 a9 bf
       -2.7628856 -0.08826702 -1.8188895 -1.3262333
000380 e1 94 25 c0 c6 36 d9 3e d7 73 8b bf 19 98 28 c0
       -2.5872118 0.424246 -1.0894727 -2.6342833
000390 b0 94 6d c0 92 1e d8 bc 4f 76 c7 3f b1 d5 5a c0
       -3.7122002 -0.026381765 1.558298 -3.4192927
0003a0 2f 72 8b 3f 9f 2e 74 c0 6f bf 33 bf 47 08 a6 bf
       1.0894221 -3.8153455 -0.7021398 -1.2971276
0003b0 95 f9 e0 c0 04 31 f9 bf e2 f8 30 c0 18 71 5b c0
       -7.0304666 -1.9468083 -2.7651906 -3.4287777
0003c0 c6 9f 66 bf b1 4a e2 c0 c7 ff ae 3f d1 4d 8d c0
       -0.90087545 -7.0716176 1.3671807 -4.415749
0003d0 fa 07 59 3f 22 e7 1a c0 e8 66 a1 3d 98 a8 a0 c0
       0.84777796 -2.4203572 0.07880956 -5.0205803
0003e0 49 cc fa bf 99 85 3c c0 9a aa 0b 3f ca 81 c7 c0
       -1.9593593 -2.9456542 0.5455719 -6.2345934
0003f0 e3 e8 ce be 81 16 9a c0 6a 9e 39 c0 a9 af ae 3f
       -0.40412053 -4.815247 -2.9002938 1.3647357

fc2.bias f4 [64]
000000 30 01 ed c0 a6 ec 6b c0 c8 de 57 c0 fd be 31 c1
       -7.406395 -3.6863189 -3.3729725 -11.109128
000010 e5 31 03 c0 a1 97 95 c0 7f 98 33 c0 bc 95 86 bf
       -2.0499203 -4.6747594 -2.8061826 -1.0514445
000020 20 5c 4c c0 4c 4d 4f c0 9d 04 08 c0 c0 0e 0d c0
       -3.1931229 -3.2390928 -2.1252816 -2.2040253
000030 c1 96 49 bf bc 9f ed c0 b7 ab 46 c0 ef 5e 0e c0
       -0.7874566 -7.425749 -3.1042306 -2.2245443
000040 67 9c b2 bf c4 8a 7e c0 50 81 8d c0 dc 6a 84 bf
       -1.395398 -3.9772196 -4.422035 -1.0345111
000050 79 55 44 c0 79 cc b2 c0 81 e8 97 c0 2c 8c c9 bf
       -3.0677168 -5.58746 -4.747132 -1.5745902
000060 b2 be 22 c1 fb f6 da bf 67 84 c6 bf a0 71 e0 bf
       -10.171556 -1.7106622 -1.5509156 -1.7534676
000070 6b 29 19 bf 33 5b 67 bf 00 d4 de bf d6 df 05 c0
       -0.59828824 -0.90373534 -1.7408447 -2.0917869
000080 5e df ab bf 3d 29 1a c0 ae 0d 20 c0 45 30 a5 bf
       -1.3427541 -2.408767 -2.500835 -1.2905356
000090 21 07 a4 c0 6e 84 28 c1 ee d7 d1 c0 be 7b a0 bf
       -5.12587 -10.532331 -6.5576086 -1.2537763
0000a0 bc 2d c0 bf 7f 35 b1 bf 19 17 dd bf 84 14 19 c0
       -1.5013957 -1.3844451 -1.7272674 -2.3918772
0000b0 e6 30 a0 c1 db 28 97 bf 07 1e 28 c0 04 ac a7 bf
       -20.023876 -1.1809343 -2.6268327 -1.309937
0000c0 82 f9 87 bf 31 71 14 c0 75 70 53 bf 6f 88 59 c0
       -1.0623019 -2.3194087 -0.8259347 -3.3989522
0000d0 ce 12 c4 c0 c6 61 a5 bf b6 9c b5 c1 2b 5e d3 bf
       -6.1272955 -1.2920463 -22.701519 -1.6513113
0000e0 0d cd 67 c0 91 64 26 c0 80 db 2d bf 52 01 a6 bf
       -3.6218903 -2.599888 -0.67913055 -1.2969153
0000f0 da a1 16 c1 2c 87 3e c1 d9 1e 15 c0 05 4f 61 c0
       -9.414515 -11.908001 -2.3300078 -3.520448

fc3.weight f4 [1, 64]
000000 5a ef e1 3e 8e 0e e4 3e 00 24 85 3e 39 dc 2b 3f
       0.44127923 0.44542354 0.26004028 0.6713291
000010 a7 6b a4 be 21 c1 34 be 5d 96 ac be bf 20 cb be
       -0.32113382 -0.17651798 -0.33708468 -0.3967342
000020 db b4 b4 3e 68 51 78 3e 12 c0 d6 bc e6 fb 74 be
       0.35294232 0.24249804 -0.026214633 -0.23924217
000030 85 ce 4e be 4e 7c f4 be 47 61 cb 3e ed 34 90 be
       -0.20195968 -0.47751087 0.39722654 -0.2816538
000040 0c 69 d6 bd 6f af 27 3e 13 ab be bd 9b a7 88 3e
       -0.10469255 0.16375516 -0.093099736 0.26690373
000050 c1 9c a4 3e c0 59 a2 3e ec a4 4e 3e a9 50 e4 3e
       0.32150844 0.317091 0.201801 0.4459279
000060 88 ad d0 3d ad a7 b3 be f3 f9 db 3d f0 b5 ae 3d
       0.101893485 -0.35088864 0.107410334 0.085307956
000070 0e 02 6f 3c 74 05 1b 3e f5 93 7e 3e f5 86 f0 3e
       0.014587892 0.15138799 0.24861129 0.46977964
000080 bd 0c b8 3d 17 ed 56 be 0b ba 50 be fa dc 81 3e
       0.08986805 -0.2098888 -0.2038347 0.25363904
000090 26 43 61 3e 95 c9 0d 3e be d8 98 bf ca b8 80 be
       0.21998271 0.13846429 -1.1941144 -0.25140983
0000a0 66 12 97 3c 72 98 df 3e 4d 0a ee be 4a 3f b8 be
       0.01844139 0.43670994 -0.46492234 -0.35985786
0000b0 50 b7 8f bd 88 19 a7 bd 33 22 70 3e 9b a6 1e bd
       -0.07017386 -0.081591666 0.23450546 -0.038733106
0000c0 9d 70 32 3c 63 4f b6 3e 0d 1c cc be bf ca 7e be
       0.010891107 0.35607442 -0.3986515 -0.24882029
0000d0 ce 9e 81 3e 7e d6 bd 3e 58 9d f5 3e 6c 2f 35 40
       0.2531647 0.37077707 0.47971606 2.8310194
0000e0 4d 0c 90 3e 3e 70 b6 3e f3 87 7d 3e 98 74 84 bd
       0.28134385 0.3563251 0.24758892 -0.06467551
0000f0 5a b4 f7 bd 99 80 66 3d d3 90 fa 3d ed c5 c2 be
       -0.12094946 0.056274984 0.12234654 -0.3804163
